checkpoints/model_epoch159.pth (torch, 752631 bytes, 210 tensors)

spectral.conv1.conv.weight f4 [24, 1, 1, 1, 5]
0	0x3cb2495a	0.021763492
1	0x3c16f500	0.009213686
2	0xbcf4279f	-0.029804049
3	0xbc4d21f8	-0.012520306
4	0xbc26c548	-0.010178871
5	0x3cb42f59	0.021995233
6	0xbcf660c1	-0.030075433
7	0xbd056e99	-0.032576177
8	0x3c513fc4	0.012771551
9	0xbc320139	-0.010864549
10	0xbc7276a0	-0.01479879
11	0xbc0f7fc6	-0.008758491
12	0x3d126020	0.035736203
13	0x3d0d7ada	0.03454099
14	0xbc78ec5c	-0.015193071
15	0xbbaab40a	-0.0052094506
16	0x3b86499d	0.004098131
17	0xbd1c3b14	-0.03814228
18	0x3d0cc361	0.034366015
19	0xbc0c0c4b	-0.008547853
20	0x3bfe7adb	0.0077661104
21	0x3bd81c6f	0.0065951864
22	0xbcc914e7	-0.0245461
23	0x3c040360	0.008057445
24	0xbc9201c8	-0.017823115
25	0x3cae85d9	0.021304058
26	0xbbc3886c	-0.0059671905
27	0xbd608d16	-0.05482205
28	0x3d62d549	0.055379186
29	0xbb9f5378	-0.004862245
30	0xbc14ae0c	-0.009074699
31	0xbd33639a	-0.04379616
32	0x3cbf09c2	0.023320083
33	0x3c74ab43	0.01493341
34	0xbbaa68d6	-0.0052004857
35	0xbcebfe5d	-0.028807813
36	0xbd259580	-0.040425777
37	0x3d514335	0.051089484
38	0x3d179c0e	0.03701406
39	0xbc41185d	-0.011785594
40	0xbc720817	-0.014772437
41	0x3a7490be	0.00093294296
42	0x3c508373	0.012726652
43	0xbd2bf81b	-0.04198466
44	0xbc3d95fe	-0.011571405
45	0x3ca864d9	0.0205559
46	0xbb7242bd	-0.0036966049
47	0xb9bb7ff8	-0.00035762764
48	0xbd379a66	-0.04482498
49	0x3c4d4dfe	0.012530802
50	0xbab85ebb	-0.0014066318
51	0xbd386c51	-0.045025174
52	0x3c8506aa	0.01623853
53	0x3c78b3cd	0.015179587
54	0x3cf54b2f	0.029943077
55	0x3c8dbec5	0.01730288
56	0x3cea4ff5	0.02860258
57	0xbd691ed6	-0.056914173
58	0xbc08579f	-0.008321672
59	0xbc0a1563	-0.008427951
60	0xbc87fbc8	-0.01659955
61	0xbc402996	-0.011728665
62	0x3c534aea	0.012896279
63	0xbc48777d	-0.0122355195
64	0x3b67698d	0.0035310716
65	0xbd1ac0ad	-0.037781406
66	0x3bfe72b1	0.007765137
67	0xbc9a507b	-0.018837204
68	0x3c546c40	0.012965262
69	0x3c53724f	0.012905671
70	0xbc9bf87d	-0.019039387
71	0xbcc11910	-0.023571521
72	0xbc914e83	-0.017737633
73	0x3d64ecc0	0.055889845
74	0xbca78388	-0.020448461
75	0xbd217a4d	-0.039423276
76	0xbc697fdb	-0.0142516745
77	0x3ba5e985	0.005063238
78	0xbc7799bf	-0.0151123395
79	0x3d1d8973	0.03846116
80	0xbb958735	-0.004563237
81	0x3cf975e1	0.030451717
82	0xbca57644	-0.020197995
83	0xbca2dfd8	-0.019882128
84	0xbc4342bb	-0.011917765
85	0xbce0b5ed	-0.027430499
86	0xbd4d3259	-0.050096843
87	0x3c33643b	0.01094919
88	0x3d332661	0.043737773
89	0xbc9b52d6	-0.018960398
90	0xbc85ad0d	-0.016317869
91	0x3c70c081	0.014694334
92	0xbbc962de	-0.006145819
93	0xbba81df2	-0.005130523
94	0xbcc3bfcd	-0.023895169
95	0xbc5666c6	-0.013086027
96	0x3d0bb996	0.034112535
97	0x3a37a44d	0.0007005379
98	0xbd69fcfb	-0.057126027
99	0xbd81cd79	-0.06338019
100	0xbc8b84cb	-0.017031094
101	0xbc491578	-0.012273185
102	0x3bc4699c	0.005994035
103	0x3d00869e	0.03137838
104	0x3c8d54c4	0.017252333
105	0x3c268a2c	0.010164779
106	0x3c404d18	0.011737131
107	0x3ca3832e	0.019960012
108	0xbd30b97c	-0.04314564
109	0xbc3ef946	-0.011656111
110	0x3b1eedd6	0.0024250648
111	0xbbcaf829	-0.006194134
112	0x3962dde6	0.00021635703
113	0x3c8092e4	0.015695043
114	0xbd0f9224	-0.03505148
115	0xbd8d2b8a	-0.0689307
116	0xbd381285	-0.044939537
117	0xbb691a43	-0.0035568632
118	0x3cdd1b00	0.026990414
119	0xbd089968	-0.033349425

spectral.conv1.conv.bias f4 [24]
0	0xbe73bf01	-0.23803331
1	0xbed1c8f2	-0.40973622
2	0x3e232a73	0.15934162
3	0xbeb23e35	-0.34813085
4	0xbeb195b3	-0.34684524
5	0x3ea97490	0.33096743
6	0xbce285eb	-0.027651748
7	0xbda7b9cf	-0.08189737
8	0x3e8aefe4	0.27136147
9	0x3e0e0f44	0.13873011
10	0xbe542e8c	-0.20720881
11	0xbe41e4c6	-0.18934926
12	0x3e7d30b2	0.24725607
13	0x3e96f10b	0.29480776
14	0x3dbe6ee2	0.09298493
15	0xbd8af2b6	-0.06784575
16	0x3ec19d61	0.37815383
17	0x3e9fb90a	0.3119586
18	0xbea54ae5	-0.32283702
19	0xbcaaffde	-0.02087396
20	0xbea11086	-0.3145792
21	0x3e7fbfa1	0.24975444
22	0x3e544901	0.20730974
23	0x3d3a11cc	0.04542713

spectral.conv1.bn.weight f4 [24]
0	0x3f78c6a2	0.9717809
1	0x3f73bb50	0.9520769
2	0x3f7949e9	0.973784
3	0x3f75044b	0.95709676
4	0x3f6d8362	0.927786
5	0x3f6b164e	0.9183091
6	0x3f7f5eab	0.99753827
7	0x3f846b63	1.0345272
8	0x3f8155ad	1.0104271
9	0x3f7f1c22	0.996523
10	0x3f791991	0.97304636
11	0x3f7f0405	0.9961551
12	0x3f7b9b3c	0.98283744
13	0x3f7c9122	0.98658955
14	0x3f7b5e90	0.98191166
15	0x3f806bb6	1.0032871
16	0x3f8086cf	1.004114
17	0x3f7de7ad	0.99181634
18	0x3f7a7497	0.9783415
19	0x3f79bd24	0.9755423
20	0x3f7f33d2	0.99688447
21	0x3f772b57	0.96550506
22	0x3f7c9546	0.98665273
23	0x3f783880	0.9696121

spectral.conv1.bn.bias f4 [24]
0	0xbd4b7666	-0.04967346
1	0xbcf9511e	-0.030434188
2	0xbce670ac	-0.028129898
3	0xbd3b091c	-0.045662984
4	0xbd6ee92b	-0.058327835
5	0xbd24c912	-0.040230818
6	0xbbc5b848	-0.006033931
7	0x3d296376	0.04135462
8	0xbc8e9138	-0.01740323
9	0x3cdc0ae0	0.026860654
10	0xbb71ebc6	-0.0036914214
11	0xbcd644e4	-0.026155896
12	0xbbb5054a	-0.005524312
13	0xbcbf9d3c	-0.023390405
14	0xbc5f2ccc	-0.01362152
15	0xbc124fc6	-0.008930152
16	0x3c6403ed	0.013916952
17	0xbd15fd3f	-0.036618467
18	0x3b658032	0.0035019037
19	0xbcbeaee6	-0.023276757
20	0x3c88c9d0	0.016697794
21	0xbcdb9bb7	-0.026807649
22	0xbcc7ac6e	-0.024374213
23	0xbae30055	-0.0017318825

spectral.conv1.bn.running_mean f4 [24]
0	0xc1d003ec	-26.001915
1	0xc235c68f	-45.443905
2	0x42186b33	38.104687
3	0xc17adb68	-15.678566
4	0xc1c16da4	-24.178535
5	0x41541f4a	13.257639
6	0xc1b3874a	-22.44106
7	0x411ebf3c	9.921688
8	0xc27fd0c9	-63.95389
9	0xc196d577	-18.85423
10	0x4192dbd8	18.357346
11	0xc206a4fe	-33.661125
12	0xc1dfb3a0	-27.962708
13	0xc1c3dba2	-24.482243
14	0xc1e12235	-28.141703
15	0xc1da1811	-27.261751
16	0xc1f6837a	-30.814198
17	0xc23c1513	-47.02058
18	0xc22f6cca	-43.85624
19	0xc2eaefb7	-117.46819
20	0x420e5f1c	35.59288
21	0xc17b2ab4	-15.697926
22	0xc1d87589	-27.05739
23	0xc30f2b3e	-143.16891

spectral.conv1.bn.running_var f4 [24]
0	0x43e95008	466.62524
1	0x44ac2c96	1377.3933
2	0x44771c01	988.43756
3	0x43207944	160.4737
4	0x43c1ae13	387.35995
5	0x42e52115	114.56461
6	0x43acfe2b	345.9857
7	0x42ce7e4d	103.24668
8	0x452cfaac	2767.667
9	0x437f2c08	255.172
10	0x4381f35d	259.90128
11	0x44430e0d	780.21954
12	0x440613f0	536.3115
13	0x43d8cd02	433.60162
14	0x44088b05	546.1722
15	0x44080a71	544.16315
16	0x44259b48	662.4263
17	0x44be7da4	1523.9263
18	0x449e8ee6	1268.4656
19	0x46115869	9302.103
20	0x4460ce8a	899.2272
21	0x433e5de8	190.36682
22	0x43fa1548	500.16626
23	0x46573799	13773.899

spectral.conv2.conv.weight f4 [6, 6, 1, 1, 5]
0	0xbd4c37df	-0.04985797
1	0xbce12048	-0.027481213
2	0x3c194cae	0.009356661
3	0xb9a1981b	-0.0003082164
4	0xbd6ba01f	-0.05752575
5	0x3d218443	0.039432775
6	0xbcc13cfd	-0.023588652
7	0x3c4858f0	0.012228236
8	0x3d329e99	0.04360828
9	0x3cf818cb	0.03028526
10	0x3c47f2ae	0.012203855
11	0xbb4d53df	-0.0031330509
12	0x3c388494	0.011262078
13	0x3ccf304d	0.025291586
14	0x3c996b26	0.01872785
15	0xbbe84ee7	-0.007089484
16	0x3c854963	0.016270345
17	0x3cde9f6d	0.02717563
18	0xbd543122	-0.05180467
19	0xbc626c62	-0.013819786
20	0xbbda9e15	-0.006671677
21	0xbc2c5a80	-0.010519624
22	0xbb804cca	-0.003915404
23	0xbce0fccf	-0.027464299
24	0x3caeb265	0.0213253
25	0xbcc8f090	-0.024528772
26	0xbb718f76	-0.003685919
27	0x3a97b9e5	0.0011575787
28	0x3cb85911	0.022503408
29	0xbc6012d0	-0.01367636
30	0xbd5f877d	-0.05457257
31	0x3bed3ab2	0.007239663
32	0x3d25afa4	0.040450707
33	0x3cfcd0b5	0.030861238
34	0xbcdc9099	-0.026924418
35	0xbc5fde28	-0.013663806
36	0xbc4bb0c5	-0.012432282
37	0x3cf6897f	0.03009486
38	0x3cc23587	0.023707164
39	0x3cb6c964	0.022312827
40	0x3d45f28f	0.048327025
41	0x3d4ad22e	0.04951685
42	0x3d06109d	0.032730687
43	0x3c9381ff	0.018006323
44	0x3ca178ea	0.019710977
45	0x3ca3781f	0.01995474
46	0x3c04af55	0.008098443
47	0xbd00f4e9	-0.031483565
48	0xbcf9d693	-0.030497825
49	0x3ba56e8e	0.0050485795
50	0x3b9c2fb3	0.0047664284
51	0xbd2c9dd6	-0.04214271
52	0x3c2655ad	0.010152263
53	0xb981d363	-0.00024762293
54	0x3c46be8a	0.012130389
55	0x3d5b76da	0.053580143
56	0x3d94e8eb	0.07270988
57	0x3d3566c7	0.04428747
58	0x3bb62614	0.0055587385
59	0xbc493200	-0.012279987
60	0x3c27023e	0.010193406
61	0x3c7a75f7	0.015286914
62	0x3d1eba2f	0.038751777
63	0xbbf12491	-0.0073590954
64	0x3bb454a5	0.0055032545
65	0xb98187a7	-0.00024705866
66	0x3d1e2dbd	0.03861784
67	0x3c61657e	0.013757108
68	0x3bcb151b	0.0061975843
69	0xbc78bcaf	-0.015181704
70	0xbcae5a27	-0.021283222
71	0xbc89280a	-0.016742725
72	0xbcd69ba1	-0.026197257
73	0x3cd0e42c	0.025499426
74	0xbc8d8b02	-0.017278198
75	0x3c06ca5d	0.008226958
76	0xbc639f49	-0.013892957
77	0xbd46afe8	-0.0485076
78	0xbc9b4ec7	-0.018958462
79	0x3c8436de	0.016139444
80	0x3cccc1f5	0.02499483
81	0xbce517be	-0.027965423
82	0x3cd7d188	0.02634503
83	0x3b2fbd9d	0.00268159
84	0x3b957053	0.004560509
85	0xbcedc4cb	-0.029024502
86	0x3b9dc372	0.0048145587
87	0xbd11008c	-0.035400912
88	0xbc8dbe48	-0.017302647
89	0x3c89ef25	0.016837666
90	0xba8488ef	-0.001011161
91	0x3b0711fc	0.0020610085
92	0xbcc06eda	-0.023490358
93	0x3d453783	0.048148643
94	0x3991bfaf	0.0002779937
95	0x3bda0cde	0.006654366
96	0x3c59c21d	0.013290909
97	0xbd0f9286	-0.035051845
98	0x3cfadae8	0.03062196
99	0xbc126650	-0.008935526
100	0x3c6c186b	0.014410119
101	0x3c04438e	0.008072747
102	0xbcaf058f	-0.021364955
103	0xbb815a8e	-0.0039475625
104	0x3cf5105d	0.02991503
105	0xbcf5af56	-0.029990833
106	0x3af667c4	0.0018799235
107	0x3d8aa189	0.06769092
108	0xbce13214	-0.0274897
109	0xbbd1b3ea	-0.0063996213
110	0xbbac611a	-0.005260599
111	0xbb6931ed	-0.0035582737
112	0xbac12274	-0.0014734999
113	0x3ccc4b44	0.024938233
114	0xbb8f60da	-0.0043755593
115	0xbce05e98	-0.027388856
116	0xbc9b083f	-0.01892483
117	0x39171875	0.00014409593
118	0x3abce046	0.00144101
119	0x3d2c38b6	0.04204627
120	0xba73d217	-0.000930102
121	0xbc1cbd5d	-0.009566632
122	0xbbd4dfee	-0.006496421
123	0x3c2ddadd	0.010611263
124	0xbc2d062a	-0.010560552
125	0xbd0e135a	-0.034686424
126	0x3d3a5cc6	0.045498632
127	0x3c3bd943	0.011465373
128	0x3c5d4dd6	0.013507327
129	0x3abd5e5e	0.0014447679
130	0x3d8434dc	0.064553946
131	0x3ccd6d44	0.025076516
132	0x3d298881	0.041389946
133	0xbb16fbc4	-0.0023038248
134	0xbc890cb5	-0.016729692
135	0xbcad6a8e	-0.021168973
136	0x3b811cbf	0.0039401944
137	0xbbed8eff	-0.0072497125
138	0x3bff8d06	0.0077987937
139	0xbc99043c	-0.018678777
140	0xbc6bf5db	-0.014401878
141	0x3c022599	0.007943534
142	0xbb6e6aa1	-0.0036379474
143	0x3d4ccc06	0.04999926
144	0x3c612004	0.013740543
145	0x3c88dc70	0.016706675
146	0x3c8d92ba	0.017281879
147	0x3cbe4726	0.023227286
148	0xbcfe2497	-0.031023307
149	0xbc2c86ea	-0.010530213
150	0x3d0e5ded	0.034757543
151	0xbc8cd5a7	-0.017191721
152	0x3ba31793	0.0049771755
153	0xbc34ac87	-0.011027462
154	0xbbf101ac	-0.0073549356
155	0x3d82794f	0.06370794
156	0xbcbf2acd	-0.023335839
157	0xbce70a3c	-0.028203122
158	0x3caaa785	0.020831833
159	0xbd1c746e	-0.038196974
160	0x3b1c3bd6	0.0023839376
161	0xbc6c4f1c	-0.014423158
162	0xbc0f4b01	-0.00874591
163	0x3bca7ae5	0.006179201
164	0xbc418498	-0.011811398
165	0xbcdf0370	-0.027223319
166	0xbb27af79	-0.0025586768
167	0x3d08bf70	0.033385694
168	0xbc66bfb0	-0.014083788
169	0x3bf5c40f	0.0075001786
170	0x3ca2e530	0.019884676
171	0xbc27df49	-0.010246106
172	0xbb9d7de0	-0.0048062652
173	0x3c777a3c	0.015104827
174	0xbc83631f	-0.016038476
175	0xbc695ae3	-0.0142428605
176	0xbc8d08b8	-0.017216071
177	0x3c850200	0.016236305
178	0xbc0fc1f1	-0.008774267
179	0x3c0c2172	0.008552896

spectral.conv2.conv.bias f4 [6]
0	0xbdc260a0	-0.09491086
1	0xbe30b4bb	-0.17256443
2	0x3e376069	0.17907871
3	0xbd9d1a1d	-0.07670996
4	0x3ba587d6	0.0050515933
5	0xbb769d28	-0.0037630294

spectral.conv2.bn.weight f4 [6]
0	0x3f7a57e5	0.97790366
1	0x3f7c2142	0.9848825
2	0x3f7c7c5b	0.9862725
3	0x3f85490b	1.0412916
4	0x3f726850	0.9469042
5	0x3f834d3b	1.0257944

spectral.conv2.bn.bias f4 [6]
0	0xbd3e4622	-0.046453603
1	0xbc63bd49	-0.01390011
2	0x3b8e62f9	0.0043452946
3	0x3c8e95a7	0.017405344
4	0xbd5907d1	-0.05298597
5	0x3cb90338	0.022584543

spectral.conv2.bn.running_mean f4 [6]
0	0xbdd69993	-0.10478511
1	0xbd3e1f6f	-0.046416696
2	0x3e273b74	0.16331273
3	0xbd4c9a34	-0.049951747
4	0x3d8bf40b	0.06833657
5	0xbc955e07	-0.018233312

spectral.conv2.bn.running_var f4 [6]
0	0x3bdd85fc	0.006760357
1	0x3c7e7def	0.015532955
2	0x3bff9daf	0.00780078
3	0x3a7f0462	0.0009728131
4	0x3b81e952	0.0039645815
5	0x3ad62e0d	0.0016340628

spectral.conv3.conv.weight f4 [12, 12, 1, 1, 5]
0	0xbc7d1607	-0.015447146
1	0xbcdaec0a	-0.02672388
2	0xbc519e8e	-0.01279415
3	0xbd1804ac	-0.03711383
4	0x3c05f680	0.008176446
5	0xbb841662	-0.0040309886
6	0xbceb7035	-0.028740028
7	0xbced7b1e	-0.02898937
8	0xbcfc58f6	-0.030804139
9	0xbadf4f89	-0.0017037253
10	0xbce9f308	-0.02855827
11	0x3c5f4df3	0.013629424
12	0x3ccc9bab	0.024976572
13	0xbc94b39a	-0.018152047
14	0x3c8f120e	0.017464664
15	0x3c546a19	0.012964749
16	0x3c0c04f4	0.008546103
17	0xbc077fe2	-0.008270236
18	0x3d2d791a	0.04235182
19	0x3c5813fd	0.013188359
20	0xbd3b8b6c	-0.04578726
21	0xbc65f56a	-0.014035562
22	0xbcc2fc9d	-0.023802096
23	0xbb57c95f	-0.0032926423
24	0x3a4e49e2	0.0007869286
25	0x3b3e371d	0.002902455
26	0xbcd3032d	-0.02575835
27	0x3b979f96	0.0046271784
28	0xbc53684b	-0.012903283
29	0x3d05b868	0.032646567
30	0xbc17b327	-0.009259022
31	0x3bcb4e18	0.006204378
32	0x3c2c5488	0.010518201
33	0x3a93b720	0.0011269785
34	0xbc7d446a	-0.015458206
35	0x3cacef5a	0.021110225
36	0xbc6c40ef	-0.014419778
37	0x3d25067f	0.0402894
38	0xbcbcbecc	-0.023040198
39	0x3c4acb2e	0.012377543
40	0x3cdf6cb3	0.027273512
41	0xbbbdc25c	-0.0057909917
42	0x3d1ea598	0.03873214
43	0xbc9fc6a6	-0.019503903
44	0x3cf6c2f3	0.030122256
45	0xbcdf1b0d	-0.027234579
46	0x3cb98916	0.022648375
47	0x3c9d78ac	0.01922258
48	0x3ce0837c	0.027406447
49	0xbadb659c	-0.0016738656
50	0xbc8887a8	-0.016666248
51	0xbc20bdb5	-0.009810855
52	0x3cb00fc9	0.021491902
53	0xbc40f4b5	-0.011777093
54	0x3d0bc02d	0.03411882
55	0xbd0a9bae	-0.033839874
56	0xbd260625	-0.040533204
57	0x3a18a50b	0.0005822933
58	0x3c4bf502	0.012448551
59	0x3d38b357	0.045092907
60	0xbc944240	-0.018097997
61	0xbc8c5ddf	-0.017134605
62	0xbbd642bc	-0.006538717
63	0xbd0bee35	-0.03416272
64	0x3b86bbc3	0.0041117384
65	0xbb94919a	-0.0045339586
66	0xbbfe5481	-0.0077615385
67	0x3cf6b703	0.030116564
68	0x3c4e46f4	0.012590159
69	0x3ca842e7	0.020539714
70	0x3cc98e5a	0.024604011
71	0x3c761756	0.015020212
72	0xbc602821	-0.0136814425
73	0xbca5f440	-0.020258069
74	0xbd7ef266	-0.062242888
75	0xbba92467	-0.00516181
76	0x3c8b3861	0.016994657
77	0x3b8aa0c9	0.004230593
78	0xbc922792	-0.017841134
79	0x3d77f149	0.06053284
80	0xbc8ca927	-0.017170502
81	0xbbef4901	-0.007302404
82	0xbc0e900a	-0.008701334
83	0xbbfd6d88	-0.0077340044
84	0x3c70b428	0.01469139
85	0x3d06846a	0.032841124
86	0xbce4d243	-0.027932292
87	0x3c49188c	0.012273919
88	0xbd8d9108	-0.06912428
89	0x39a46d52	0.00031361968
90	0x3b87159f	0.0041224505
91	0xbb94db10	-0.004542716
92	0x3d01d6e0	0.03169906
93	0x3cc8a397	0.024492068
94	0xba91cd64	-0.0011123833
95	0x3c09fecc	0.008422565
96	0x3c8c650c	0.017138027
97	0xbd1b49a1	-0.037912015
98	0x3c80b6b7	0.015712125
99	0xbc2fd670	-0.010732278
100	0x3ba9ec3a	0.005185631
101	0x3cb87111	0.022514852
102	0xbc8409b9	-0.016117917
103	0xbbff7eba	-0.0077970894
104	0xbd168cc7	-0.03675535
105	0xbd0cedf3	-0.034406614
106	0xbc00c490	-0.007859364
107	0x37ba344c	2.219728e-05
108	0xbc1e0cbe	-0.009646593
109	0x3c8c7b36	0.017148595
110	0xbb293340	-0.00258179
111	0x3d2d7053	0.04234345
112	0x3d4304f3	0.04761214
113	0xbc3a488a	-0.011369834
114	0x3caeaf70	0.02132389
115	0x3cacf848	0.021114483
116	0xbcb1e7d7	-0.021716995
117	0x3c73ebf7	0.014887801
118	0xbc508125	-0.012726103
119	0xbc085ff1	-0.008323655
120	0x3a606866	0.00085604785
121	0x3c3e1d4c	0.011603665
122	0x3c547971	0.012968407
123	0xbd140004	-0.036132827
124	0xbc955828	-0.018230513
125	0xbc090900	-0.008363962
126	0x3acd5d8d	0.0015668139
127	0xbb0f265b	-0.002184293
128	0x3b5adf8f	0.0033397411
129	0x3c087a24	0.008329902
130	0x3d195acb	0.037440103
131	0x3c2a0d51	0.010379151
132	0xbcdbd3b2	-0.026834343
133	0x3b91e5cb	0.0044524423
134	0x3c62be8d	0.013839376
135	0x3c013f51	0.007888631
136	0xbd3516c5	-0.044211168
137	0x3d602989	0.05472711
138	0xbc6350e8	-0.01387427
139	0x3c164e03	0.009173873
140	0x3b3202cb	0.002716231
141	0x3c8072c8	0.015679732
142	0x3c5c0b13	0.013430375
143	0xbbff831c	-0.007797612
144	0x3cb61991	0.022228988
145	0xbc090bcc	-0.008364629
146	0xbc34f3d6	-0.011044463
147	0x3d71d857	0.05904421
148	0xbccd2054	-0.02503983
149	0x3c08a1cf	0.008339359
150	0xbc152182	-0.009102227
151	0x3d38074a	0.044928826
152	0xba386cf3	-0.00070352777
153	0x3d217ba2	0.039424546
154	0xbc281d17	-0.010260842
155	0x3b573f4f	0.0032844131
156	0x3cb064d8	0.021532461
157	0x3c4ef9c5	0.012632792
158	0x3c74d6a8	0.014943756
159	0x3cf36f84	0.02971626
160	0x3c8a609d	0.016891772
161	0x3cd5dcb2	0.026106212
162	0x3c1282b1	0.008942292
163	0x3c027934	0.007963467
164	0x3c59a762	0.013284536
165	0xbcb83484	-0.022485979
166	0x3bf88fc5	0.007585498
167	0xbd1572b3	-0.03648634
168	0x3c5909b1	0.0132469395
169	0x3cc5cb38	0.024144754
170	0xbcf2ec4e	-0.029653694
171	0x3c9284d1	0.017885597
172	0x3b0dcdbb	0.0021637517
173	0x3ba254bf	0.00495395
174	0xbcb1ac22	-0.021688525
175	0x3cc8eee3	0.024527973
176	0xbce876dc	-0.028376989
177	0xba57e6aa	-0.0008235971
178	0xbba3a12a	-0.0049935775
179	0xbb6de118	-0.0036297496
180	0xbaf6d24e	-0.0018830986
181	0xbcd17293	-0.025567329
182	0x3c7543ec	0.014969807
183	0xbcf0bb5d	-0.029386217
184	0xbc756328	-0.014977254
185	0xbc2b9628	-0.010472812
186	0x3b4ee370	0.0031568669
187	0xbb02c9af	-0.0019956639
188	0xbcb2a6c7	-0.021808041
189	0xbbe7b374	-0.007070953
190	0xbc5a45d2	-0.0133223105
191	0xbc861bfd	-0.016370768
192	0xbc264ec4	-0.010150615
193	0x3d073868	0.033012778
194	0x3c6cf76e	0.014463289
195	0xbce53f35	-0.027984241
196	0xbd069122	-0.032853253
197	0xbce81fcd	-0.028335476
198	0x3bb630f7	0.0055600363
199	0x3bace612	0.00527645
200	0xbca643e9	-0.020296054
201	0xbcaf72af	-0.02141699
202	0x39325b94	0.00017009518
203	0x3c854ad5	0.016271034
204	0x3c33782e	0.010953946
205	0xbb7bfab9	-0.0038449003
206	0xbc761c7b	-0.015021439
207	0xbd2e524b	-0.04255895
208	0xbcdb2e24	-0.0267554
209	0x3c6dc8d9	0.014513218
210	0x391da3fb	0.00015033774
211	0x3c7f78e4	0.015592787
212	0x3c294dc9	0.010333487
213	0xbd09611a	-0.03353987
214	0x3b3b8201	0.0028611424
215	0xbcfc3297	-0.030785842
216	0xbb207960	-0.0024486408
217	0x3c2896b3	0.010289836
218	0xbcbdfb59	-0.023191141
219	0x3cfb0578	0.030642256
220	0x3c7463e1	0.014916391
221	0xbd073775	-0.033011872
222	0x3bd1c2ca	0.0064013945
223	0x3c0d6e0c	0.008632194
224	0x3c9d6de7	0.019217445
225	0xbcc0cc2c	-0.023534857
226	0xbc0b6561	-0.008508057
227	0x3cbe2619	0.023211526
228	0x3c3bd83e	0.01146513
229	0xbb3af6b3	-0.0028528392
230	0x3c35eb5c	0.011103477
231	0xbd90db9d	-0.07073138
232	0xbbc0ba93	-0.0058816164
233	0xbd837ff6	-0.06420891
234	0x3c78e64b	0.015191625
235	0xbcb651dd	-0.022255832
236	0xbbcb792f	-0.0062095146
237	0xbd2b63b0	-0.041843116
238	0x3ca47f28	0.020080164
239	0x3cb5d7ba	0.022197593
240	0xbc59fd68	-0.013305046
241	0x3b419e39	0.002954377
242	0xba29f6aa	-0.0006483594
243	0x3d1c8d3e	0.038220637
244	0xba7a3672	-0.0009544856
245	0xbb53a90d	-0.0032296807
246	0xbd3a3a32	-0.045465656
247	0xba213e4a	-0.00061509444
248	0xbc5c8735	-0.01345997
249	0x3cd34332	0.025788877
250	0xbd1fba8a	-0.038996257
251	0xbc1079a6	-0.008818066
252	0xbc50d077	-0.012745014
253	0x3ca6a0ee	0.02034041
254	0x3cfc6ede	0.030814584
255	0xbcbe7922	-0.02325112

spectral.conv3.conv.bias f4 [12]
0	0x3a445bb3	0.0007490471
1	0xbc12e199	-0.0089649195
2	0xbcac1a24	-0.021008559
3	0x3d19b628	0.037527233
4	0x3caefd06	0.021360885
5	0x3c2ab0a4	0.010418091
6	0xbdd67acd	-0.10472641
7	0xbdf76a10	-0.12080777
8	0xbc7406e8	-0.014894225
9	0x3dd6941b	0.104774676
10	0xbd6db75b	-0.05803619
11	0xbd9861fe	-0.074405655

spectral.conv3.bn.weight f4 [12]
0	0x3f7d7aee	0.990157
1	0x3f80cc9c	1.0062442
2	0x3f8040ee	1.0019815
3	0x3f811f17	1.0087613
4	0x3f88df54	1.0693154
5	0x3f8131b1	1.009329
6	0x3f81fb8a	1.0154889
7	0x3f80ff50	1.0077915
8	0x3f83c847	1.0295495
9	0x3f80e67d	1.007034
10	0x3f844ca4	1.0335889
11	0x3f7f4463	0.99713725

spectral.conv3.bn.bias f4 [12]
0	0xbcfb9312	-0.030709777
1	0x3b6db917	0.0036273652
2	0xb9a26753	-0.0003097603
3	0x3c1562dc	0.009117808
4	0x3cf5f5e0	0.030024469
5	0xbcf884fa	-0.030336846
6	0xbd2d33e8	-0.04228583
7	0xbcae74ac	-0.021295868
8	0x3c901d9f	0.01759225
9	0xbba47f01	-0.005020023
10	0x3b8f3ebe	0.004371493
11	0x3c4515db	0.0120291365

spectral.conv3.bn.running_mean f4 [12]
0	0xbc35837e	-0.011078713
1	0xbc575745	-0.013143365
2	0x3d925c4a	0.07146509
3	0xbdea8cb6	-0.1145262
4	0xbcf96a9e	-0.030446347
5	0x3e58f5f5	0.21187575
6	0x3d82f77d	0.06394861
7	0x3c84e6d5	0.01622335
8	0x3d4a9292	0.049456187
9	0x3ca3e054	0.020004429
10	0xbcc91716	-0.024547141
11	0x3d13eebf	0.036116358

spectral.conv3.bn.running_var f4 [12]
0	0x3c54d6f8	0.012990706
1	0x3cfb9260	0.030709445
2	0x3c23ec84	0.01000512
3	0x3c6cc0fd	0.014450309
4	0x3b98c217	0.004661809
5	0x3d1cd9e3	0.03829373
6	0x3d17c176	0.037049733
7	0x3cc3d611	0.023905786
8	0x3c4f2087	0.0126420325
9	0x3c6b067c	0.014344808
10	0x3bdce35b	0.00674097
11	0x3c9e1495	0.019296924

spectral.conv4.conv.weight f4 [12, 18, 1, 1, 5]
0	0xbc3dca7b	-0.01158392
1	0x3c97721d	0.01848703
2	0x3ca7498c	0.020420812
3	0xbca7e9ca	-0.020497221
4	0x3b0bfed5	0.0021361609
5	0x3c884321	0.016633572
6	0xbd6b2ced	-0.05741589
7	0x3d650488	0.055912524
8	0x3d2b9822	0.041893132
9	0xbc896d89	-0.016775863
10	0x3c82e356	0.015977543
11	0xbc584313	-0.0131995855
12	0x3d243d1e	0.04009735
13	0x3cc1b98d	0.023648048
14	0xbc8ca738	-0.01716958
15	0xbd0134ed	-0.031544615
16	0xbd3d5021	-0.046218995
17	0x3c171aaa	0.009222666
18	0xbd5f5715	-0.054526407
19	0xbcc1baef	-0.023648707
20	0xbcd9fbf0	-0.026609391
21	0x3be4b6dd	0.006979807
22	0x3bef6db6	0.0073067797
23	0x3ba55a07	0.0050461325
24	0x3cc5c5c1	0.024142148
25	0xbcff40f2	-0.031158898
26	0x3cbc76c4	0.02300585
27	0xbc54ea6c	-0.012995344
28	0xbcfa3862	-0.030544464
29	0xbb216c32	-0.002463114
30	0xbc6490cc	-0.013950538
31	0xbcd173ac	-0.025567852
32	0xbb88bb26	-0.0041727005
33	0x3d3f6127	0.04672351
34	0xbd01b781	-0.031669144
35	0xbb72477c	-0.0036968878
36	0x3b49bae8	0.003078157
37	0xbc6a1bc7	-0.014288849
38	0xb93feb50	-0.0001830284
39	0xbb598365	-0.003318989
40	0xbcf7e5f2	-0.030261014
41	0x3c23b300	0.009991407
42	0x3d4189db	0.04725061
43	0xbc815d30	-0.015791506
44	0xbca207ce	-0.019779112
45	0x3d161f4d	0.036650945
46	0xbd60c717	-0.054877367
47	0xbc94d775	-0.018169144
48	0x3b5b3223	0.0033446632
49	0xbce93a7b	-0.028470268
50	0x3cb753a5	0.022378752
51	0xbba33866	-0.0049810885
52	0x3cba55f6	0.022746067
53	0xbc0eb585	-0.00871027
54	0xbcca1bad	-0.0246714
55	0xbb6f59aa	-0.003652195
56	0x3b279d6c	0.0025576008
57	0xbae5f94b	-0.0017545609
58	0xbccae4bb	-0.02476727
59	0xbc9fe6ca	-0.019519228
60	0x3b1d4410	0.0023996867
61	0x3cb992c6	0.022652995
62	0x3d908ec4	0.070584804
63	0x3c9df0e0	0.019279897
64	0x3cf97f1f	0.030456124
65	0xbc59ff49	-0.013305494
66	0x3d50adc7	0.050946977
67	0xbb90a514	-0.00441421
68	0x3c0fcbc0	0.008776605
69	0x3bd5c0d5	0.0065232315
70	0xbc0f856d	-0.0087598385
71	0xbb328aa1	-0.0027243274
72	0xbab7737e	-0.0013996211
73	0xbcb9179d	-0.022594268
74	0xbcd05724	-0.025432177
75	0xbccfb1a2	-0.025353257
76	0x3cd28dd7	0.0257024
77	0x3c6013e0	0.013676614
78	0xbc815ef5	-0.01579235
79	0x3c399dab	0.011329095
80	0x3cd2d967	0.025738431
81	0x3b93366c	0.0044925716
82	0xbc8680ff	-0.016418932
83	0x3c028058	0.00796517
84	0x3b2aa4da	0.00260382
85	0x3b9222d8	0.00445972
86	0xbccbdec2	-0.024886493
87	0x3cf1524f	0.029458193
88	0x3cbafb2d	0.022824848
89	0x3c5df4ad	0.013547105
90	0xbd4e148e	-0.05031257
91	0x3be3fe6c	0.0069578197
92	0x3ca8c0ad	0.020599687
93	0x3c872d08	0.016500965
94	0xbb93262e	-0.0044906354
95	0xbcadef24	-0.021232195
96	0x3cb0c875	0.02157996
97	0xbbd54b53	-0.0065092235
98	0x3c200250	0.009766176
99	0x3ccede3d	0.025252456
100	0xbc8e5cfc	-0.017378323
101	0x3bde8d11	0.006791719
102	0xbc226663	-0.009912106
103	0x3d20e6f4	0.039282754
104	0x3c090bdc	0.008364644
105	0x3c5958c2	0.01326579
106	0x3d0e1bd1	0.034694497
107	0x3c43a885	0.011942034
108	0x3cd3703e	0.025810357
109	0x3d212d46	0.039349817
110	0xba9136f0	-0.0011078995
111	0x3b477159	0.003043255
112	0x3d33df03	0.043913852
113	0x3bad2a20	0.0052845627
114	0xbbb178ce	-0.0054160124
115	0x3bac4767	0.0052575353
116	0x3d53bed8	0.051695675
117	0x3bd798d5	0.0065794983
118	0x3bfac9b2	0.0076534385
119	0x3ccfca65	0.025365064
120	0xbc0f498a	-0.00874556
121	0xbbb31be4	-0.0054659713
122	0x3b1242ef	0.0022317728
123	0x3d2592bd	0.040423144
124	0x3cbe4413	0.02322582
125	0x3a7e5104	0.00097014033
126	0xbca975a6	-0.020685982
127	0x3c1f867b	0.0097366525
128	0x3d256496	0.04037913
129	0x3b8243af	0.0039753537
130	0xbcda4635	-0.026644805
131	0x3c468014	0.012115497
132	0x3c8cf227	0.017205311
133	0xbc2229da	-0.0098976735
134	0x3a29217f	0.00064518297
135	0x3cbd8bee	0.023138013
136	0x3cc04ca8	0.023474053
137	0x3c5385ad	0.012910289
138	0x381f8a71	3.8037488e-05
139	0xbd1ec937	-0.038766112
140	0x3c1d2a38	0.009592585
141	0xbcc88b37	-0.024480445
142	0xbbc6c6f8	-0.0060661994
143	0x3d002579	0.031285737
144	0xbc9d9ad9	-0.019238876
145	0x3d015afa	0.031580903
146	0x3ce4b49b	0.02791815
147	0x3c1d714d	0.009609533
148	0x3ca2afe4	0.019859262
149	0xbbac64e6	-0.0052610515
150	0x3c0b66f6	0.0085084345
151	0xbc328fc6	-0.010898536
152	0x3cd499be	0.025952216
153	0x3b3f0f91	0.0029153565
154	0x3cd7268a	0.026263494
155	0xbcd7c724	-0.026340075
156	0x3c043a5a	0.008070553
157	0xbbe8f4c9	-0.007109259
158	0xbbb80a6c	-0.0056164768
159	0x3bb607ae	0.0055551147
160	0xbcedd646	-0.029032838
161	0xbc9d6d75	-0.019217232
162	0x3c9c055a	0.01904552
163	0xbc736dd1	-0.014857725
164	0xbbb1a1c7	-0.0054208967
165	0x3c056cb4	0.008143593
166	0xbb85641e	-0.004070773
167	0xbc042e0e	-0.008067621
168	0xbb2f51a5	-0.0026751545
169	0xbbd01b87	-0.0063509378
170	0x3d1787f5	0.036994893
171	0x3c82097a	0.01587366
172	0x3d29839d	0.04138528
173	0xbc476502	-0.012170078
174	0x3ce8171b	0.02833133
175	0x3d0a0cb2	0.033703513
176	0xbcabb871	-0.020961972
177	0xbb985b55	-0.0046495595
178	0x3c214a4d	0.009844375
179	0x3c38b11e	0.011272697
180	0x3c474652	0.012162762
181	0xbc21c390	-0.009873286
182	0x3c254f12	0.010089653
183	0x3977d1e0	0.0002363394
184	0x3c9f39b2	0.019436691
185	0xbb24a794	-0.0025124298
186	0x3b98bf5d	0.004661484
187	0x3b0ca7ec	0.0021462394
188	0x3ca001af	0.019532053
189	0xbba14370	-0.0049213693
190	0xbb4066da	-0.002935818
191	0x3d27caed	0.04096501
192	0xbc46ee90	-0.012141839
193	0x3bd1b32f	0.006399534
194	0x3d4394dd	0.04774939
195	0x3b1c33e7	0.0023834647
196	0x3af1d7c8	0.0018451149
197	0xb9c4e349	-0.00037553374
198	0x3bd48a5b	0.00648622
199	0x3d4b7e62	0.049681075
200	0x3ba2d7fb	0.0049695945
201	0xbb0a7687	-0.0021127777
202	0xbc912fe8	-0.017723039
203	0x3c61a7d9	0.013772928
204	0x3d2c672a	0.042090572
205	0xbc1165fc	-0.008874413
206	0x3c5801b0	0.013183996
207	0x3cb55397	0.022134585
208	0x3b163454	0.0022919374
209	0xbc448a08	-0.0119958
210	0xb9bf417e	-0.00036479154
211	0xbc9a40e8	-0.018829778
212	0x3c9cf050	0.019157559
213	0x3d45bf0c	0.0482779
214	0x3bb130bb	0.0054074205
215	0x3a4ac826	0.0007735513
216	0x3bcf5d24	0.006328242
217	0xbc57380a	-0.013135919
218	0x3d07daca	0.033167638
219	0x3c9024d6	0.01759569
220	0x3d40eb86	0.047099613
221	0x3d1f37cb	0.038871568
222	0xbb4b417c	-0.0031014374
223	0x3c799807	0.015234
224	0x3d0eb8c3	0.03484417
225	0x3c514b0e	0.012774242
226	0x3d10397e	0.03521108
227	0x3c488055	0.012237628
228	0xbcc69a71	-0.024243565
229	0xbd0bd27c	-0.03413628
230	0x3ca55d0a	0.020185966
231	0x3c977857	0.01849
232	0x3ce02b7f	0.02736449
233	0xbc08179f	-0.008306413
234	0x3cfd16ca	0.030894656
235	0x3ca9f88d	0.020748401
236	0xbc6b5f50	-0.014365986
237	0x3ca62da7	0.02028544
238	0x3d1fc901	0.03901005
239	0x3c9caf18	0.01912646
240	0xbce1ffa3	-0.027587717
241	0x3d4245c0	0.0474298
242	0xbc1eb4a1	-0.00968662
243	0xbb1cae48	-0.002390759
244	0x3b4390b3	0.0029840886
245	0xbbb3afcb	-0.0054836026
246	0x3c47cb99	0.012194538
247	0xbc1da1a5	-0.009621059
248	0x3bd3492a	0.006447931
249	0x3cbaead6	0.022817057
250	0x3bf6695a	0.007519883
251	0x3bfb10d5	0.0076619186
252	0x3b6cbc09	0.003612282
253	0xbd1f137a	-0.038836934
254	0xbc617624	-0.013761077
255	0x3c8c60b7	0.017135961

spectral.conv4.conv.bias f4 [12]
0	0xbdb9ce6b	-0.09072574
1	0xbc32f48d	-0.010922563
2	0x3d3c00c8	0.045899183
3	0xbc174e4e	-0.009234978
4	0xbcc8f067	-0.024528695
5	0x3cb9c5b8	0.022677287
6	0x3bb5482d	0.0055322857
7	0xbd6df898	-0.058098406
8	0x3c9b72cb	0.018975636
9	0xbdb13e95	-0.08654515
10	0xbdd7e7f7	-0.10542291
11	0x3d9d01d4	0.07666364

spectral.conv4.bn.weight f4 [12]
0	0x3f76658e	0.9624871
1	0x3f7fb630	0.9988737
2	0x3f84d340	1.0376968
3	0x3f7fc1ff	0.9990539
4	0x3f85ec75	1.0462786
5	0x3f85ca9a	1.0452454
6	0x3f7cc06b	0.98731107
7	0x3f8416e2	1.0319483
8	0x3f82c7a7	1.0217179
9	0x3f82e79a	1.0226929
10	0x3f8b13e6	1.0865448
11	0x3f814efc	1.0102229

spectral.conv4.bn.bias f4 [12]
0	0xbd375123	-0.044755112
1	0xba4657a2	-0.0007566159
2	0xbb015840	-0.001973644
3	0xbb2e9299	-0.0026637672
4	0x3d52afa7	0.051437046
5	0x3c15e1a9	0.00914804
6	0xbbb3cbe9	-0.0054869545
7	0x3c5cb864	0.0134716965
8	0x3a0e4c0c	0.0005428202
9	0x3c5739ee	0.01313637
10	0x3d58956a	0.052876867
11	0xbbe43bc6	-0.0069651334

spectral.conv4.bn.running_mean f4 [12]
0	0xbde53f7d	-0.1119375
1	0x3e662907	0.22476588
2	0x3ea3e094	0.32007277
3	0xbe3255ef	-0.17415594
4	0xbd019728	-0.031638294
5	0xbdc53b63	-0.09630468
6	0xbe44d457	-0.19221626
7	0x3d2605e3	0.040532958
8	0x3da225b6	0.07917349
9	0xbd80b9a4	-0.06285408
10	0xbe780c21	-0.24223377
11	0x3ee52193	0.44752178

spectral.conv4.bn.running_var f4 [12]
0	0x3d042f02	0.032271393
1	0x3d4d637c	0.050143704
2	0x3daa6365	0.08319739
3	0x3d3c6eff	0.04600429
4	0x3c639417	0.013890288
5	0x3c848ba1	0.016179862
6	0x3d62a60e	0.055334143
7	0x3dd38767	0.1032856
8	0x3c9b33e2	0.018945638
9	0x3cd2d3ff	0.025735853
10	0x3cef2436	0.029192071
11	0x3dc81850	0.09770262

spectral.conv5.conv.weight f4 [24, 36, 1, 1, 49]
0	0xbcefd3b7	-0.029275758
1	0xbc750335	-0.014954378
2	0x3d3dab2e	0.046305828
3	0xbce4ee0b	-0.027945539
4	0xbd284395	-0.041080076
5	0x3c2dfbad	0.010619086
6	0xbd065d4d	-0.032803822
7	0x3cc425e6	0.023943853
8	0x3bef0385	0.0072941207
9	0xbb103184	-0.002200217
10	0xbcb19e8d	-0.021682048
11	0x3caf9a75	0.021435956
12	0x3c854f50	0.01627317
13	0x3cb52b1e	0.022115286
14	0x3c8ed4a6	0.017435383
15	0x3a0b3b33	0.00053112506
16	0x3c246726	0.010034358
17	0x3cce8bce	0.025213148
18	0x3cd83b59	0.026395487
19	0xbbd07547	-0.006361637
20	0x3c2aa932	0.010416316
21	0xbbec0d8b	-0.007203763
22	0xbbf9f027	-0.0076275053
23	0x391ed6ca	0.0001514807
24	0x3c91301b	0.017723134
25	0x3c1a036d	0.009400231
26	0x3c5c9f12	0.01346566
27	0xbbbe4959	-0.0058070836
28	0xbc02c43b	-0.007981355
29	0x3c021591	0.007939712
30	0xbce7c2b9	-0.028291093
31	0xbc4bd8e5	-0.012441848
32	0xbced2ce1	-0.028952064
33	0xbd156131	-0.036469642
34	0x3aa5231e	0.0012598967
35	0x3c3faa9a	0.011698389
36	0xbc9452af	-0.018105833
37	0xbc9f151a	-0.019419242
38	0xbc1584d2	-0.009125905
39	0xbd6c7a04	-0.05773355
40	0xbc0b8ab1	-0.008516953
41	0xbbcfad1d	-0.0063377754
42	0xbbd78f66	-0.0065783737
43	0xbcc149f9	-0.023594843
44	0xbd225924	-0.039635792
45	0xbaa61217	-0.0012670186
46	0x3c20cbbd	0.0098142
47	0x3ba708d3	0.0050974875
48	0x3b3f2ee3	0.0029172234
49	0xbb95c436	-0.0045705093
50	0x3cef79f3	0.029232955
51	0x3beffc19	0.0073237536
52	0xbc8b1955	-0.016979853
53	0xbc757107	-0.014980561
54	0x3b29fe24	0.0025938833
55	0xbbd0fca6	-0.0063777743
56	0x3cd377fd	0.02581405
57	0xbc7aee7b	-0.015315647
58	0xbb849e5b	-0.0040471978
59	0xbc928d7d	-0.017889732
60	0xbc80e4a7	-0.01573403
61	0xbc310caf	-0.010806247
62	0xbb1d18c5	-0.0023971063
63	0xbb80096a	-0.0039073722
64	0xbb125daa	-0.002233366
65	0xbc560b09	-0.013064154
66	0xbcfae5a7	-0.030627085
67	0xbc512036	-0.012764027
68	0xbd036376	-0.032077275
69	0xbcab010a	-0.020874519
70	0xbd286786	-0.041114353
71	0x3c156534	0.009118367
72	0xbb87f4a4	-0.0041490365
73	0xbd4158f3	-0.04720397
74	0xbccb42be	-0.024812099
75	0xbc381ccc	-0.011237334
76	0xbb92898c	-0.0044719633
77	0xbb845f17	-0.004039656
78	0x3cc9dd5f	0.02464169
79	0x3c5b843e	0.013398228
80	0xbb645082	-0.0034838025
81	0xbcc05dac	-0.023482166
82	0x3c816f4a	0.015800137
83	0xbbfd97a9	-0.0077390266
84	0x3c572d9b	0.013133432
85	0xbc459048	-0.012058325
86	0x3c434f5c	0.011920776
87	0xbcb9f525	-0.022699902
88	0xba875b46	-0.0010326884
89	0xbc95bae6	-0.018277597
90	0xbd36156c	-0.044454023
91	0xbb21e357	-0.0024702155
92	0x3abac138	0.0014248258
93	0x3d5d2311	0.05398852
94	0xbcd88ab5	-0.026433328
95	0x3d0d849b	0.03455029
96	0x3d1c889e	0.038216226
97	0x3aad79c1	0.0013235138
98	0x3d0f1ed1	0.0349415
99	0xbcb10de4	-0.021613069
100	0x3d23e003	0.040008556
101	0xbd1fe8f7	-0.039040532
102	0xbc167261	-0.0091825435
103	0x3bd5effe	0.0065288534
104	0x3b3c7eab	0.0028762023
105	0x3bc7acbe	0.0060935905
106	0x3ccf1a96	0.025281232
107	0xbcb100eb	-0.021606883
108	0xbc984086	-0.018585455
109	0x3c6c0300	0.014405012
110	0x3cbf51b5	0.02335439
111	0x3cafa897	0.021442695
112	0xb9af0a7e	-0.00033386418
113	0xbb825b7a	-0.00397819
114	0xbc628ce1	-0.013827533
115	0x382c0c40	4.1019404e-05
116	0x3c284f2f	0.010272785
117	0x3d1abf7b	0.037780266
118	0x3beeef98	0.0072917454
119	0x3c159dfd	0.009131906
120	0x3b51cb66	0.0032012104
121	0xba5280dc	-0.0008030066
122	0xbb9a46c0	-0.004708141
123	0x3bf50e8f	0.007478542
124	0xbd2612f2	-0.04054541
125	0x3b2ededd	0.002668313
126	0xbb147252	-0.0022651148
127	0xbcb9afea	-0.02266689
128	0x3a86dfbd	0.0010290068
129	0xbcf9798d	-0.030453468
130	0x3cca2b66	0.024678897
131	0xbd0157d8	-0.031577915
132	0x3c0be874	0.008539308
133	0xba939998	-0.0011260984
134	0xbce68647	-0.0281402
135	0xbc292254	-0.010323126
136	0xbd4b3bb9	-0.049617503
137	0xbd237826	-0.039909504
138	0xbd04b6b9	-0.03240082
139	0x3ce07c24	0.027402945
140	0x3a3edb74	0.0007280626
141	0x3c681814	0.014165897
142	0xbbf32cde	-0.00742112
143	0x3bf77835	0.0075521716
144	0xbb536dda	-0.0032261522
145	0xbc21e5a0	-0.009881407
146	0xbd1a97f4	-0.03774257
147	0xbcd78dfc	-0.02631282
148	0x3c4899da	0.012243712
149	0xbd132739	-0.035926078
150	0x3c32c37f	0.010910868
151	0x3c54f151	0.012996987
152	0xbba668a6	-0.005078393
153	0xbbbaa166	-0.0056955097
154	0xbc4a85a4	-0.012360964
155	0xbac39eac	-0.0014924607
156	0xbc11d014	-0.008899707
157	0x3bc1cee5	0.0059145563
158	0x3b9c9f0e	0.004779703
159	0xbb1fb8c2	-0.00243716
160	0x3cacc63c	0.02109062
161	0xbd1eb3eb	-0.038745802
162	0x3ce77551	0.028254183
163	0xbc15e5dd	-0.009149042
164	0xbcf12396	-0.029435914
165	0xbb688a7e	-0.0035482938
166	0xbd22ba74	-0.039728597
167	0xbc9bd068	-0.019020274
168	0x3c7149c6	0.014727062
169	0x3b54f006	0.0032491698
170	0xbc9b2f61	-0.01894349
171	0x38c08a64	9.181051e-05
172	0x3c28762c	0.010282081
173	0xba86e94d	-0.0010292918
174	0xbcc3a6cb	-0.023883244
175	0xbc331775	-0.010930886
176	0xbb443c35	-0.0029943113
177	0xbc985a0a	-0.018597621
178	0x3cd7d744	0.026347764
179	0xbc80da03	-0.015728956
180	0x3c9bda5b	0.019025018
181	0xbc4a71e2	-0.012356253
182	0xbd6ede96	-0.058317743
183	0xbc85689c	-0.016285233
184	0x3ceddf3d	0.029037112
185	0x3a1d532b	0.00060014677
186	0xbcf4ad6d	-0.029867852
187	0x3c32d65f	0.010915368
188	0xbd1027d5	-0.035194237
189	0x3c5f4379	0.013626927
190	0x3c3ae3ca	0.011406848
191	0xbc94e618	-0.018176123
192	0x3bbb422f	0.005714677
193	0xbcb17878	-0.02166389
194	0x3b971650	0.004610814
195	0xbcc12945	-0.02357925
196	0x3b902822	0.0043993155
197	0xbc5d2334	-0.013497163
198	0xbd1ba6e3	-0.038000952
199	0xbc54ed1b	-0.0129959835
200	0xbca16f0f	-0.019706277
201	0x3ca9e183	0.020737415
202	0xbc886b6e	-0.016652789
203	0xbc5454cb	-0.012959669
204	0xbc76ecbc	-0.01507109
205	0xbc7d6328	-0.015465535
206	0xbce9461b	-0.028475812
207	0x3b736f4e	0.00371452
208	0x3c98106f	0.018562524
209	0x3ba8b69c	0.005148722
210	0xbc9ad148	-0.018898621
211	0x3bfe9fc6	0.0077705113
212	0x3b80fb68	0.00393622
213	0xbcc8e165	-0.024521539
214	0xbc072eeb	-0.008250932
215	0x3c442df8	0.01197385
216	0x39697592	0.0002226441
217	0xb91d077a	-0.00014975472
218	0x3c48e7ea	0.012262324
219	0x3c0beb7b	0.00854003
220	0x3c2b43b0	0.01045315
221	0x3ca5d0a5	0.020241091
222	0x3c23fcca	0.010009
223	0x3b6136bc	0.00343649
224	0xbb163997	-0.002292251
225	0xbc37411f	-0.01118496
226	0xbc7582be	-0.014984785
227	0xbd2fdc7b	-0.042934876
228	0x3c945d99	0.018111037
229	0x3c8e1c2d	0.01734742
230	0xbcfd9e1f	-0.030959187
231	0x3cde571e	0.02714115
232	0xbc0d0067	-0.008606053
233	0xbc962419	-0.01832776
234	0x3cde6ced	0.02715155
235	0xbcc0b588	-0.02352406
236	0xbc26d0cf	-0.01018162
237	0xbd6e04f0	-0.058110178
238	0xbc429c8c	-0.011878144
239	0x3ce88d5f	0.028387723
240	0xbbf45463	-0.0074563487
241	0x3cbecd75	0.023291329
242	0x3b8ee657	0.0043609547
243	0xba1e95e2	-0.0006049556
244	0xbc255b25	-0.010092531
245	0xbc58859c	-0.013215449
246	0xbca659c9	-0.020306485
247	0xbcccbf74	-0.024993636
248	0xbc9a8b06	-0.01886512
249	0x3bc163e4	0.0059018005
250	0xbbbdc0e2	-0.0057908157
251	0xbc8372fe	-0.016046043
252	0xbd24218c	-0.040071055
253	0x3a6b6f9b	0.0008981169
254	0x3b4b0cd9	0.0030983
255	0x3d27078a	0.040778674

spectral.conv5.conv.bias f4 [24]
0	0x3c9807c0	0.018558383
1	0xbcd13a4b	-0.025540492
2	0x3c469d84	0.012122516
3	0xbbca4c01	-0.006173611
4	0xbc286452	-0.0102778245
5	0xbc1b8612	-0.009492414
6	0xbccc90d6	-0.024971407
7	0xbbb27b16	-0.005446802
8	0x3ca6e150	0.02037111
9	0x3c96ae82	0.018393759
10	0x3ba427a0	0.0050096065
11	0xbc1bf94f	-0.009519889
12	0xbc9ee711	-0.01939729
13	0x3af6f2e2	0.0018840695
14	0x3c01a330	0.007912442
15	0x3b13cfc1	0.002255425
16	0x3c3fb246	0.011700219
17	0xbc63a7c4	-0.013894979
18	0xbcc97fd0	-0.024597079
19	0xbca8ee68	-0.020621493
20	0x3cbc33b4	0.022973873
21	0x3c60b45d	0.013714877
22	0x3ca09680	0.019603014
23	0xbc6ccdb4	-0.01445334

spectral.conv5.bn.weight f4 [24]
0	0x3f5f5254	0.87235
1	0x3f68bbbb	0.90911454
2	0x3f825913	1.0183433
3	0x3f85d5a5	1.0455824
4	0x3f817a7b	1.0115503
5	0x3f7212d5	0.94559985
6	0x3f7c7a16	0.9862379
7	0x3f6d3fb2	0.92675316
8	0x3f59d0fa	0.850845
9	0x3f6fc018	0.93652487
10	0x3f724b08	0.9464574
11	0x3f75544c	0.9583175
12	0x3f601190	0.875268
13	0x3f7aa7be	0.97912204
14	0x3f7544c8	0.95808077
15	0x3f5ee6a5	0.87070686
16	0x3f6d860f	0.9278268
17	0x3f67a6b4	0.90488744
18	0x3f50523a	0.8137547
19	0x3f75ecae	0.9606427
20	0x3f733cb2	0.9501449
21	0x3f7defaa	0.99193823
22	0x3f72f5b0	0.9490614
23	0x3f7b49bd	0.9815939

spectral.conv5.bn.bias f4 [24]
0	0xbdc9c524	-0.09852055
1	0xbcfcfc01	-0.030881884
2	0xbc2afd93	-0.010436433
3	0xbd1ac99b	-0.037789922
4	0xbd85294d	-0.06502018
5	0xbcdf0f32	-0.027228925
6	0xbb89bff6	-0.0042037917
7	0xbd751497	-0.05983409
8	0xbd89e537	-0.067331724
9	0xbcd3aaee	-0.025838342
10	0xbd76664b	-0.060156148
11	0xbd83fb9f	-0.06444477
12	0xbda8a69c	-0.08234903
13	0xbc9dfbcf	-0.01928511
14	0xbcf16278	-0.029465899
15	0xbda2ee20	-0.07955575
16	0xbd66f3e0	-0.05638492
17	0xbd3d4204	-0.046205536
18	0xbdef9f85	-0.11700348
19	0xbd349944	-0.044091478
20	0xbd20f869	-0.039299402
21	0xbcf8ea6d	-0.03038522
22	0xbc9efaa0	-0.019406617
23	0xbcaea56d	-0.021319116

spectral.conv5.bn.running_mean f4 [24]
0	0xc0006498	-2.0061398
1	0xbfc7f201	-1.5620729
2	0xc02056d8	-2.5053005
3	0xc01a2ccb	-2.408984
4	0x402220ce	2.5332522
5	0xbf88788f	-1.0661792
6	0xbe5e8287	-0.2172948
7	0xbff41163	-1.9067806
8	0xbe3733b0	-0.17890811
9	0xbfe13044	-1.7592854
10	0x3e0392cf	0.12848972
11	0xbfcc20c1	-1.5947496
12	0xbfd9f378	-1.7027426
13	0xc02dd86a	-2.7163339
14	0xc01a0108	-2.406313
15	0xc016c478	-2.3557415
16	0xbf9ce50e	-1.2257402
17	0xbfe17d7b	-1.7616419
18	0xc0120089	-2.2812827
19	0xbf298614	-0.6622021
20	0xbf686d09	-0.90791374
21	0xbfcd1e8a	-1.6024945
22	0xc02c0976	-2.6880774
23	0xc04f2587	-3.2366655

spectral.conv5.bn.running_var f4 [24]
0	0x4012a93d	2.2915795
1	0x40975418	4.7290154
2	0x4093c70f	4.618049
3	0x402e5597	2.723974
4	0x4145714e	12.340162
5	0x400f9e23	2.244027
6	0x4099752f	4.7955546
7	0x40cbff3a	6.3749056
8	0x408361a7	4.1056705
9	0x40b34a4a	5.6028185
10	0x40241069	2.5635016
11	0x406197dc	3.5248938
12	0x407bb861	3.9331286
13	0x410f3d74	8.952503
14	0x4041d643	3.0287025
15	0x4036a87b	2.8540332
16	0x40317e07	2.773317
17	0x40db55e9	6.854237
18	0x404e1e93	3.220616
19	0x40542826	3.3149505
20	0x400ab4e9	2.1672919
21	0x412c67ad	10.775311
22	0x405cf5c7	3.452501
23	0x40b7286a	5.7236834

spectral.bn.weight f4 [24]
0	0x3f901523	1.125645
1	0x3f8720ab	1.0556844
2	0x3f8b5a42	1.088692
3	0x3f89bead	1.0761315
4	0x3f8fe0db	1.1240495
5	0x3f92798e	1.1443346
6	0x3f8849de	1.0647542
7	0x3f91dfa9	1.1396381
8	0x3f8bcc98	1.0921812
9	0x3f857ed5	1.0429331
10	0x3f887a50	1.0662327
11	0x3f8ad4f6	1.084624
12	0x3f91b5c2	1.1383593
13	0x3f87ff51	1.0624791
14	0x3f874822	1.0568888
15	0x3f968f49	1.1762477
16	0x3f9276a4	1.1442456
17	0x3f8641b1	1.0488797
18	0x3f9649c3	1.174126
19	0x3f89e2d4	1.0772347
20	0x3f89701f	1.0737342
21	0x3f88c086	1.0683753
22	0x3f88d677	1.069045
23	0x3f8e125a	1.109935

spectral.bn.bias f4 [24]
0	0x3de2fa3b	0.11082884
1	0x3df63185	0.12021164
2	0x3e5b6911	0.21426798
3	0x3e292ea8	0.16521704
4	0x3e5e350c	0.21699923
5	0x3e5d436c	0.2160775
6	0x3e170226	0.14746913
7	0x3e50273a	0.20327464
8	0x3e13e0f4	0.14441282
9	0x3da86e92	0.082242146
10	0x3e0fe1ce	0.14050981
11	0x3e3ba15a	0.1832327
12	0x3e6928fe	0.22769544
13	0x3e4146cd	0.18874665
14	0x3e3f2f47	0.18670379
15	0x3e5141cd	0.20435257
16	0x3e32e310	0.1746943
17	0x3e0d1d55	0.1378072
18	0x3e6474e1	0.22310211
19	0x3e1e8947	0.15482055
20	0x3e321714	0.17391616
21	0x3e412db7	0.18865095
22	0x3ddc683f	0.10762071
23	0x3e5e3ee5	0.2170368

spectral.bn.running_mean f4 [24]
0	0x3f815744	1.0104756
1	0x3f852dcf	1.0404605
2	0x3f963149	1.1733791
3	0x3f8ffa2a	1.1248219
4	0x3f5629b1	0.83657366
5	0x3f68ecbd	0.90986234
6	0x3f8b4218	1.0879545
7	0x3f89a983	1.0754856
8	0x3f7886a2	0.97080433
9	0x3f90551b	1.1275972
10	0x3f83a632	1.0285094
11	0x3f8ca37a	1.0987389
12	0x3f816acd	1.0110718
13	0x3f9449d9	1.1585037
14	0x3f88ec3a	1.0697091
15	0x3f807a60	1.0037346
16	0x3f84df39	1.0380622
17	0x3f8498cf	1.0359133
18	0x3f705cfb	0.93891877
19	0x3f874040	1.0566483
20	0x3f8d3628	1.1032152
21	0x3f9373e3	1.1519741
22	0x3f8f6fce	1.1205995
23	0x3f9310d8	1.1489515

spectral.bn.running_var f4 [24]
0	0x407f9aec	3.9938307
1	0x401e32dd	2.4718544
2	0x406ca24d	3.697406
3	0x4075a88a	3.8384118
4	0x3ff27a54	1.8943582
5	0x405c5f9b	3.4433353
6	0x402a5b69	2.6618292
7	0x40583abb	3.3785846
8	0x40519943	3.2749794
9	0x403db653	2.9642532
10	0x40447017	3.0693414
11	0x405774bf	3.3665006
12	0x406735df	3.612663
13	0x403420b7	2.8144968
14	0x404618c6	3.095262
15	0x4079e527	3.9046113
16	0x408b2237	4.3479266
17	0x40401898	3.001501
18	0x4079e0fe	3.9043574
19	0x404bed9c	3.1863775
20	0x405a022f	3.4063833
21	0x406e5928	3.7241917
22	0x4061f9ef	3.5308797
23	0x403dc893	2.965367

spatial.conv1.conv.weight f4 [24, 1, 1, 1, 102]
0	0x3d972cf8	0.07381624
1	0x3d2027cd	0.039100457
2	0x3cffedfc	0.03124141
3	0x3ca97723	0.020686692
4	0x3d2e9337	0.042620864
5	0x3cff8d30	0.031195253
6	0x3cd9501c	0.026527457
7	0x3c702b61	0.01465878
8	0x3ce7888c	0.028263353
9	0x3c839839	0.016063796
10	0x3d55e925	0.052224297
11	0x3cbd39b6	0.023098808
12	0x3a621318	0.0008624061
13	0xbcec51e3	-0.02884764
14	0x3caea546	0.021319043
15	0x3b4b43a1	0.0031015652
16	0x3d09c3dd	0.033634055
17	0x3ca46c38	0.020071134
18	0xbc8c8d57	-0.01715724
19	0x3ca06d50	0.019583374
20	0xbb82469c	-0.0039757024
21	0x3d5cadc9	0.053876672
22	0xbd5a7fd3	-0.05334456
23	0xbcc41bec	-0.023939095
24	0xbd9d3e94	-0.076779515
25	0xbd8fd51c	-0.07023069
26	0xbc95375e	-0.018214878
27	0xbd1ca9f3	-0.038248014
28	0xbda243db	-0.07923099
29	0xbd935d4c	-0.07195529
30	0xbd0f2ffa	-0.034957863
31	0xbdbf0ccf	-0.09328615
32	0xbd802aa5	-0.06258134
33	0xbd69b8b2	-0.057060905
34	0xbccf8fa5	-0.02533705
35	0xbd2fdf22	-0.042937405
36	0xbb948054	-0.0045318995
37	0x3bf8bc63	0.007590817
38	0x3c332a51	0.010935382
39	0xbc95be19	-0.018279122
40	0x3ca796a1	0.020457568
41	0x3c8e08ac	0.01733812
42	0xbcb0aa5e	-0.021565612
43	0x3c88cb27	0.016698433
44	0x3ab51486	0.001381532
45	0x3c58900a	0.013217935
46	0x3cb62da5	0.022238562
47	0x3c668f70	0.014072284
48	0x3ccc6812	0.024951968
49	0x3c663c35	0.01405244
50	0xbc94a3fa	-0.018144596
51	0x3d367fae	0.04455536
52	0x3d06bcca	0.032894887
53	0x3c5bd28c	0.0134168975
54	0x3b62b4b2	0.0034592566
55	0x3a90a6ef	0.0011036078
56	0xbc2e6c1f	-0.010645895
57	0x3cce096d	0.025150979
58	0xba8f261c	-0.0010921392
59	0xbb3a1357	-0.0028392875
60	0x3c866598	0.016405866
61	0xbd22fb95	-0.03979071
62	0x3bffe07a	0.007808742
63	0xba875c8f	-0.0010327267
64	0xbd305f2a	-0.043059506
65	0xbc855b55	-0.016278902
66	0xbc8ada1a	-0.016949702
67	0xbd1401db	-0.036134582
68	0xbc05e567	-0.00817237
69	0xbd1d3499	-0.03838024
70	0xbd45f667	-0.04833069
71	0x3c81eac2	0.015859012
72	0xbd4eb727	-0.050467636
73	0x3a07b8c1	0.0005177372
74	0xbcfd789b	-0.030941298
75	0xbb4d0f4c	-0.0031289635
76	0x3cb559d6	0.022137564
77	0xbcb843ba	-0.022493232
78	0xb9946ac1	-0.00028308298
79	0x3c837222	0.016045634
80	0x3d0e5bc3	0.03475548
81	0x3bcc5df1	0.0062367846
82	0x3bcb95cb	0.006212925
83	0xbb9ce498	-0.0047879927
84	0x3c28459b	0.0102705015
85	0x3c643776	0.013929239
86	0xbd5709cc	-0.052499577
87	0x39f83886	0.0004734436
88	0xbc21b8ae	-0.009870691
89	0xbabe002c	-0.0014495901
90	0x3c9a0a11	0.018803628
91	0x3ce75183	0.02823711
92	0x3c16e502	0.009209873
93	0x3d07d224	0.03315939
94	0x3be7eb01	0.007077575
95	0x3c25ff42	0.010131659
96	0xbc6f92e1	-0.014622421
97	0xbc02911f	-0.00796917
98	0xbd0a285f	-0.033729907
99	0xbc02ad96	-0.007975956
100	0xbc9b183d	-0.018932456
101	0x3d17b68a	0.037039317
102	0xbc897b9b	-0.016782572
103	0xbb831a44	-0.004000934
104	0x3bad2788	0.0052842535
105	0xbc6312c9	-0.013859459
106	0xbd0e858f	-0.03479534
107	0xbc394c94	-0.011309762
108	0xbc8de5e1	-0.017321529
109	0xbcac23a3	-0.021013087
110	0x3cc3bb43	0.023893004
111	0xbc70b8c5	-0.01469249
112	0xbbcbed2a	-0.0062233405
113	0xbc9a114a	-0.018807072
114	0x3d271007	0.04078677
115	0xbbc37568	-0.0059649237
116	0xbc001b37	-0.0078189885
117	0x3ba5e787	0.0050630006
118	0x3c41a18c	0.011818301
119	0x3cea14cc	0.02857437
120	0xbc1bf223	-0.009518179
121	0x3b9a8551	0.0047155996
122	0xbcb65ab7	-0.022260053
123	0x3d07e94d	0.033181477
124	0x3d059906	0.032616638
125	0xbd033f3b	-0.032042723
126	0x3c63b25f	0.013897507
127	0x3c3a2ebf	0.011363684
128	0x3c1b2b86	0.009470826
129	0x3c9db7f2	0.019252751
130	0x3d35ee34	0.04441662
131	0x3cdb3e4c	0.026763104
132	0x3c38d9b9	0.011282378
133	0x3cad5ab3	0.021161413
134	0x3cef50ea	0.029213388
135	0x3b7afa37	0.0038296112
136	0x3c362a63	0.011118504
137	0x3d30d172	0.043168493
138	0x3c305962	0.010763498
139	0x3c4e1606	0.012578493
140	0x3d6564ef	0.05600446
141	0x3cfc4513	0.030794656
142	0x3d6dabe1	0.058025245
143	0x3d00738f	0.031360205
144	0x3a81d9db	0.0009906845
145	0xbbcc0cb6	-0.006227101
146	0x3c93864d	0.018008376
147	0xbcd21d94	-0.02564887
148	0xbbcbb1cd	-0.006216264
149	0x3c14d168	0.009083129
150	0xbb43406c	-0.0029793037
151	0x3d4b8f6f	0.049697336
152	0x3cb1a36f	0.021684377
153	0xbc345ca4	-0.011008415
154	0x3ad0726d	0.0015903242
155	0x3cfce239	0.03086959
156	0xbc8e36cf	-0.01736012
157	0x3d1b3a70	0.037897527
158	0xbc60057e	-0.013673184
159	0xbce880bf	-0.028381703
160	0x3bb3880d	0.005478865
161	0xbcc3e30f	-0.02391198
162	0xbd328fca	-0.04359416
163	0xbd98ecf7	-0.074670725
164	0x3b65e9d0	0.003508199
165	0xbbaec7bf	-0.00533387
166	0xbbaa179f	-0.005190804
167	0xbcf7c14b	-0.030243536
168	0xbce8f647	-0.028437747
169	0xbd619bdc	-0.05508028
170	0xbc2629c2	-0.010141792
171	0xbd235467	-0.039875414
172	0xbcb6a258	-0.022294208
173	0xbcafa513	-0.021441018
174	0xbcbf65e1	-0.02336401
175	0xbcf44e72	-0.029822562
176	0xbd0459a2	-0.032312043
177	0xbcb6cbd4	-0.02231399
178	0xbd1843c3	-0.037173998
179	0xbd51dcda	-0.05123601
180	0xbc374d73	-0.011187899
181	0xbc9c92df	-0.019113002
182	0xbc00fb06	-0.007872349
183	0xbd1a970d	-0.03774171
184	0xbd26b054	-0.040695503
185	0xbc40fdfb	-0.011779304
186	0x3c83dcdc	0.016096525
187	0xbbd3ec11	-0.0064673503
188	0xbda8567b	-0.0821962
189	0xbc906e85	-0.017630825
190	0x3c83a227	0.016068531
191	0x3d0b2832	0.03397388
192	0x3c89c46a	0.01681729
193	0xbc7e229d	-0.015511182
194	0x3c891d33	0.016737556
195	0xbc3d59fb	-0.011557098
196	0xbce44b78	-0.027868018
197	0x3cbae676	0.02281497
198	0x3c18a924	0.00931767
199	0x3b7f6a92	0.0038973433
200	0x3cfc618e	0.030808236
201	0x3bd01030	0.006349586
202	0x3c9b07ff	0.018924711
203	0xbca6b557	-0.020350141
204	0xbcc7eb85	-0.024404297
205	0x3bdac564	0.006676363
206	0x3d039816	0.032127462
207	0xbb2cbde0	-0.0026358292
208	0xbce9abb8	-0.028524265
209	0xbc7f88e9	-0.015596607
210	0xbb3ddcb2	-0.0028970656
211	0xbc8a8a3f	-0.016911624
212	0xbc2ef6c6	-0.010678953
213	0x3cac87b0	0.021060795
214	0xbabe4f2f	-0.0014519448
215	0xbc9d81fc	-0.01922702
216	0xbc95294c	-0.018208168
217	0x3b2d66d2	0.002645899
218	0xbc48e0f8	-0.012260668
219	0xbcdce64c	-0.026965283
220	0x3c8ff957	0.01757495
221	0x3c0cdfa7	0.008598245
222	0xbc707d14	-0.014678258
223	0xbba1eb0b	-0.0049413494
224	0xbc9d1d60	-0.019179046
225	0x3c9548ab	0.018223127
226	0x3cf2a3ac	0.02961906
227	0x3c5cac59	0.013468825
228	0x3ce3c025	0.027801583
229	0xbb8c0ea0	-0.0042742044
230	0x3dafa523	0.08576419
231	0x3cf5329a	0.029931355
232	0x3d9c2ee7	0.076261334
233	0x3d189829	0.037254486
234	0x3c05865f	0.008149712
235	0x3d173b40	0.03692174
236	0x3d19757f	0.03746557
237	0x3ca2b2bf	0.019860623
238	0x3d4c2c48	0.049846917
239	0x3c8cbf59	0.017181085
240	0x3c691ebc	0.014228519
241	0x3d0829a9	0.033242855
242	0xbc14f68e	-0.009091986
243	0xbcaeac8e	-0.021322515
244	0x3d8c92b7	0.06863921
245	0xbc182339	-0.0092857415
246	0x3ba00563	0.0048834546
247	0x3c69ed52	0.014277773
248	0x3ce8e124	0.028427668
249	0xbc264880	-0.010149121
250	0x3cb35609	0.02189161
251	0x3c2b2f6d	0.010448319
252	0xba61e504	-0.0008617195
253	0xbc7f20ac	-0.015571754
254	0xbc963b69	-0.018338876
255	0xbb02ca72	-0.0019957093

spatial.conv1.conv.bias f4 [24]
0	0x3d66dd36	0.056363307
1	0x3d8d0f99	0.06887741
2	0x3d0df65e	0.034658782
3	0xbcea7b09	-0.02862312
4	0xbd4fb4ef	-0.05070966
5	0x3d470114	0.048585013
6	0xbd87c52e	-0.06629406
7	0x3c0c1ff1	0.008552537
8	0x3ceb63d5	0.028734127
9	0x3ce9df1e	0.028548773
10	0x3d7490d9	0.05970845
11	0xbd584d70	-0.052808225
12	0xbdc6629c	-0.09686777
13	0x3bee93cf	0.0072808038
14	0x3c31c97c	0.01085126
15	0xbda534db	-0.08066722
16	0xbdb78511	-0.08960927
17	0xbd7165fd	-0.058935154
18	0xbba30c47	-0.004975829
19	0x3ce17f0e	0.027526405
20	0xbd0ea4d0	-0.034825146
21	0xbceb6129	-0.028732853
22	0xbd0e9ae9	-0.034815703
23	0xbd326a6a	-0.043558516

spatial.conv1.bn.weight f4 [24]
0	0x3f825c19	1.0184356
1	0x3f834e62	1.0258296
2	0x3f80e408	1.006959
3	0x3f7ccb98	0.9874816
4	0x3f84928e	1.0357225
5	0x3f7e0609	0.9922796
6	0x3f7b448f	0.9815149
7	0x3f778498	0.96686697
8	0x3f818f97	1.0121945
9	0x3f82a623	1.0206951
10	0x3f7c9167	0.98659366
11	0x3f80772c	1.0036368
12	0x3f77532a	0.96611273
13	0x3f818c03	1.0120853
14	0x3f844a21	1.0335122
15	0x3f83a2f0	1.02841
16	0x3f7bb48d	0.98322374
17	0x3f81d23b	1.0142282
18	0x3f81d336	1.0142581
19	0x3f77d6ee	0.9681233
20	0x3f81d1b9	1.0142127
21	0x3f802129	1.001012
22	0x3f820b6d	1.0159737
23	0x3f811d07	1.0086983

spatial.conv1.bn.bias f4 [24]
0	0xbbc23a71	-0.005927377
1	0xbc92577d	-0.017863983
2	0x3c508b8a	0.012728581
3	0xbcaa4098	-0.020782754
4	0x3c8b99f1	0.017041178
5	0x3aa23351	0.0012374913
6	0x3c93caf9	0.01804112
7	0x3c6384f7	0.013886682
8	0x3ca7e682	0.020495657
9	0xbd04ff7f	-0.032470223
10	0xbafa0896	-0.0019076045
11	0xbc8d2508	-0.017229572
12	0xbd6a5f94	-0.057220057
13	0x3d12c950	0.035836518
14	0x3c672b0b	0.014109383
15	0x3d00ce18	0.031446546
16	0x3be8be99	0.007102799
17	0x3cd28632	0.025698755
18	0xbd928940	-0.071550846
19	0x3c15f084	0.009151582
20	0xbd0e9e38	-0.034818858
21	0xbc81d8ee	-0.01585051
22	0x3a57132c	0.0008204456
23	0x3cc7f02e	0.024406519
