checkpoints/model_epoch129.pth (torch, 752375 bytes, 210 tensors)

spectral.conv1.conv.weight f4 [24, 1, 1, 1, 5]
0	0x3cf47292	0.029839788
1	0x3c991d48	0.01869072
2	0xbc9fa47a	-0.019487608
3	0xbb251357	-0.002518853
4	0xbad216b1	-0.0016028491
5	0x3ca27328	0.019830301
6	0xbcf90ec1	-0.030402543
7	0xbd04abdf	-0.03239047
8	0x3c4cadbf	0.012492596
9	0xbc468d13	-0.012118596
10	0xbc34b4b3	-0.01102941
11	0xbb8860e2	-0.00416194
12	0x3d13eb41	0.036113027
13	0x3d22c8bf	0.039742228
14	0xbbefdacb	-0.0073197833
15	0xbbd42f34	-0.0064753536
16	0x3b77644c	0.003774899
17	0xbd125057	-0.03572115
18	0x3d0ca5bd	0.034337748
19	0xbc212285	-0.00983489
20	0x3c44b82a	0.012006799
21	0x3c4517ed	0.01202963
22	0xbc959441	-0.01825917
23	0x3c6a9eec	0.0143201165
24	0xbc36c6d8	-0.0111558065
25	0x3ce565b1	0.028002592
26	0xb9f1f81c	-0.00046151958
27	0xbd537f50	-0.051635087
28	0x3d6048d3	0.05475695
29	0xbbc24f02	-0.0059298286
30	0xbb48c8b3	-0.0030637204
31	0xbd1e44ce	-0.038639836
32	0x3ce1d63a	0.027567971
33	0x3c9aaba3	0.01888067
34	0xba9f6601	-0.0012161137
35	0xbd02194f	-0.031762417
36	0xbd32158e	-0.043477587
37	0x3d3e7791	0.046500746
38	0x3d025dc7	0.031827714
39	0xbc8df9cb	-0.017331025
40	0xbc854980	-0.0162704
41	0xba1f3494	-0.00060732034
42	0x3c40a9e8	0.011759259
43	0xbd275d26	-0.040860318
44	0xbc311472	-0.010808097
45	0x3ca35503	0.019937998
46	0xbb801411	-0.003908642
47	0x390c3088	0.0001336952
48	0xbd331e35	-0.04372998
49	0x3c60899e	0.0137046855
50	0xbc0290c9	-0.00796909
51	0xbd531850	-0.051536858
52	0x3c06dee0	0.0082318485
53	0x3bbaeeed	0.0057047517
54	0x3ca4f59c	0.020136647
55	0x3cdaf2fc	0.026727192
56	0x3d1af723	0.037833344
57	0xbd41bf81	-0.047301773
58	0x3b1d26ee	0.0023979503
59	0x3b1e8311	0.0024187008
60	0xbc81d85c	-0.015850239
61	0xbc3fa781	-0.011697651
62	0x3c55f31c	0.01305845
63	0xbc47afc9	-0.012187907
64	0x3b8fa1bd	0.0043832944
65	0xbd15611c	-0.036469564
66	0x3c034870	0.008012876
67	0xbc9f13e3	-0.019418662
68	0x3c4319e6	0.01190803
69	0x3c3ad284	0.01140273
70	0xbc9b97e3	-0.018993324
71	0xbcc0d138	-0.023537263
72	0xbc90b5ee	-0.017664876
73	0x3d65677f	0.056006905
74	0xbca5f236	-0.020257097
75	0xbd21d1c8	-0.039506704
76	0xbc71838a	-0.014740834
77	0x3b8b090a	0.004243021
78	0xbc86952b	-0.01642855
79	0x3d161882	0.036644466
80	0xbbb9eb88	-0.0056738295
81	0x3cf291ed	0.029610598
82	0xbca95ec8	-0.020675078
83	0xbca586c7	-0.020205868
84	0xbc477ebc	-0.012176212
85	0xbcd69988	-0.026196256
86	0xbd479f41	-0.04873586
87	0x3c52ea5f	0.012873261
88	0x3d3cd087	0.046097305
89	0xbc8a52aa	-0.01688512
90	0xbc940646	-0.018069398
91	0x3c598069	0.013275244
92	0xbbdf2982	-0.006810368
93	0xbb9eab5d	-0.0048422054
94	0xbcb8a4cd	-0.02253952
95	0xbcaab977	-0.02084039
96	0x3ceea396	0.029130738
97	0xbb12ff64	-0.0022430057
98	0xbd6ac474	-0.05731626
99	0xbd6f17b4	-0.058372214
100	0xbc302082	-0.010749938
101	0xbbd24df1	-0.0064179827
102	0x3c1c5065	0.009540652
103	0x3d0d98b9	0.034569476
104	0x3cb27b16	0.021787208
105	0x3c8657f1	0.016399356
106	0x3c980f85	0.018562088
107	0x3ce2f511	0.027704747
108	0xbd0ab51a	-0.03386412
109	0xba95e99d	-0.001143742
110	0x3bb23961	0.005438969
111	0xbb518a15	-0.0031973172
112	0x3b273df7	0.0025519112
113	0x3c8e5284	0.01737333
114	0xbd0b320e	-0.033983283
115	0xbd8d93a5	-0.069129266
116	0xbd2c312f	-0.042039093
117	0x3a5d5aa1	0.0008443986
118	0x3ce7baa1	0.028287234
119	0xbd05fd0a	-0.03271202

spectral.conv1.conv.bias f4 [24]
0	0xbe73ad19	-0.237965
1	0xbed1c94f	-0.409739
2	0x3e23263d	0.15932555
3	0xbeb23ff8	-0.3481443
4	0xbeb190c2	-0.34680754
5	0x3ea96bd5	0.33090082
6	0xbcdf4995	-0.027256766
7	0xbda6d562	-0.08146168
8	0x3e8afb87	0.27145025
9	0x3e0e490c	0.13895053
10	0xbe54380d	-0.20724507
11	0xbe419da1	-0.18907787
12	0x3e7d1d78	0.24718273
13	0x3e96e64b	0.29472575
14	0x3dbe7373	0.09299364
15	0xbd8b0f96	-0.06790082
16	0x3ec19f85	0.37817016
17	0x3e9fbb4f	0.31197593
18	0xbea54b47	-0.32283995
19	0xbcab0146	-0.02087463
20	0xbea10fd5	-0.3145739
21	0x3e7fa4f6	0.24965271
22	0x3e544dad	0.20732756
23	0x3d3a0f27	0.045424607

spectral.conv1.bn.weight f4 [24]
0	0x3f7802f2	0.96879494
1	0x3f76d799	0.96422726
2	0x3f7868f7	0.97035164
3	0x3f77c0e7	0.9677872
4	0x3f6f3752	0.9344379
5	0x3f727d82	0.9472276
6	0x3f7e4a6b	0.993323
7	0x3f82ff95	1.0234247
8	0x3f823706	1.0173042
9	0x3f802a79	1.0012962
10	0x3f7aea08	0.98013353
11	0x3f7eeb7d	0.99578077
12	0x3f7b469a	0.98154604
13	0x3f7d365c	0.9891107
14	0x3f7cab44	0.9869883
15	0x3f812820	1.009037
16	0x3f7f6b7e	0.99773395
17	0x3f803e5c	1.001903
18	0x3f7bbb54	0.98332715
19	0x3f7b4d18	0.9816451
20	0x3f7f047e	0.9961623
21	0x3f77bbee	0.9677113
22	0x3f7d54c5	0.98957473
23	0x3f797815	0.97448856

spectral.conv1.bn.bias f4 [24]
0	0xbd401be8	-0.046901613
1	0xbcddee18	-0.027091071
2	0xbc98776d	-0.018611634
3	0xbd14dfe8	-0.036346346
4	0xbd43100f	-0.047622737
5	0xbcfaab3b	-0.030599227
6	0xbc30f5d9	-0.010800802
7	0x3cb701ab	0.022339663
8	0xbbc282af	-0.005935989
9	0x3cd08ff8	0.025459275
10	0xba099eff	-0.00052498275
11	0xbca5c300	-0.020234585
12	0xbc1e52c4	-0.009663288
13	0xbc6cece9	-0.014460781
14	0xbc9286fb	-0.01788663
15	0xbc3d8d1d	-0.011569289
16	0x3bd27370	0.0064224526
17	0xbcd00143	-0.025391227
18	0xba8e5f06	-0.001086206
19	0xbca14ec0	-0.019690871
20	0x3c649d10	0.013953462
21	0xbcfd9314	-0.030953921
22	0xbc5e9aa1	-0.013586671
23	0xbbcd5a07	-0.0062668356

spectral.conv1.bn.running_mean f4 [24]
0	0x41e5e6fb	28.737783
1	0xc24cb932	-51.180855
2	0x4280f27a	64.47359
3	0xc1871e09	-16.889666
4	0x412bce66	10.73789
5	0x41eb177c	29.386467
6	0x40a41a02	5.128175
7	0xc172ecf4	-15.18285
8	0xc2867587	-67.229546
9	0xc1849a11	-16.575228
10	0xc1e7891b	-28.941946
11	0x41c781e8	24.93843
12	0xc1cf9ae7	-25.950636
13	0xc1e283b7	-28.314314
14	0xc1dfd131	-27.977144
15	0xc205f713	-33.491283
16	0xc20b59c0	-34.837646
17	0xc214a798	-37.163666
18	0xc23a9e66	-46.654686
19	0xc30372cf	-131.44847
20	0x426df187	59.485867
21	0x42003ec3	32.06129
22	0xc170374a	-15.013498
23	0xc30680bf	-134.50291

spectral.conv1.bn.running_var f4 [24]
0	0x440df78c	567.8679
1	0x44d6be2d	1717.943
2	0x452c8ca6	2760.7905
3	0x43379b66	183.60703
4	0x42ab7a0c	85.73837
5	0x440a79f5	553.9056
6	0x41e5feec	28.749474
7	0x432ec46a	174.76724
8	0x453bca7d	3004.6555
9	0x43432764	195.15387
10	0x4410e71f	579.61127
11	0x43d6d643	429.67392
12	0x43e43d27	456.47775
13	0x440c8ddb	562.2165
14	0x44055d09	533.4537
15	0x444510fa	788.26526
16	0x444e8b77	826.17914
17	0x446e8229	954.03375
18	0x44b066b4	1411.2095
19	0x46324900	11410.25
20	0x45150ca5	2384.7903
21	0x442c6371	689.5538
22	0x431cf6aa	156.96353
23	0x463b1282	11972.627

spectral.conv2.conv.weight f4 [6, 6, 1, 1, 5]
0	0xbd1484a9	-0.036259327
1	0xbc746d3d	-0.014918623
2	0x3cb6e07f	0.022323845
3	0x3c33479d	0.010942367
4	0xbd41d35a	-0.0473207
5	0x3cefd3b9	0.029275762
6	0xbd14e489	-0.03635076
7	0xba528d7a	-0.0008031946
8	0x3cfb681b	0.03068929
9	0x3cb9f280	0.02269864
10	0x3cfd98ae	0.030956592
11	0x3c7a07ed	0.015260679
12	0x3cf9162d	0.030406082
13	0x3d36630e	0.04452806
14	0x3d11850c	0.035527274
15	0x3b92371d	0.0044621364
16	0x3cc856e1	0.02445549
17	0x3d0ecac3	0.034861337
18	0xbd1e8aba	-0.03870652
19	0xbb3170ab	-0.0027075212
20	0x3be3dde7	0.006953943
21	0xbaa92b0e	-0.0012906508
22	0x3aaa2e47	0.0012983762
23	0xbcc537d8	-0.02407448
24	0x3cd3db90	0.025861531
25	0xbc3560db	-0.011070455
26	0x3c120cfb	0.008914228
27	0x3c5c4d0a	0.013446102
28	0x3d1305ab	0.035894077
29	0xbb2b7ef2	-0.0026168195
30	0xbd6261e6	-0.055269144
31	0x3bc6a608	0.006062273
32	0x3d1e150b	0.038594287
33	0x3ce0d814	0.027446784
34	0xbcf6897e	-0.030094858
35	0xbc4e8720	-0.0126054585
36	0xbc35e2d0	-0.01110144
37	0x3d02daea	0.031947054
38	0x3cbad166	0.022804927
39	0x3c9e667f	0.019335983
40	0x3d4b11c3	0.049577486
41	0x3d50ef67	0.051009562
42	0x3d0f08b3	0.034920406
43	0x3ca8172c	0.020518862
44	0x3cc15289	0.023598926
45	0x3cab52d8	0.020913526
46	0x3c12a08d	0.008949411
47	0xbcefe473	-0.029283738
48	0xbce347ff	-0.027744291
49	0x3c0c8c38	0.008578353
50	0x3be847d3	0.0070886402
51	0xbd24cbf3	-0.040233564
52	0x3c23a21c	0.00998738
53	0xbae061ff	-0.0017119049
54	0x3c1e973d	0.009679613
55	0x3d58a664	0.052893057
56	0x3d939b18	0.07207316
57	0x3d3405ea	0.043950953
58	0x3ba33bab	0.004981478
59	0xbc444ad8	-0.011980735
60	0x3c15f241	0.009151996
61	0x3c4f607e	0.012657283
62	0x3d1a279e	0.03763544
63	0xbbc19ab1	-0.005908333
64	0x3bfebd04	0.0077739973
65	0xb698f973	-4.5589927e-06
66	0x3d0af9c0	0.033929586
67	0x3c0563c4	0.008141462
68	0xba3f1325	-0.00072889245
69	0xbc9f73b2	-0.019464348
70	0xbca743d3	-0.020418083
71	0xbc6c65a4	-0.01442853
72	0xbcc06327	-0.02348478
73	0x3cee188d	0.029064441
74	0xbc50f66c	-0.012754064
75	0x3b1b1167	0.0023661496
76	0xbc706e70	-0.014674768
77	0xbd510ecd	-0.051039506
78	0xbcaeb242	-0.021325234
79	0x3c850797	0.01623897
80	0x3cde76ec	0.027156316
81	0xbced5c0e	-0.02897456
82	0x3cc5d0d4	0.024147429
83	0x3b3484e7	0.0027545036
84	0x3c035aaa	0.0080172215
85	0xbce03ee2	-0.027373735
86	0x3c058422	0.008149179
87	0xbd07c3ab	-0.033145588
88	0xbc63635e	-0.013878671
89	0x3ca72046	0.020401131
90	0xb9d32e30	-0.00040279469
91	0x3b54031d	0.0032350488
92	0xbcc26cbe	-0.023733493
93	0x3d43c169	0.047791872
94	0x3b6568f5	0.0035005186
95	0x3bc0ba75	0.0058816024
96	0x3c2c2a4f	0.010508134
97	0xbd02ed61	-0.031964663
98	0x3ccd8d50	0.025091797
99	0xbbe2982a	-0.006915112
100	0x3c428f7f	0.011875032
101	0x3bc50a5a	0.006013197
102	0xbcc19c5c	-0.023634128
103	0xbbd333c0	-0.006445378
104	0x3cd6aa78	0.026204333
105	0xbd07ec60	-0.03318441
106	0xb98cd85f	-0.0002686409
107	0x3d81fcc3	0.063470386
108	0xbd0272a8	-0.031847626
109	0xbc2ad762	-0.010427328
110	0xbc2925a3	-0.010323915
111	0xbbd2fa06	-0.0064384965
112	0xbb2a9f2c	-0.0026034815
113	0x3ca47c54	0.020078816
114	0xbb8cb91b	-0.004294527
115	0xbcdc4a1a	-0.026890803
116	0xbc93f718	-0.01806216
117	0x3a57fbc7	0.0008239117
118	0x3ab82479	0.0014048956
119	0x3d2a3e5a	0.04156337
120	0xbbd78f9a	-0.006578398
121	0xbc772a97	-0.015085838
122	0xbc2e8294	-0.010651249
123	0x3b6440b6	0.003482861
124	0xbcab1a45	-0.02088655
125	0xbd2152ce	-0.03938561
126	0x3d234168	0.039857298
127	0x3c543ea0	0.012954384
128	0x3c34c769	0.011033871
129	0xbb63e000	-0.0034770966
130	0x3d78e9c3	0.060769808
131	0x3ca33f60	0.01992768
132	0x3d190d2e	0.037366085
133	0xbb720d98	-0.0036934372
134	0xbca649a6	-0.02029879
135	0xbc8eca16	-0.017430346
136	0x3bdf1cea	0.0068088667
137	0xbbc05bf7	-0.005870338
138	0x3c6068ec	0.01369689
139	0xbc3b3039	-0.011425071
140	0xbc4604e3	-0.012086126
141	0x3c1d352c	0.009595197
142	0xbac140ec	-0.001474408
143	0x3d3a6e2a	0.045515217
144	0x3c16952c	0.009190839
145	0x3c371f62	0.011176916
146	0x3c49ce65	0.012317275
147	0x3c8e6407	0.017381681
148	0xbd0472a8	-0.032335907
149	0xbc61922e	-0.013767762
150	0x3cfb6c96	0.030691426
151	0xbc9b1aab	-0.018933615
152	0x3b7e03ce	0.0038759592
153	0xbc3ea16c	-0.011635166
154	0xbbf49d5e	-0.0074650487
155	0x3d7f1e9f	0.062285062
156	0xbca523c5	-0.020158658
157	0xbcd764c9	-0.026293175
158	0x3caafb98	0.020871922
159	0xbd153384	-0.036426082
160	0x3bd748ad	0.006569943
161	0xbc24a5ff	-0.010049342
162	0xbb9faf19	-0.004873168
163	0x3c32e763	0.010919425
164	0xbc20783f	-0.009794294
165	0xbcf0a120	-0.029373705
166	0xbb7ae940	-0.0038286
167	0x3cfe5912	0.031048331
168	0xbc8768c7	-0.016529454
169	0x3b8b622e	0.0042536473
170	0x3c195563	0.009358737
171	0xbc8ebf7c	-0.017425291
172	0xbc4872b2	-0.012234377
173	0x3bbfaf18	0.00584973
174	0xbca64264	-0.02029533
175	0xbc213123	-0.009838375
176	0xbc4ca722	-0.012491019
177	0x3ca05cf7	0.01957558
178	0xbb9dbbf4	-0.0048136655
179	0x3c29ecd7	0.010371408

spectral.conv2.conv.bias f4 [6]
0	0xbdbf0dc1	-0.09328795
1	0xbe362deb	-0.17790954
2	0x3e35d27d	0.17756076
3	0xbd95701c	-0.07296774
4	0x3bb8a6e2	0.0056351284
5	0x3c09fa49	0.008421489

spectral.conv2.bn.weight f4 [6]
0	0x3f7d1f5a	0.98875964
1	0x3f7b401c	0.981447
2	0x3f7cdaea	0.98771536
3	0x3f83e8ee	1.030546
4	0x3f74a59f	0.9556522
5	0x3f81fd5c	1.0155444

spectral.conv2.bn.bias f4 [6]
0	0xbd422845	-0.047401685
1	0xbc46b2df	-0.012127607
2	0x3b8b868c	0.0042579826
3	0x3c3a4ab0	0.011370346
4	0xbd216b98	-0.03940925
5	0x3bb8902f	0.0056324224

spectral.conv2.bn.running_mean f4 [6]
0	0xbc02334e	-0.007946802
1	0xbd3a284a	-0.04544858
2	0x3e268f5d	0.16265626
3	0xbd6d5507	-0.057942417
4	0x3d39c536	0.04535409
5	0xbc5235fd	-0.012830255

spectral.conv2.bn.running_var f4 [6]
0	0x3c3a4864	0.011369798
1	0x3c225ea0	0.009910256
2	0x3b407d79	0.0029371663
3	0x3acd27e9	0.0015652153
4	0x3c0799d3	0.008276421
5	0x3ad0eb24	0.0015939218

spectral.conv3.conv.weight f4 [12, 12, 1, 1, 5]
0	0xbc78f510	-0.015195146
1	0xbce34c01	-0.027746202
2	0xbc8051f2	-0.015664075
3	0xbd1ce924	-0.038308278
4	0x3bbdaa31	0.0057881107
5	0xba9df4e5	-0.0012051134
6	0xbcdd9915	-0.027050534
7	0xbcea7924	-0.028622217
8	0xbd049eb9	-0.032377932
9	0xbb7a2d30	-0.0038173907
10	0xbce3af19	-0.027793454
11	0x3c7ec582	0.015550019
12	0x3cc4da7d	0.024029965
13	0xbc8e2668	-0.017352298
14	0x3ca12b47	0.019673957
15	0x3c32abed	0.010905248
16	0x3b74883a	0.0037312643
17	0xbc2d3944	-0.010572735
18	0x3d1d2a46	0.038370393
19	0x3c300eb1	0.01074569
20	0xbd3c496d	-0.04596846
21	0xbc63a6e0	-0.013894767
22	0xbcd0c22a	-0.02548321
23	0xbc108208	-0.008820064
24	0xbb4dc493	-0.0031397685
25	0xbaa43c95	-0.0012530262
26	0xbcc12d3a	-0.023581136
27	0xbac4e44a	-0.0015021649
28	0xbc5b6cdd	-0.013392654
29	0x3ccae2ae	0.024766292
30	0xbc19f66b	-0.0093971295
31	0x3bbcb425	0.0057587796
32	0x3c1776f2	0.009244667
33	0xba3725cd	-0.0006986529
34	0xbc928375	-0.01788495
35	0x3ca92bf5	0.020650843
36	0xbc7cb6d7	-0.015424452
37	0x3d1ba3b1	0.037997905
38	0xbcc63d2e	-0.024199095
39	0x3c2ff1d9	0.010738813
40	0x3cdbb18e	0.026818063
41	0xbbd52ead	-0.0065058083
42	0x3d1a0223	0.037599694
43	0xbca33a46	-0.019925248
44	0x3ceb34c1	0.028711678
45	0xbce0108c	-0.02735164
46	0x3cb783ce	0.022401717
47	0x3c934090	0.017975122
48	0x3ce077f2	0.027400944
49	0xbaf06627	-0.0018340991
50	0xbc911f39	-0.017715083
51	0xbc44bcfb	-0.012007947
52	0x3c8ef2dc	0.017449789
53	0xbc79fcc5	-0.015258019
54	0x3cfd5601	0.030924799
55	0xbd0bc393	-0.03412206
56	0xbd274c2f	-0.04084414
57	0xb8a380d5	-7.7964425e-05
58	0x3c457d25	0.012053763
59	0x3d3369e5	0.04380216
60	0xbc9d3dfd	-0.019194597
61	0xbc8831a8	-0.01662524
62	0xbbd29ce3	-0.0064273938
63	0xbd0b3be3	-0.03399266
64	0x3b70013d	0.0036621832
65	0xbbb06697	-0.0053833234
66	0xbc19a9e9	-0.009378889
67	0x3ce1828d	0.027528072
68	0x3c247070	0.010036573
69	0x3c94865b	0.018130472
70	0x3cbe138d	0.023202682
71	0x3c88dbe3	0.016706413
72	0xbc57f6a9	-0.013181367
73	0xbca4b55d	-0.020106012
74	0xbd77c2bd	-0.06048845
75	0xbc036418	-0.00801947
76	0x3c678f83	0.014133337
77	0x3b44a2f0	0.0030004345
78	0xbc8d2c67	-0.017233087
79	0x3d701a6a	0.05861894
80	0xbc9a97a3	-0.018871134
81	0xbc1df40a	-0.009640703
82	0xbc3338e5	-0.010938858
83	0xbc101ddf	-0.008796184
84	0x3c352e0a	0.01105834
85	0x3d0441dd	0.032289375
86	0xbcbabdfa	-0.022795666
87	0x3c2dcfab	0.010608594
88	0xbd8a7659	-0.06760854
89	0x3b1552bf	0.0022784916
90	0xb9e91ecc	-0.0004446417
91	0xbc1a9043	-0.009433809
92	0x3cd983aa	0.02655204
93	0x3c9a9f53	0.0188748
94	0xbbd17b59	-0.006392878
95	0x3b88b590	0.0041720346
96	0x3c4c8d71	0.012484894
97	0xbd302bd2	-0.04301054
98	0x3c286fae	0.010280533
99	0xbc815670	-0.015788287
100	0x39bb9c11	0.00035783698
101	0x3c9248d3	0.01785699
102	0xbcb018a6	-0.021496128
103	0xbc6b9610	-0.014379039
104	0xbd2bf61d	-0.04198276
105	0xbd1cce45	-0.03828265
106	0xbc45215b	-0.012031878
107	0xbba46c36	-0.0050177826
108	0xbc6f1ae2	-0.014593812
109	0x3c4e8183	0.01260412
110	0xbbe2fef8	-0.0069273673
111	0x3d161b30	0.03664702
112	0x3d2c121f	0.04200947
113	0xbc8e19d0	-0.017346293
114	0x3c72ce5f	0.0148197105
115	0x3c834422	0.0160237
116	0xbcdadb68	-0.02671595
117	0x3c15da90	0.009146348
118	0xbc9f79e9	-0.019467311
119	0xbc621362	-0.013798567
120	0xbb48f5ab	-0.0030664008
121	0x3c0d03e3	0.008606884
122	0x3c1c3444	0.0095339455
123	0xbd2bf6ba	-0.041983344
124	0xbcc4bd03	-0.024015909
125	0xbc2d7321	-0.010586531
126	0x3a5d8694	0.00084505347
127	0xbb5978f9	-0.0033183678
128	0x3ad88696	0.0016519602
129	0x3ba4f90a	0.0050345706
130	0x3d186d18	0.037213415
131	0x3c2d7387	0.010586626
132	0xbce08472	-0.027406905
133	0x3b2b88df	0.002617411
134	0x3c6c8fc0	0.01443857
135	0x3c19c7ea	0.009386042
136	0xbd31d2d3	-0.04341395
137	0x3d530f3c	0.0515282
138	0xbc459751	-0.012060002
139	0x3c1cfacf	0.009581282
140	0x3af368de	0.0018570682
141	0x3c3f7217	0.011684916
142	0x3c6b1a1f	0.0143494895
143	0xbbc3322f	-0.00595691
144	0x3ca205cc	0.019778155
145	0xbb9b760a	-0.004744296
146	0xbb98f87c	-0.0046682935
147	0x3d642c33	0.055706214
148	0xbc9ef4bb	-0.019403806
149	0x3bb31222	0.005464808
150	0xbc334679	-0.010942095
151	0x3d2e628a	0.042574443
152	0xbb398d2d	-0.0028312907
153	0x3d1bda5f	0.03805005
154	0xbc61e089	-0.0137864435
155	0x3a784d36	0.00094719545
156	0x3ca02b1f	0.019551812
157	0x3c3053ee	0.010762198
158	0x3c4d1fcc	0.012519788
159	0x3cd39e61	0.025832357
160	0x3c7fe7e6	0.015619254
161	0x3cc46ac2	0.023976687
162	0x3bf7d9fc	0.0075638276
163	0x3bbf2e18	0.005834352
164	0x3c2b7b8d	0.0104664685
165	0xbccec05d	-0.02523821
166	0x3bb8a805	0.005635264
167	0xbd1c0cd8	-0.038098186
168	0x3c305589	0.010762581
169	0x3ca65274	0.020302989
170	0xbd019a2b	-0.031641167
171	0x3c8203bf	0.015870927
172	0xb9286871	-0.00016060636
173	0x3b9eead0	0.004849769
174	0xbccd40f7	-0.025055392
175	0x3cbe249b	0.023210814
176	0xbcf8c945	-0.03036941
177	0xbb103d19	-0.0022009073
178	0xbbdfd431	-0.006830715
179	0xbbd225b6	-0.006413187
180	0x3b98b753	0.004660526
181	0xbcdd30cf	-0.027000813
182	0x3c1234bc	0.008923706
183	0xbd05b420	-0.032642484
184	0xbcd8be5f	-0.026457964
185	0xbc5e3b71	-0.013563977
186	0x3a99237b	0.0011683548
187	0xbb623c2d	-0.003452073
188	0xbca10c7d	-0.019659275
189	0xbae4da42	-0.0017460065
190	0xbc4d63e1	-0.01253602
191	0xbc861f20	-0.016372263
192	0xbc404fc3	-0.011737767
193	0x3cd58f88	0.026069418
194	0x3bebe0dd	0.0071984367
195	0xbcd6f2d6	-0.02623884
196	0xbcee734a	-0.029107708
197	0xbcc6ce59	-0.024268316
198	0x3c0d3490	0.008618489
199	0x3bbf49d2	0.0058376575
200	0xbc3f8b87	-0.011690981
201	0xbc9f6f5b	-0.019462278
202	0xbaac793f	-0.0013158693
203	0x3c3cd583	0.011525515
204	0x3baba866	0.0052385805
205	0xbb4af83e	-0.0030970718
206	0xbc22a4d4	-0.009926993
207	0xbd2bcad8	-0.041941494
208	0xbcd78c05	-0.026311884
209	0x3c23b9c7	0.009993023
210	0x3a1f2cb9	0.0006072033
211	0x3c8163db	0.015794685
212	0x3c6079ac	0.013700884
213	0xbce59579	-0.028025376
214	0x3c2aae82	0.0104175825
215	0xbcfbc2ef	-0.0307326
216	0xbba1054b	-0.004913961
217	0x3c2d83b7	0.010590485
218	0xbcadc927	-0.021214081
219	0x3d0c40e3	0.03424157
220	0x3c7ad0f6	0.015308609
221	0xbd0dafa1	-0.03459132
222	0x3c0daa4e	0.008646561
223	0x3c372a04	0.011179451
224	0x3cc0ab6e	0.023519244
225	0xbccdbcfc	-0.025114529
226	0xbc4d62f1	-0.0125357965
227	0x3cb2ad18	0.021811053
228	0x3c463bc9	0.012099215
229	0xba1bf7d1	-0.0005949708
230	0x3c428c0f	0.011874213
231	0xbd894b65	-0.067038335
232	0xba904d03	-0.0011009279
233	0xbd68f0f0	-0.0568704
234	0x3cbebc5d	0.023283178
235	0xbcb31c0b	-0.021863958
236	0xbbf2299e	-0.007390215
237	0xbd21cb82	-0.03950072
238	0x3cbc4944	0.022984155
239	0x3cdb0b1d	0.026738698
240	0xbc97ec37	-0.018545253
241	0xbc0eb89a	-0.008711005
242	0xbc4e3f8e	-0.012588395
243	0x3cf74843	0.030185824
244	0xbc362d85	-0.011119251
245	0xbb4ffb1a	-0.0031735362
246	0xbd374a55	-0.044748623
247	0x3a671205	0.0008814636
248	0xbc3b96f3	-0.011449563
249	0x3ce1512f	0.027504532
250	0xbd0bf2a6	-0.034166954
251	0xbb298df9	-0.0025871976
252	0xbc0684d8	-0.008210383
253	0x3ca441cf	0.020050911
254	0x3ce2b2c8	0.02767314
255	0xbc850566	-0.016237926

spectral.conv3.conv.bias f4 [12]
0	0x3b9c1b1f	0.0047639753
1	0xbc61a630	-0.013772532
2	0xbcb944b6	-0.022615772
3	0x3cf95edc	0.03044074
4	0x3c3e877c	0.011628982
5	0x3bf81c23	0.0075717135
6	0xbdd08dd7	-0.10183304
7	0xbdfd58e8	-0.12370473
8	0xbc8e23c3	-0.017351037
9	0x3dd2d169	0.10293848
10	0xbd8bccf4	-0.06826201
11	0xbd94ded0	-0.072690606

spectral.conv3.bn.weight f4 [12]
0	0x3f7f0fa4	0.9963324
1	0x3f80c1c3	1.0059131
2	0x3f8011e1	1.0005456
3	0x3f80fed5	1.0077769
4	0x3f876333	1.0577148
5	0x3f817b0a	1.0115674
6	0x3f8163f8	1.0108633
7	0x3f7f3205	0.996857
8	0x3f83f063	1.0307735
9	0x3f80fe61	1.007763
10	0x3f847480	1.0348053
11	0x3f7e9694	0.99448514

spectral.conv3.bn.bias f4 [12]
0	0xbc99e02f	-0.018783657
1	0x3a9c21a0	0.0011911876
2	0x3bd2042e	0.0064091897
3	0x3c085570	0.008321151
4	0x3cf0b673	0.029383874
5	0xbcae702c	-0.021293722
6	0xbd032d5f	-0.03202569
7	0xbcae4c6e	-0.021276679
8	0x3c824986	0.0159042
9	0xbb1ad478	-0.0023625176
10	0x3b80bf28	0.0039290376
11	0x3c28d244	0.0103040375

spectral.conv3.bn.running_mean f4 [12]
0	0xbd5702b7	-0.052492823
1	0xbdbc0172	-0.09179963
2	0x3d295c66	0.041347884
3	0xbdd92da6	-0.1060441
4	0xbd843734	-0.06455842
5	0x3e619da4	0.22032791
6	0x3cb72cdb	0.022360256
7	0xbd28afbb	-0.041183215
8	0x3a678375	0.00088315393
9	0x3c598d2c	0.013278287
10	0xbdcf17ea	-0.10111983
11	0xbd26b7ca	-0.04070262

spectral.conv3.bn.running_var f4 [12]
0	0x3c667ba6	0.014067566
1	0x3c449601	0.011998654
2	0x3b95767c	0.0045612436
3	0x3c50513f	0.012714683
4	0x3bdac915	0.006676803
5	0x3d1d620a	0.038423575
6	0x3cf9f88d	0.030514026
7	0x3c6e2e23	0.014537367
8	0x3c0ab9f1	0.008467183
9	0x3c140714	0.009034891
10	0x3be81fb8	0.0070838593
11	0x3bf2f305	0.007414224

spectral.conv4.conv.weight f4 [12, 18, 1, 1, 5]
0	0xbc78506a	-0.015155891
1	0x3c6b356c	0.0143559985
2	0x3c9c7456	0.019098442
3	0xbcbec40c	-0.023286842
4	0xb95a6ab2	-0.00020829847
5	0x3c865b77	0.016401036
6	0xbd5c0453	-0.05371506
7	0x3d525778	0.051352948
8	0x3d2e74ab	0.042591732
9	0xbc54a21c	-0.012978103
10	0x3c9f3286	0.019433271
11	0xbc07e3cc	-0.008294057
12	0x3d0cc0a0	0.03436339
13	0x3ccc529e	0.024941739
14	0xbc6f51e3	-0.014606926
15	0xbcf9f862	-0.030513946
16	0xbd4785f8	-0.048711747
17	0x3c5317d0	0.012884095
18	0xbd5b44f3	-0.053532552
19	0xbccf2876	-0.025287848
20	0xbccc40b5	-0.024933198
21	0x3bd9731a	0.0066360356
22	0x3bdd0bee	0.006745807
23	0x3a9aee6e	0.0011820325
24	0x3c8f81b5	0.017517904
25	0xbcf3a9be	-0.029744025
26	0x3cca4f25	0.024695942
27	0xbc2a83c9	-0.010407397
28	0xbcec3bf0	-0.028837174
29	0xba1bcd2d	-0.00059433543
30	0xbc60d9ab	-0.013723771
31	0xbccb68e9	-0.024830298
32	0xbb93896d	-0.0045024664
33	0x3d411193	0.0471359
34	0xbd06a917	-0.0328761
35	0xba6b1017	-0.0008966936
36	0x3b23eb22	0.0025011976
37	0xbc1f34d8	-0.009717189
38	0x3b5e117b	0.003388493
39	0xbb08b480	-0.002085954
40	0xbcca92ea	-0.024728257
41	0x3c68d4c5	0.014210884
42	0x3d2b5eef	0.041838583
43	0xbc6c65b5	-0.014428546
44	0xbc9b8301	-0.018983366
45	0x3ce2addd	0.027670795
46	0xbd612933	-0.05497093
47	0xbc3f1bcd	-0.011664343
48	0xbc377fc9	-0.0111999
49	0xbcf7ac95	-0.03023366
50	0x3c5e4606	0.0135665
51	0xba8b8cdf	-0.0010646841
52	0x3c2e1bd7	0.010626755
53	0xbc8c33c9	-0.017114537
54	0xbd043933	-0.032281112
55	0x398d99e8	0.00027008285
56	0xbb51a33b	-0.0031988162
57	0xba526af8	-0.0008026804
58	0xbcc9e158	-0.024643585
59	0xbcacee01	-0.021109583
60	0x3b3c4a25	0.0028730717
61	0x3cb0c37f	0.021577595
62	0x3d8e5d5e	0.06951402
63	0x3c9c9f6a	0.019118983
64	0x3cf60618	0.030032203
65	0xbc55de6f	-0.013053521
66	0x3d4b5ace	0.049647145
67	0xbbc63575	-0.006048853
68	0x3c0af14d	0.008480382
69	0x3bcc5fc9	0.0062370044
70	0xbc2c4c28	-0.010516204
71	0xbb8a0275	-0.0042117187
72	0xbb41b42f	-0.002955686
73	0xbcda6647	-0.026660098
74	0xbcdbdb46	-0.026837956
75	0xbcdaac0b	-0.026693365
76	0x3cb67fe0	0.022277772
77	0x3c22df72	0.009940969
78	0xbcb33b1d	-0.021878773
79	0x3bdfeae7	0.0068334225
80	0x3ccfbc12	0.025358234
81	0x3b3ad119	0.002850598
82	0xbc94c190	-0.018158704
83	0x3bfd83ff	0.0077366824
84	0x3b10882c	0.002205382
85	0x3ba77d60	0.0051113814
86	0xbcd2c5a7	-0.025729014
87	0x3cf154c3	0.029459363
88	0x3cbae9d7	0.022816582
89	0x3c560d92	0.013064759
90	0xbd44fa86	-0.04809048
91	0x3c44848d	0.011994493
92	0x3cc06a2c	0.023488127
93	0x3c8ef13b	0.017449012
94	0xbbfa84e9	-0.0076452387
95	0xbce83d13	-0.028349435
96	0x3c8ebe51	0.017424734
97	0xbc782caf	-0.015147372
98	0x3b05d12a	0.002041886
99	0x3c83827a	0.016053427
100	0xbcacf0b6	-0.021110874
101	0x3ba64d7b	0.0050751544
102	0xbc662311	-0.014046446
103	0x3d1d284c	0.03836851
104	0x3c1a5fb3	0.0094222305
105	0x3bebabc4	0.007192107
106	0x3cfa3840	0.0305444
107	0x3c0157d0	0.007894471
108	0x3cb1dd55	0.021711985
109	0x3d0e9f12	0.03481967
110	0x3b2bcfc4	0.0026216367
111	0x3bc4e1e2	0.0060083726
112	0x3d46e62e	0.04855936
113	0x3c0a9085	0.008457308
114	0xbb31357f	-0.0027039943
115	0x3b61cce9	0.0034454411
116	0x3d454f6a	0.04817144
117	0x3b0f7d46	0.0021894737
118	0x3b5e0cca	0.0033882135
119	0x3ca61896	0.020275395
120	0xbc1d8d9b	-0.009616281
121	0xbc00405d	-0.007827845
122	0xbab7c7d7	-0.0014021349
123	0x3d15952a	0.036519207
124	0x3ca18277	0.01971553
125	0xbb58a0c7	-0.0033054815
126	0xbcc13629	-0.023585396
127	0x3bbee70c	0.005825883
128	0x3d12ffc6	0.035888456
129	0xbaf09b28	-0.0018356787
130	0xbd090bad	-0.0334584
131	0x3ba18e01	0.0049302583
132	0x3c31895a	0.01083597
133	0xbc9dcbec	-0.019262277
134	0xbb371788	-0.002793761
135	0x3cb9ebee	0.022695508
136	0x3cbe17a0	0.023204625
137	0x3c51da28	0.01280836
138	0xba9a2fee	-0.0011763552
139	0xbd2fe951	-0.042947117
140	0x3c549b59	0.012976491
141	0xbcaec3e2	-0.021333639
142	0xbbc86a3e	-0.0061161807
143	0x3d0862c4	0.033297315
144	0xbc89683e	-0.01677334
145	0x3ccca25e	0.024979766
146	0x3ca093b5	0.019601682
147	0x38b7499c	8.739831e-05
148	0x3c27ac29	0.010233917
149	0xbc489f79	-0.0122450525
150	0x3bfbc116	0.0076829297
151	0xbc48d4af	-0.012257739
152	0x3cc86ad0	0.024464995
153	0x3b003cbf	0.0019567457
154	0x3ccf861a	0.0253325
155	0xbcdef8f1	-0.027218314
156	0x3bd882bd	0.006607382
157	0xbc0d958d	-0.008641613
158	0xbbd8455f	-0.0066000666
159	0x3b9c08fb	0.0047618127
160	0xbcc60bdc	-0.024175577
161	0xbc684e4d	-0.014178825
162	0x3cc52e27	0.024069859
163	0xbc222bda	-0.00989815
164	0xbadba4df	-0.001675751
165	0x3c5e4089	0.013565191
166	0x3aef9d51	0.0018281137
167	0xbb221f91	-0.0024738053
168	0x3b363303	0.0027801401
169	0xbab4e6ae	-0.0013801658
170	0x3d129457	0.035786
171	0x3c6cc7bf	0.01445192
172	0x3d230bc6	0.03980615
173	0xbc4bd88d	-0.012441766
174	0x3ce455e2	0.027872983
175	0x3d06f1c2	0.032945402
176	0xbcb5125a	-0.022103477
177	0xbbcc8520	-0.0062414557
178	0x3c0a410e	0.008438362
179	0x3c208ae8	0.009798743
180	0x3c4ecb38	0.012621693
181	0xbc168a7d	-0.009188292
182	0x3c25a95a	0.010111177
183	0x39304e59	0.00016813855
184	0x3c97b57b	0.018519154
185	0xbb5a377d	-0.0033297234
186	0x3b604cdf	0.0034225506
187	0x3b5a295a	0.0033288808
188	0x3c99921f	0.018746434
189	0xbbf9a214	-0.007618198
190	0xbac16944	-0.0014756103
191	0x3d330fed	0.04371636
192	0xbc406cff	-0.011744737
193	0x3bd965c8	0.0066344477
194	0x3d3fbd03	0.046811115
195	0xbad4a4e3	-0.0016223456
196	0xbaa220a5	-0.0012369348
197	0xbb828b6b	-0.003983905
198	0x3b506816	0.0031800321
199	0x3d3f7c44	0.04674937
200	0x3b90b331	0.0044158925
201	0xbbac2753	-0.0052537112
202	0xbca86ec2	-0.020560626
203	0x3c1960f5	0.009361495
204	0x3d1d0093	0.038330626
205	0xbc48e3d5	-0.012261351
206	0x3c0e4fea	0.008686045
207	0x3c912c24	0.017721243
208	0xbb1d9919	-0.0024047552
209	0xbc952f7d	-0.01821112
210	0xbb61b3c7	-0.003443943
211	0xbcc10a8b	-0.023564598
212	0x3c5c3a56	0.013441643
213	0x3d2bf8b8	0.041985244
214	0xbb407741	-0.0029367956
215	0xbb224e9e	-0.0024766098
216	0x3b874ecd	0.004129267
217	0xbc8e45b5	-0.017367223
218	0x3cf72fd9	0.030174183
219	0x3c56b41d	0.013104466
220	0x3d4157bb	0.047202807
221	0x3d1e59ba	0.03865979
222	0xbb601a2d	-0.003419529
223	0x3c5fcae1	0.01365921
224	0x3d08998c	0.03334956
225	0x3c80c90d	0.015720868
226	0x3d19cc10	0.037548125
227	0x3c730a95	0.014834066
228	0xbcb60a5c	-0.022221737
229	0xbd09eaef	-0.033671316
230	0x3cabbe66	0.020964812
231	0x3c9ac721	0.01889378
232	0x3cfdfb35	0.031003574
233	0xbb95776c	-0.0045613553
234	0x3cf30077	0.029663308
235	0x3c9eec92	0.019399915
236	0xbc7ee3d5	-0.015557249
237	0x3c8eec9f	0.017446814
238	0x3d06eb2b	0.032939117
239	0x3c5f2848	0.013620444
240	0xbcf54bc7	-0.02994336
241	0x3d385906	0.045006774
242	0xbc480d06	-0.012210136
243	0xbb961063	-0.00457959
244	0x3a97c408	0.0011578808
245	0xbc0578a8	-0.0081464425
246	0x3c20ab96	0.009806534
247	0xbc473b09	-0.012160071
248	0x3b8a72ec	0.0042251255
249	0x3cac3829	0.021022873
250	0x3c5b4c0c	0.01338483
251	0x3c5bfe2f	0.013427301
252	0x3c12a5df	0.00895068
253	0xbd07cee7	-0.0331563
254	0xbc0b0e44	-0.008487288
255	0x3cba5607	0.0227461

spectral.conv4.conv.bias f4 [12]
0	0xbdb3694e	-0.0876032
1	0xbc5566d1	-0.013025002
2	0x3d3108d8	0.043221325
3	0xbc2a8b99	-0.010409259
4	0xbc9b4992	-0.01895598
5	0x3cb8b312	0.022546325
6	0x3b42f336	0.0029747016
7	0xbd655f42	-0.055999048
8	0x3c8c7f01	0.017150404
9	0xbdb053ea	-0.08609755
10	0xbdd6020b	-0.104496084
11	0x3da09c3a	0.07842298

spectral.conv4.bn.weight f4 [12]
0	0x3f78c998	0.9718261
1	0x3f7faf80	0.99877167
2	0x3f83741d	1.026981
3	0x3f7f6684	0.997658
4	0x3f85962c	1.0436454
5	0x3f849d1a	1.0360444
6	0x3f7d1c08	0.988709
7	0x3f83e70f	1.0304888
8	0x3f821b3e	1.0164564
9	0x3f83190d	1.024202
10	0x3f8a8d32	1.0824339
11	0x3f810a35	1.008124

spectral.conv4.bn.bias f4 [12]
0	0xbd15a0c5	-0.036530275
1	0x3b1b3f51	0.0023688863
2	0xbb98976b	-0.0046567223
3	0x3bb8f33c	0.00564423
4	0x3d35098b	0.044198554
5	0x3b3f369a	0.0029176832
6	0xbc275178	-0.010212295
7	0x3c89c4fc	0.016817562
8	0x3baaa47d	0.005207597
9	0x3ab46b4e	0.001376489
10	0x3d51cea4	0.05122246
11	0xbbffe290	-0.007808991

spectral.conv4.bn.running_mean f4 [12]
0	0xbe06769a	-0.1313118
1	0x3e29ae1c	0.16570324
2	0x3e892d85	0.2679254
3	0xbe6f4a89	-0.23368277
4	0x3c00ff6e	0.007873399
5	0xbe03b028	-0.12860167
6	0xbe234f5b	-0.1594824
7	0xbd26f90a	-0.040764846
8	0x3d9c183c	0.0762181
9	0xbe12035b	-0.14259093
10	0xbe9988c5	-0.2998716
11	0x3eda8b32	0.42684323

spectral.conv4.bn.running_var f4 [12]
0	0x3cdfb003	0.027305609
1	0x3ca5b5f6	0.020228367
2	0x3d053ed5	0.032530624
3	0x3d2c6ba8	0.042094857
4	0x3c289ea4	0.010291729
5	0x3ceea8b5	0.02913318
6	0x3d1ac291	0.03778321
7	0x3ca85351	0.02054754
8	0x3cd578c8	0.02605857
9	0x3c87d4d5	0.016580978
10	0x3d13e023	0.036102425
11	0x3d211bc8	0.039333135

spectral.conv5.conv.weight f4 [24, 36, 1, 1, 49]
0	0xbca5ce74	-0.020240046
1	0xbc32648f	-0.010888233
2	0x3d3a753c	0.04552196
3	0xbcfbbf55	-0.030730883
4	0xbd2e92d5	-0.0426205
5	0x3c0240be	0.007950006
6	0xbd0838ec	-0.03325741
7	0x3caa9a83	0.02082563
8	0x3bab397d	0.005225359
9	0xbbadeed8	-0.0053080134
10	0xbcaa9044	-0.020820744
11	0x3ca0994a	0.019604344
12	0x3c6f907e	0.014621852
13	0x3cab1318	0.020883128
14	0x3c8b7a9f	0.017026244
15	0x3844742d	4.683824e-05
16	0x3c2e23bf	0.01062864
17	0x3cd43595	0.025904456
18	0x3cd91d47	0.026503218
19	0xbbac308d	-0.005254811
20	0x3c2d3303	0.010571244
21	0xbc0b4231	-0.008499668
22	0xbc116765	-0.008874749
23	0xbaa4390d	-0.001252921
24	0x3c8ba0e3	0.01704449
25	0x3c054caf	0.008135959
26	0x3c3ef713	0.011655587
27	0xbbc70e0a	-0.0060746716
28	0xbc127771	-0.00893961
29	0x3bc191ae	0.005907259
30	0xbcf2ae89	-0.02962424
31	0xbc463741	-0.0120981345
32	0xbcd6d501	-0.026224615
33	0xbd1889e8	-0.037240893
34	0x39417792	0.00018450458
35	0x3c43b409	0.011944779
36	0xbc6b2b0e	-0.014353527
37	0xbc9bb4b5	-0.019007066
38	0xbc2d667b	-0.010583515
39	0xbd760b27	-0.06006923
40	0xbc30adcd	-0.010783625
41	0x39f7ca74	0.0004726235
42	0xbc2d438e	-0.010575188
43	0xbcd2604c	-0.025680684
44	0xbd266f34	-0.040633395
45	0xbab39472	-0.0013700856
46	0x3c0a052f	0.008424087
47	0x3b72e29e	0.0037061344
48	0x3b834472	0.004005962
49	0xbc0f33f6	-0.008740416
50	0x3ce2b42a	0.0276738
51	0x3bf8f267	0.007597256
52	0xbc95ccdf	-0.018286167
53	0xbc59631f	-0.013268261
54	0x3b5bdc3c	0.0033548018
55	0xbb8215b3	-0.003969872
56	0x3cd7b32f	0.026330559
57	0xbc612da5	-0.013743793
58	0xbb88e030	-0.004177116
59	0xbc8ecd4f	-0.017431883
60	0xbc79ad52	-0.015239077
61	0xbc2ff646	-0.0107398685
62	0xbb12c2b3	-0.0022393882
63	0xbb5e2924	-0.0033899033
64	0xbaf33039	-0.00185538
65	0xbc4644ea	-0.012101391
66	0xbcf222a4	-0.029557534
67	0xbc3f4249	-0.011673518
68	0xbcfdb60c	-0.030970596
69	0xbca9a336	-0.020707708
70	0xbd2829bb	-0.041055422
71	0x3c03de46	0.0080486
72	0xbbaec8dd	-0.0053340034
73	0xbd47c4e4	-0.048771754
74	0xbcd98a34	-0.026555158
75	0xbc5bf903	-0.013426068
76	0xbbca7a74	-0.0061791483
77	0xbbc480eb	-0.0059968135
78	0x3cb3dbee	0.021955457
79	0x3c3156f4	0.010823954
80	0xbb926c8b	-0.0044685057
81	0xbcbb764f	-0.022883562
82	0x3c80ddc5	0.015730748
83	0xbbf6a523	-0.00752701
84	0x3c635563	0.013875338
85	0xbc49ea7d	-0.012323973
86	0x3c3dbc1f	0.011580496
87	0xbcbc87b6	-0.02301393
88	0xbaa3e1c0	-0.0012503192
89	0xbc9253f9	-0.017862307
90	0xbd34e57e	-0.044164173
91	0xbb1181c5	-0.0022202593
92	0x3b031cb2	0.0020006117
93	0x3d60509d	0.05476438
94	0xbccf55ab	-0.025309404
95	0x3d135e87	0.03597882
96	0x3d262f60	0.040572524
97	0x3b3eccfe	0.0029113884
98	0x3d00c6e0	0.031439662
99	0xbcf63923	-0.030056542
100	0x3d0b1532	0.03395576
101	0xbd33de07	-0.043912914
102	0xbc8110c0	-0.015755057
103	0x3a2a2fa6	0.00064920855
104	0xbb52b66d	-0.0032152191
105	0x3a3d662d	0.0007225003
106	0x3cac951f	0.0210672
107	0xbcc6a561	-0.02424878
108	0xbcb93bb8	-0.022611484
109	0x3c3f62af	0.011681243
110	0x3cb17ef5	0.021666983
111	0x3ca76a34	0.020436384
112	0xbaa8a42e	-0.0012866312
113	0xbb8cd603	-0.004297973
114	0xbc6471a5	-0.013943111
115	0xb8e70694	-0.000110161636
116	0x3c311fbf	0.0108107915
117	0x3d1c8a47	0.03821781
118	0x3bf8ffcd	0.007598853
119	0x3c2a8860	0.010408491
120	0x3b93d37c	0.004511295
121	0x3ac08ae0	0.0014689825
122	0xbb36b67c	-0.0027879765
123	0x3c288620	0.010285884
124	0xbd1530c8	-0.036423475
125	0x3bdb734a	0.006697093
126	0x3b251d5f	0.0025194508
127	0xbc8c4e3a	-0.017127145
128	0x3be9ddee	0.007137052
129	0xbccbabe6	-0.024862241
130	0x3ce8add0	0.028403193
131	0xbce51912	-0.027966056
132	0x3c6b10a6	0.014347231
133	0x3bbd5b16	0.0057786806
134	0xbcc01555	-0.023447672
135	0xbba7319a	-0.0051023485
136	0xbd31ab1c	-0.043376073
137	0xbd076cef	-0.03306287
138	0xbcba0137	-0.022705657
139	0x3cebf323	0.02880246
140	0x3bd0876d	0.0063638003
141	0x3ca1e819	0.019763993
142	0xbb24bf0e	-0.0025138292
143	0x3c3eea98	0.011652611
144	0x3adf2e1d	0.0017027293
145	0xbb992e39	-0.0046746996
146	0xbd0f2123	-0.03494371
147	0xbd0321b0	-0.03201455
148	0x3bae6c3b	0.0053229607
149	0xbd0d977f	-0.034568306
150	0x3c040e0c	0.00805999
151	0x3c5feccb	0.013667296
152	0xbbde8261	-0.0067904447
153	0xbb6b1176	-0.0035868562
154	0xbc53e1c9	-0.012932249
155	0x3a1a08e7	0.00058759603
156	0xbc1669ef	-0.00918053
157	0x3baf2db4	0.0053460244
158	0x3b98a2c2	0.004658074
159	0xbb4f4099	-0.0031624197
160	0x3ca51f8d	0.020156646
161	0xbd1fb1e2	-0.038988
162	0x3cdf5045	0.027259955
163	0xbc1a6ec1	-0.00942582
164	0xbcf0be21	-0.029387536
165	0xbb8380c4	-0.004013153
166	0xbd215e8c	-0.039396808
167	0xbca391b1	-0.019966932
168	0x3c67f34c	0.014157128
169	0x3a667dc3	0.00087925437
170	0xbcb06204	-0.021531112
171	0xbb3eaf2f	-0.0029096117
172	0x3bf1b725	0.007376569
173	0xbbb1fbba	-0.0054316195
174	0xbce4ca28	-0.027928427
175	0xbc70f297	-0.014706275
176	0xbbf5afb9	-0.0074977544
177	0xbcc2a1c7	-0.023758782
178	0x3cad73d2	0.021173391
179	0xbc8d6dcc	-0.01726427
180	0x3c8c4fa8	0.017127827
181	0xbc616ddf	-0.0137591055
182	0xbd6fee7b	-0.058577042
183	0xbc887946	-0.01665939
184	0x3ce60318	0.028077647
185	0xb9fc2daa	-0.00048099208
186	0xbcfcb4da	-0.030847955
187	0x3c226d65	0.009913777
188	0xbd10aa42	-0.03531862
189	0x3c5bc0ac	0.013412636
190	0x3c33fd88	0.0109857395
191	0xbc9513c3	-0.0181979
192	0x3bc59ba9	0.006030519
193	0xbcae74d0	-0.021295935
194	0x3be25c77	0.0069079953
195	0xbcb5b649	-0.022181647
196	0x3c1aa48e	0.009438647
197	0xbc53ce9a	-0.012927676
198	0xbd1f16f5	-0.038840253
199	0xbc5a656f	-0.013329848
200	0xbca09f1c	-0.01960712
201	0x3caa9c07	0.020826353
202	0xbc89835d	-0.016786272
203	0xbc5fb534	-0.013654042
204	0xbc850062	-0.016235534
205	0xbc87aef8	-0.016562924
206	0xbce7bf04	-0.028289326
207	0x3b573cde	0.0032842676
208	0x3c92ba52	0.01791111
209	0x3ba2392e	0.004950664
210	0xbc999191	-0.01874617
211	0x3c00bf76	0.007858148
212	0x3b91097f	0.004426181
213	0xbcc4fedf	-0.024047313
214	0xbc022880	-0.007944226
215	0x3c3f326d	0.011669737
216	0xb8f641f6	-0.0001174248
217	0xba6c11c9	-0.0009005336
218	0x3c32df7f	0.010917543
219	0x3bee60fd	0.0072747455
220	0x3c158c2e	0.00912766
221	0x3c97c535	0.018526653
222	0x3c046743	0.00808126
223	0x3aeb47ad	0.0017950438
224	0xbb825e36	-0.003978516
225	0xbc55e689	-0.013055452
226	0xbc892656	-0.016741913
227	0xbd30ccd4	-0.04316409
228	0x3c9600e8	0.018310979
229	0x3c8618e1	0.016369285
230	0xbd02640a	-0.031833686
231	0x3cd65081	0.026161434
232	0xbc1be95f	-0.009516089
233	0xbc9e6472	-0.019335005
234	0x3cd69cf7	0.026197894
235	0xbcc6e506	-0.024279129
236	0xbc2ed08c	-0.010669839
237	0xbd6dc59f	-0.058049794
238	0xbc4b6e1e	-0.012416391
239	0x3ce394e9	0.027780967
240	0xbc001b67	-0.007819033
241	0x3cbc8d7f	0.02301669
242	0x3b800a91	0.0039075096
243	0xba4fa113	-0.0007920425
244	0xbc342da1	-0.010997207
245	0xbc50913b	-0.012729938
246	0xbcabb892	-0.020962033
247	0xbd00e427	-0.031467583
248	0xbcd36fa9	-0.02581008
249	0x38cfd38f	9.909935e-05
250	0xbc45bcfb	-0.012068982
251	0xbcb329d3	-0.02187053
252	0xbd3b96b4	-0.04579802
253	0xbb7ebf91	-0.0038871507
254	0xba7deb6b	-0.0009686264
255	0x3d169966	0.036767386

spectral.conv5.conv.bias f4 [24]
0	0x3c992640	0.018694997
1	0xbccc3226	-0.024926256
2	0x3c46f221	0.012142689
3	0xbbbc4c10	-0.005746372
4	0xbc187ecb	-0.009307574
5	0xbc233758	-0.009961925
6	0xbccac480	-0.024751902
7	0xbbba71d9	-0.005689841
8	0x3ca223e9	0.019792514
9	0x3c983926	0.018581938
10	0x3b93f0de	0.0045147976
11	0xbc15c6ce	-0.009141637
12	0xbc9d620d	-0.019211793
13	0x3adc71ae	0.0016818547
14	0x3c016aa5	0.007898961
15	0x3b49430e	0.0030710134
16	0x3c415434	0.011799861
17	0xbc53da65	-0.012930487
18	0xbcc53e92	-0.024077687
19	0xbca9b2e2	-0.02071518
20	0x3cc27ea8	0.023742035
21	0x3c603c47	0.013686246
22	0x3c9f9f9a	0.019485284
23	0xbc6f8c9b	-0.014620925

spectral.conv5.bn.weight f4 [24]
0	0x3f65112f	0.89479345
1	0x3f6b7e0e	0.9198922
2	0x3f827606	1.0192268
3	0x3f85de43	1.0458454
4	0x3f812df2	1.0092146
5	0x3f6e9823	0.9320089
6	0x3f7cc3c9	0.98736244
7	0x3f70e9e9	0.9410692
8	0x3f5e5ad7	0.8685736
9	0x3f71928b	0.9436423
10	0x3f717ece	0.94334114
11	0x3f7901bb	0.97268265
12	0x3f6675c0	0.9002342
13	0x3f7d09d5	0.9884313
14	0x3f7712e1	0.9651318
15	0x3f63d122	0.88990986
16	0x3f6f7fc6	0.9355434
17	0x3f6a09e9	0.9142137
18	0x3f531139	0.82448155
19	0x3f76c782	0.96398175
20	0x3f751f03	0.95750445
21	0x3f7ef93a	0.9959904
22	0x3f737dcd	0.9511383
23	0x3f7c4c9b	0.9855439

spectral.conv5.bn.bias f4 [24]
0	0xbdb1db49	-0.086844034
1	0xbcc592c8	-0.024117842
2	0xbc56f901	-0.013120891
3	0xbd034d3b	-0.032056075
4	0xbd7c814e	-0.061646752
5	0xbd0ec336	-0.034854136
6	0x3b18ca30	0.0023313873
7	0xbd44221d	-0.047884095
8	0xbd965e91	-0.07342256
9	0xbcd4ba0b	-0.025967618
10	0xbd6b4f57	-0.05744871
11	0xbd6d0315	-0.057864267
12	0xbd97cf95	-0.0741264
13	0xbc8802b7	-0.016602857
14	0xbc9ec476	-0.01938079
15	0xbd8333bf	-0.06406354
16	0xbd3d18d7	-0.046166267
17	0xbd0bffd8	-0.03417954
18	0xbde85020	-0.11343408
19	0xbd3975b9	-0.045278285
20	0xbcfa7151	-0.030571612
21	0xbd0449c0	-0.032296896
22	0xbc94574a	-0.018108029
23	0xbcfab550	-0.030604035

spectral.conv5.bn.running_mean f4 [24]
0	0xbfe11036	-1.7583072
1	0xbfd3f400	-1.6558838
2	0xbfe2ef2f	-1.7729243
3	0xbfadf316	-1.3589809
4	0x3f16056a	0.5860201
5	0xbfa9ae63	-1.3256344
6	0xc0031f7b	-2.0487964
7	0xc01fbbae	-2.49583
8	0xbebdac18	-0.3704536
9	0xbfa3135e	-1.2740285
10	0xc0002e28	-2.0028172
11	0xc002aaa3	-2.0416648
12	0xc00448ef	-2.0669515
13	0xc0139c1f	-2.3064039
14	0xbebe83f1	-0.37210038
15	0xc0147189	-2.3194296
16	0xbfd48b8a	-1.6605084
17	0xbf057841	-0.5213662
18	0xc00ce849	-2.2016776
19	0xbf9f931a	-1.2466767
20	0xbfb41ab1	-1.4070646
21	0x3e7ff2ce	0.24994966
22	0xbf162425	-0.586489
23	0xc0207a1f	-2.5074537

spectral.conv5.bn.running_var f4 [24]
0	0x40425804	3.036622
1	0x40c0905a	6.017621
2	0x40a816a7	5.252765
3	0x403cff52	2.9530835
4	0x40273ec5	2.6132061
5	0x4006b7ab	2.1049602
6	0x4066beca	3.6053948
7	0x411d1651	9.817948
8	0x400fb28d	2.2452729
9	0x40a9a498	5.301342
10	0x409db2d8	4.9280815
11	0x40959928	4.674946
12	0x41089d31	8.538377
13	0x407f727c	3.9913626
14	0x40a338a4	5.100664
15	0x40d22a04	6.567629
16	0x4079ec49	3.9050467
17	0x403580c0	2.8359833
18	0x4091f0dc	4.560652
19	0x406b19d6	3.673452
20	0x408b7176	4.3576
21	0x402e35ee	2.7220416
22	0x3ff9e51b	1.9523042
23	0x40e86ee7	7.263538

spectral.bn.weight f4 [24]
0	0x3f8f30ae	1.1186731
1	0x3f88ecbe	1.0697248
2	0x3f8c9853	1.0983986
3	0x3f8b1f28	1.0868883
4	0x3f90b40a	1.1304944
5	0x3f9073c4	1.1285329
6	0x3f8883c3	1.066521
7	0x3f90e4f2	1.1319869
8	0x3f8c0240	1.0938187
9	0x3f8684dd	1.0509297
10	0x3f892548	1.0714502
11	0x3f8bc705	1.0920111
12	0x3f9188e9	1.1369907
13	0x3f89d6a6	1.076863
14	0x3f887546	1.0660789
15	0x3f9623bf	1.1729659
16	0x3f911e3a	1.133735
17	0x3f886d2f	1.065832
18	0x3f95f7e7	1.1716279
19	0x3f8a62b7	1.0811375
20	0x3f89ee48	1.0775843
21	0x3f89eee3	1.0776027
22	0x3f89603f	1.0732497
23	0x3f8e89f9	1.1135856

spectral.bn.bias f4 [24]
0	0x3dda1e75	0.106503405
1	0x3e0350f5	0.12823851
2	0x3e568995	0.20950921
3	0x3e266ee6	0.16253242
4	0x3e585cc0	0.21129131
5	0x3e4d4c7a	0.20048705
6	0x3e094770	0.13406157
7	0x3e419644	0.18904978
8	0x3e070c27	0.1318823
9	0x3db53882	0.08848669
10	0x3e094a89	0.13407339
11	0x3e3301f8	0.1748122
12	0x3e5bf086	0.21478471
13	0x3e3e228a	0.18567863
14	0x3e35e00c	0.17761248
15	0x3e4804b9	0.19533052
16	0x3e25c0a3	0.16186766
17	0x3e116158	0.1419729
18	0x3e54f980	0.20798302
19	0x3e2531f3	0.16132335
20	0x3e2ba360	0.16761541
21	0x3e3b66fd	0.18301006
22	0x3de20501	0.11036111
23	0x3e5b58fb	0.21420662

spectral.bn.running_mean f4 [24]
0	0x3f78ab48	0.97136354
1	0x3f83f69d	1.0309635
2	0x3f83d984	1.0300756
3	0x3f8e04a8	1.1095171
4	0x3f819ae4	1.0125394
5	0x3f80f6b3	1.0075287
6	0x3fa1ab23	1.2630352
7	0x3f823b44	1.0174336
8	0x3f7098cf	0.9398317
9	0x3f81db02	1.0144961
10	0x3f837fef	1.0273417
11	0x3f9107a0	1.1330452
12	0x3f8ef690	1.1168995
13	0x3f8662f9	1.0498954
14	0x3f7c4ab1	0.9855147
15	0x3f77376a	0.9656893
16	0x3f807c08	1.0037851
17	0x3f7fdec4	0.9994929
18	0x3f59548d	0.8489464
19	0x3f7bcc8e	0.98359
20	0x3f8297bd	1.0202557
21	0x3f8454b0	1.0338345
22	0x3f985af2	1.1902754
23	0x3f86b870	1.0525036

spectral.bn.running_var f4 [24]
0	0x3feb5e8d	1.838823
1	0x3ff9b338	1.9507818
2	0x402098e8	2.5093327
3	0x40880a09	4.251225
4	0x40912db8	4.536831
5	0x4045d33b	3.0910175
6	0x4065acc3	3.5886695
7	0x3feb7a54	1.8396707
8	0x402442e0	2.5665817
9	0x4002a761	2.041466
10	0x40122c70	2.2839622
11	0x4055858d	3.3362763
12	0x4038146a	2.876246
13	0x400d65fb	2.2093494
14	0x40290598	2.6409664
15	0x3ff185c7	1.8868951
16	0x4041adfa	3.0262437
17	0x4004a4e4	2.0725641
18	0x3fee68f0	1.8625774
19	0x4029594a	2.6460748
20	0x3ff7577a	1.9323571
21	0x40334015	2.8007863
22	0x407af3a3	3.9211204
23	0x4071a418	3.7756405

spatial.conv1.conv.weight f4 [24, 1, 1, 1, 102]
0	0x3d89ec61	0.06734539
1	0x3d103729	0.035208855
2	0x3cf8befc	0.030364506
3	0x3ca2d10c	0.019875072
4	0x3d28282c	0.041053936
5	0x3ceea621	0.02913195
6	0x3cd1af3e	0.025596257
7	0x3c4df796	0.012571236
8	0x3cd3d91c	0.025860362
9	0x3c6c1c75	0.014411082
10	0x3d4f81a3	0.05066074
11	0x3cadb9f5	0.021206835
12	0xba8a2955	-0.0010540882
13	0xbcfa1404	-0.030527122
14	0x3c9f2303	0.019425875
15	0x3afbc18c	0.0019207462
16	0x3d050dab	0.032483738
17	0x3c9ca597	0.019121928
18	0xbc9471c8	-0.018120661
19	0x3c9a737f	0.018853901
20	0xbb959c0f	-0.004565723
21	0x3d5e8662	0.054327376
22	0xbd4c9d29	-0.049954567
23	0xbc9289b3	-0.017887926
24	0xbd8ef8f8	-0.06981081
25	0xbd809269	-0.062779255
26	0xbc31d0dd	-0.01085302
27	0xbcfcf351	-0.030877741
28	0xbd910754	-0.07081476
29	0xbd7eb857	-0.06218752
30	0xbcd12c97	-0.025533957
31	0xbdacb668	-0.08433229
32	0xbd5d09a1	-0.05396426
33	0xbd4a9151	-0.04945499
34	0xbc9ea732	-0.019366834
35	0xbd20fbea	-0.039302744
36	0xbb11ad44	-0.0022228519
37	0x3c1bd5f0	0.009511456
38	0x3c44b6ae	0.012006445
39	0xbc96e81c	-0.018421225
40	0x3ca3e7b4	0.020007946
41	0x3c87977e	0.01655173
42	0xbcbb53ad	-0.022867048
43	0x3c70d6f1	0.0146996835
44	0xba86d0bb	-0.0010285595
45	0x3c320ea1	0.010867746
46	0x3ca53d6f	0.020170895
47	0x3c48dd2d	0.012259764
48	0x3cbcc8b5	0.023044923
49	0x3c48c7d9	0.012254679
50	0xbca5195e	-0.020153698
51	0x3d2e5aff	0.04256725
52	0x3cfa63ff	0.03056526
53	0x3c2de28b	0.010613094
54	0x3a1fb960	0.00060929917
55	0xbaf53d82	-0.0018710347
56	0xbc5c6970	-0.013452873
57	0x3cb8cfc9	0.022560017
58	0xbb6c5aa7	-0.0036064775
59	0xbba7a89b	-0.005116535
60	0x3c6ce51c	0.014458921
61	0xbd29f47d	-0.041492928
62	0x3bcaa6cf	0.006184436
63	0xbb299118	-0.0025873836
64	0xbd3626ec	-0.044470713
65	0xbc8b01ef	-0.016968695
66	0xbc83822f	-0.016053287
67	0xbd08be0a	-0.03338436
68	0xbb76c17f	-0.0037651954
69	0xbd0b5238	-0.034013957
70	0xbd3c35a1	-0.045949582
71	0x3c897c9e	0.016783055
72	0xbd4c5e5c	-0.049894676
73	0x3a5920ae	0.0008282763
74	0xbcfc5ca0	-0.030805886
75	0xbb4e5a3c	-0.003148689
76	0x3cb0ad68	0.021567062
77	0xbcc0eca3	-0.023550337
78	0xbac2e453	-0.0014869071
79	0x3c70983e	0.014684735
80	0x3d081f40	0.033232927
81	0x3b903bde	0.004401668
82	0x3b910d40	0.0044266284
83	0xbbb16aac	-0.0054143276
84	0x3c249d44	0.010047261
85	0x3c573cfb	0.0131370975
86	0xbd5bca0d	-0.053659488
87	0xba2fe941	-0.0006710478
88	0xbc36021f	-0.011108904
89	0xbb2d8334	-0.0026475908
90	0x3c90f0af	0.017692892
91	0x3cde22db	0.02711623
92	0x3c068e3e	0.008212624
93	0x3d04d171	0.0324263
94	0x3bd08f77	0.0063647586
95	0x3c1b355d	0.009473172
96	0xbc7703cd	-0.01507659
97	0xbc03066a	-0.007997135
98	0xbd087a50	-0.03331977
99	0xbbfb168e	-0.007662601
100	0xbca6004a	-0.02026381
101	0x3d0dc136	0.03460809
102	0xbc74f8e6	-0.01495192
103	0xbad74cec	-0.0016426123
104	0x3bc0db59	0.0058855233
105	0xbc60cb22	-0.013720306
106	0xbd0b00f6	-0.033936463
107	0xbc2a043a	-0.010376984
108	0xbc88ec13	-0.016714131
109	0xbca96d07	-0.020681871
110	0x3cc09c15	0.023511926
111	0xbc7bde68	-0.01537285
112	0xbbd882d2	-0.006607392
113	0xbc9b54fa	-0.018961418
114	0x3d2651dd	0.040605415
115	0xbbd5f537	-0.006529476
116	0xbc0d0898	-0.008608006
117	0x3b958cb7	0.0045638937
118	0x3c3afda4	0.011413012
119	0x3ce46a96	0.027882855
120	0xbc2ac5fa	-0.010423178
121	0x3b7fe788	0.0039047915
122	0xbcbcde85	-0.023055324
123	0x3d041577	0.032247033
124	0x3d00dbfc	0.031459793
125	0xbd08ca2b	-0.033395927
126	0x3c4e8918	0.012605928
127	0x3c2719ec	0.010199051
128	0x3c0917e0	0.008367509
129	0x3c937b66	0.018003177
130	0x3d3065b4	0.04306574
131	0x3ccf4fb2	0.025306556
132	0x3c1f60a6	0.009727633
133	0x3c9e7394	0.019342221
134	0x3cdeca84	0.027196176
135	0x3ad1a461	0.0015994423
136	0x3c0d5fe0	0.008628815
137	0x3d263167	0.040574457
138	0x3c0708af	0.008241816
139	0x3c23d256	0.009998878
140	0x3d5ae614	0.053442076
141	0x3ce7236f	0.028215138
142	0x3d62df02	0.055388458
143	0x3cec5301	0.028848173
144	0xbaa69d1c	-0.0012711617
145	0xbc06c5be	-0.008225856
146	0x3c84b78b	0.016200801
147	0xbcdf2a5c	-0.027241878
148	0xbc007e90	-0.007842675
149	0x3bf0473d	0.007332711
150	0xbb98a2e4	-0.00465809
151	0x3d450598	0.048101038
152	0x3ca4817e	0.020081278
153	0xbc4d8f5e	-0.012546388
154	0x392d6d91	0.00016539382
155	0x3cf1a3d3	0.029497063
156	0xbc987dc4	-0.018614657
157	0x3d175b61	0.03695238
158	0xbc6aed24	-0.014338765
159	0xbcec661e	-0.028857287
160	0x3ba7e4e3	0.005123721
161	0xbcc58d22	-0.024115149
162	0xbd32c460	-0.04364431
163	0xbd98ce21	-0.07461191
164	0x3b6d0991	0.0036169032
165	0xbbb12cd2	-0.0054069543
166	0xbbae7414	-0.005323896
167	0xbcfa8e20	-0.030585349
168	0xbceef353	-0.02916876
169	0xbd64bec4	-0.05584599
170	0xbc32e462	-0.0109187085
171	0xbd271227	-0.040788796
172	0xbcbc15f8	-0.022959694
173	0xbcb222cd	-0.02174511
174	0xbcbfcf7b	-0.023414364
175	0xbcf1f39d	-0.02953511
176	0xbd026571	-0.031835023
177	0xbcb0aa29	-0.021565514
178	0xbd149502	-0.036274917
179	0xbd4c895a	-0.049935676
180	0xbc1b3162	-0.009472223
181	0xbc8bb839	-0.017055618
182	0xbbbb2454	-0.0057111178
183	0xbd11c3f9	-0.035587285
184	0xbd1e0867	-0.03858223
185	0xbc25604e	-0.010093762
186	0x3c8f326e	0.017480101
187	0xbbabbcb0	-0.005240999
188	0xbda6444a	-0.08118494
189	0xbc89e0a0	-0.016830742
190	0x3c8983e8	0.01678653
191	0x3d0e27ee	0.03470605
192	0x3c8d60d0	0.017258078
193	0xbc7e8999	-0.0155357355
194	0x3c863085	0.016380558
195	0xbc4871a9	-0.01223413
196	0xbcea7404	-0.028619774
197	0x3cb47f29	0.022033291
198	0x3c0a07eb	0.008424739
199	0x3b286355	0.0025693972
200	0x3cec8536	0.028872114
201	0x3b8fa8ee	0.0043841517
202	0x3c928f68	0.017890647
203	0xbcae0050	-0.021240383
204	0xbcc086fb	-0.023501864
205	0x3bd598f0	0.0065184757
206	0x3d00145f	0.031269427
207	0xbb846045	-0.0040397965
208	0xbcecd9fc	-0.028912537
209	0xbc75d8e2	-0.015005322
210	0xbb114502	-0.0022166376
211	0xbc8caf8e	-0.017173555
212	0xbc4d0c38	-0.01251512
213	0x3c9801af	0.01855549
214	0xbb69ca22	-0.003567346
215	0xbcaecd0a	-0.021338005
216	0xbca9633d	-0.020677203
217	0x38d23a1d	0.00010024405
218	0xbc731c8c	-0.014838349
219	0xbcf2ccf1	-0.02963874
220	0x3c6fb3a4	0.014630232
221	0x3bb0fa71	0.0054009487
222	0xbc93b9c5	-0.018032918
223	0xbc0a1743	-0.008428398
224	0xbcbcd46b	-0.023050508
225	0x3c693d93	0.014235872
226	0x3cd44218	0.025910422
227	0x3c1ef0ad	0.009700936
228	0x3cc2b355	0.023767153
229	0xbc0aa0ef	-0.008461221
230	0x3da7022d	0.08154712
231	0x3cd218e7	0.02564664
232	0x3d933aaa	0.07188924
233	0x3d066cf7	0.03281876
234	0x3b6f6d3a	0.003653361
235	0x3d044938	0.03229639
236	0x3d06401a	0.032775976
237	0x3c783e27	0.015151537
238	0x3d391883	0.04518939
239	0x3c519f9f	0.012794404
240	0x3c265242	0.010151448
241	0x3cf0fc3d	0.029417152
242	0xbc525d2a	-0.012839595
243	0xbccbf0e6	-0.024895143
244	0x3d865448	0.06559044
245	0xbc3fcbe7	-0.011706329
246	0x3b485f2c	0.0030574305
247	0x3c525ec7	0.0128399795
248	0x3cde4d9a	0.027136613
249	0xbc39b303	-0.011334184
250	0x3ca9e580	0.020739317
251	0x3c164efc	0.009174105
252	0xbb12f52b	-0.0022423964
253	0xbc8ac709	-0.01694061
254	0xbca11cac	-0.019666992
255	0xbb5b8c6a	-0.0033500441

spatial.conv1.conv.bias f4 [24]
0	0x3d66e5a1	0.056371335
1	0x3d8d103e	0.068878636
2	0x3d0df7ab	0.034660023
3	0xbcea7b0f	-0.028623132
4	0xbd4fb1f8	-0.050706834
5	0x3d47048a	0.048588313
6	0xbd87c5d7	-0.06629532
7	0x3c0c219a	0.008552933
8	0x3ceb640a	0.028734226
9	0x3ce9d315	0.028543035
10	0x3d748e0f	0.05970579
11	0xbd584ce9	-0.052807722
12	0xbdc6626c	-0.09686741
13	0x3beed6f8	0.00728881
14	0x3c31e700	0.010858297
15	0xbda5376c	-0.080672115
16	0xbdb7866d	-0.089611866
17	0xbd71650a	-0.05893425
18	0xbba3029c	-0.0049746763
19	0x3ce17f69	0.027526574
20	0xbd0ea46e	-0.03482478
21	0xbceb5d2a	-0.028730948
22	0xbd0e994d	-0.034814168
23	0xbd326c63	-0.043560397

spatial.conv1.bn.weight f4 [24]
0	0x3f81d2c5	1.0142447
1	0x3f830e85	1.0238806
2	0x3f806f1f	1.0033911
3	0x3f7d177e	0.9886397
4	0x3f844b18	1.0335417
5	0x3f7ec5dc	0.9952066
6	0x3f7c7f85	0.9863208
7	0x3f78770c	0.9705665
8	0x3f8112eb	1.0083898
9	0x3f820472	1.0157607
10	0x3f7d9b04	0.9906466
11	0x3f80c8eb	1.0061315
12	0x3f7746a2	0.9659215
13	0x3f818426	1.0118454
14	0x3f84584b	1.0339445
15	0x3f831957	1.0242108
16	0x3f7c82f2	0.98637307
17	0x3f812f90	1.009264
18	0x3f81615b	1.0107836
19	0x3f78724a	0.9704939
20	0x3f819bc5	1.0125662
21	0x3f8102bf	1.0078963
22	0x3f81d25f	1.0142325
23	0x3f80f350	1.0074253

spatial.conv1.bn.bias f4 [24]
0	0xbbc7944f	-0.006090678
1	0xbc67c799	-0.014146709
2	0x3c293ee6	0.010329938
3	0xbc736248	-0.014854975
4	0x3c811d97	0.01576118
5	0x38f80650	0.00011826737
6	0x3cc27525	0.0237375
7	0x3c0eecbb	0.008723433
8	0x3c986f6a	0.018607814
9	0xbcc50cb0	-0.024053901
10	0x3c24be47	0.010055131
11	0xbc5fe92f	-0.013666435
12	0xbd3e5845	-0.0464709
13	0x3cd81005	0.026374826
14	0x3c6d2e77	0.01447641
15	0x3cf23e30	0.029570669
16	0x3be771df	0.007063135
17	0x3cb5c791	0.022189887
18	0xbd8fed78	-0.070277154
19	0x3c06936d	0.00821386
20	0xbd0846eb	-0.033270758
21	0xbc3037d5	-0.010755499
22	0xba7adabb	-0.00095693365
23	0x3c855a24	0.016278334
