checkpoints/model_epoch119.pth (torch, 752247 bytes, 210 tensors)

spectral.conv1.conv.weight f4 [24, 1, 1, 1, 5]
00000000: dbb0 e83c 63b0 8a3c 2d00 afbc e99b 73bb
00000010: 027d 23bb 0988 a93c cf7f f5bc c811 04bd
00000020: b427 533c b3e2 3fbc 79a7 3dbc 66a6 b7bb
00000030: a3fa 0a3d b6e4 203d 5a68 96bb ceb8 b7bb
00000040: c638 953b 2ccc 12bd f1d4 093d e8e7 37bc
00000050: 8b00 4a3c 1fb1 523c 7f0c 8cbc 8e02 823c
00000060: 226f 12bc 7017 f03c 89c9 a13a d51a 4dbd
00000070: 08fd 623d 8d16 b9bb ee49 db3a a2f7 0fbd
00000080: 302b f43c 016e ac3c 5bca e13a a662 e8bc
00000090: 0666 25bd 7322 493d bf19 0c3d adfd 74bc
000000a0: 86e0 4fbc 0352 053b e34d 5c3c 1f1b 28bd
000000b0: 0f1a 72bc a799 a53c 2ba6 6abb 8976 ba39
000000c0: 845e 32bd 4016 643c 3fdd febb 8dab 51bd
000000d0: a63b 0f3c 505a c83b bb18 a93c 9faf de3c
000000e0: 1212 233d ec6d 35bd 57f1 9c3b 698a 883b
000000f0: e5da 80bc 7dbb 40bc 8776 4d3c 64a3 53bc
00000100: 68b4 6d3b 5c76 10bd 6974 0b3c 97a6 a0bc
00000110: 03d5 383c 3967 2c3c de6b 9bbc 33a5 c0bc
00000120: 4576 90bc 6999 653d 3070 a5bc a64d 21bd
00000130: 4e4e 6fbc 339f 913b 0a14 85bc 3cc1 163d
00000140: b572 35bb ecee 053d cc8c 8cbc 9713 87bc
00000150: 5e5e 0abc 9665 d6bc 6490 48bd 26ea 4c3c
00000160: dcae 3b3d 2877 8cbc da93 88bc 3877 6e3c
00000170: b103 c0bb 82ed 9ebb 3a0a bebc 79cd 90bc
00000180: 22a8 003d 2705 7cba 94ca 67bd ba99 72bd
00000190: 30dc 28bc 9a7c d2bb 7db4 203c 625c 0a3d
000001a0: 3234 ae3c 6aa3 863c 9ae2 983c cb41 e43c
000001b0: 4fea 09bd 0768 74ba ffb6 bc3b 0723 37bb
000001c0: 1966 483b 07f5 923c cb23 09bd 0b87 89bd
000001d0: e1a5 28bd a285 06b8 4282 d73c 9834 0ebd
0.028404644 0.01692981 -0.021362389 -0.0037171787 -0.0024946337 0.02069475 -0.02996817 -0.03224352
0.012887884 -0.011711764 -0.011575573 -0.005604553 0.033930432 0.039280616 -0.0045900764 -0.005606747
0.004553887 -0.035839245 0.033650342 -0.011224724 0.012329231 0.012859612 -0.017095802 0.015870359
-0.008937629 0.02930805 0.0012343387 -0.050074417 0.05541709 -0.00564844 0.0016730407 -0.03514827
0.02980575 0.021048548 0.0017226444 -0.028367352 -0.0403805 0.04910512 0.03420424 -0.014953059
-0.012687808 0.0020343072 0.013446304 -0.04104149 -0.014776721 0.020214869 -0.003580461 0.00035565
-0.04354717 0.01392132 -0.0077778394 -0.051188994 0.008742249 0.0061142817 0.020641675 0.027183352
0.039812155 -0.044294283 0.004789512 0.0041668904 -0.015729377 -0.011763451 0.012540466 -0.012917373
0.003627086 -0.035269126 0.008511641 -0.019610686 0.011281255 0.010522657 -0.018972334 -0.023516273
-0.01763452 0.056054506 -0.020195097 -0.039380692 -0.014606072 0.004444027 -0.016244907 0.036805376
-0.002768678 0.032698557 -0.017156981 -0.016488833 -0.00844535 -0.026171487 -0.048965827 0.012506997
0.045821056 -0.017146662 -0.016672064 0.014554791 -0.005859815 -0.0048500905 -0.023198236 -0.017676102
0.031410344 -0.0009613805 -0.056589678 -0.059228636 -0.010306403 -0.006423545 0.009808657 0.03377951
0.021265123 0.016435344 0.01866274 0.027863404 -0.03367072 -0.00093233626 0.0057591195 -0.0027944462
0.0030578433 0.017939104 -0.0334814 -0.067152105 -0.04117382 -3.2072545e-05 0.026307229 -0.034718126

spectral.conv1.conv.bias f4 [24]
00000000: 45a9 73be cfc9 d1be ab2b 233e cf3f b2be
00000010: 1c96 b1be 536b a93e fd2f e0bc 2c88 a5bd
00000020: 87f6 8a3e 154d 0e3e 3438 54be b5e5 41be
00000030: 8710 7d3e 34e6 963e 4d70 be3d a20a 8bbd
00000040: 0498 c13e d6bd 9f3e 2f4a a5be 37f9 aabc
00000050: 8c11 a1be 629f 7f3e d24a 543e b112 3a3d
-0.2379504 -0.4097428 0.15934627 -0.34814307 -0.34684837 0.33089694 -0.027366633 -0.08082613
0.2714121 0.13896592 -0.20724565 -0.18935283 0.24713336 0.29472506 0.092987634 -0.067891374
0.3781129 0.3119952 -0.3228316 -0.020870788 -0.314587 0.24963143 0.20731667 0.04542798

spectral.conv1.bn.weight f4 [24]
00000000: b1f1 763f 7da1 763f 39db 783f 9004 783f
00000010: 82c3 6f3f 160b 753f 663f 7d3f 122d 823f
00000020: 5ac0 823f 0f3d 803f 333a 7b3f a134 7f3f
00000030: e6f8 7b3f 7aa4 7c3f 7cb8 7c3f c438 813f
00000040: 5b90 803f 1560 803f 6f8d 7c3f 11b8 7b3f
00000050: c8f2 7f3f 11ec 763f 1495 7e3f 2750 7a3f
0.9646254 0.9634016 0.9720951 0.9688196 0.93657696 0.9572004 0.98924863 1.0170004
1.0214951 1.0018634 0.9813568 0.9968968 0.98426664 0.9868847 0.98719 1.0095448
1.0044054 1.0029322 0.9865331 0.9832774 0.9997983 0.9645396 0.99446225 0.9777855

spectral.conv1.bn.bias f4 [24]
00000000: 22c7 3fbd 311d cdbc 461a 94bc b624 06bd
00000010: 5891 4ebd f4a8 e7bc 81d1 f0bb c793 6f3c
00000020: ae79 17bb 04cc cf3c d698 33bb 7c26 babc
00000030: 9468 05bc a048 65bc 14a3 9bbc e7c3 3dbc
00000040: acf5 373c 7255 cdbc cff7 5539 9f5b 86bc
00000050: 25a1 723c 046a 02bd 4551 34bc 4812 b3bb
-0.046820767 -0.025038334 -0.018078934 -0.032749854 -0.05043158 -0.028278805 -0.0073491936 0.014622635
-0.0023113298 0.025365837 -0.002740433 -0.022723429 -0.008142609 -0.013994366 -0.01899866 -0.011582351
0.011228006 -0.025065158 0.00020405579 -0.01640111 0.014808928 -0.031839386 -0.011005704 -0.005464826

spectral.conv1.bn.running_mean f4 [24]
00000000: c22f 9f41 3c11 3ac2 84af 6b42 c1f1 85c1
00000010: 6110 8141 c8fc 0842 c9d3 b641 40ef 2240
00000020: 2236 71c2 e036 68c1 9859 cec1 b2e7 0b42
00000030: e98a d6c1 b192 d8c1 1422 d4c1 5d15 fcc1
00000040: 23f9 65c1 72cc 13c2 797d 25c2 d1e5 ebc2
00000050: c38d 6042 797c fb41 69b8 39c1 1b02 03c3
19.89832 -46.51683 58.921402 -16.743044 16.132998 34.246857 22.85341 2.5458527
-60.302864 -14.513397 -25.793747 34.976265 -26.817827 -27.071627 -26.51664 -31.510431
-14.373324 -36.949654 -41.37253 -117.94886 56.13844 31.435778 -11.607522 -131.00822

spectral.conv1.bn.running_var f4 [24]
00000000: 234f 9b43 d1f9 c644 11f6 2145 d0ee 4843
00000010: 04e9 4b43 4335 5444 1713 c743 14cd 1c42
00000020: 2d1a 2a45 fa18 2a43 3488 0044 c9d8 6644
00000030: 3b23 0844 2c9a 0e44 4fe1 0544 4cc5 4144
00000040: 1857 2943 bc43 8344 02d3 9b44 beb8 2146
00000050: e644 1545 b092 3844 c462 d842 8de7 4646
310.61826 1591.8068 2591.3792 200.93286 203.91022 848.8322 398.14914 39.20027
2721.636 170.09756 514.1282 923.38727 544.5505 570.40894 535.52045 775.08276
169.34021 1050.1167 1246.594 10350.186 2388.3062 738.292 108.1929 12729.888

spectral.conv2.conv.weight f4 [6, 6, 1, 1, 5]
00000000: 2dad 19bd c63d 85bc 3fc1 a83c 3fba 103c
00000010: 488b 4ebd 44e6 d73c 779b 1dbd c9fc 80bb
00000020: 78f4 da3c 8098 973c 971a fd3c 116e 783c
00000030: e936 013d 0c9b 3e3d 3364 1c3d 3834 983b
00000040: 74c1 c63c b8e3 123d a32b 17bd 3d8e 25ba
00000050: a316 d23b 4160 fbba a2f1 1339 ab69 c9bc
00000060: 3995 d03c fd93 45bc a0f2 fb3b 5f97 4a3c
00000070: 7cae 0d3d 8123 90bb d717 68bd 4cc9 713b
00000080: 8e67 113d a3df c63c 4608 09bd 2fb1 38bc
00000090: 4c38 36bc 1532 ff3c 5189 b03c cc32 933c
000000a0: 75a3 563d b648 5e3d a7ac 1d3d 5eef c63c
000000b0: a623 e13c 3422 c73c f254 4f3c 9736 d1bc
000000c0: f18a c3bc e069 4e3c cacb 093c 05f5 1dbd
000000d0: 878c 473c e558 193a 66f6 473c c9cc 4c3d
000000e0: 3b40 8e3d 5d21 293d 4c4e 073b da4a 83bc
000000f0: 9377 773b 7327 083c 6540 043d 97d8 0bbc
00000100: 12b0 c83b 6969 51bb 18b5 033d 4521 db3b
00000110: 307b cc36 7c97 8fbc aea3 a8bc 0ee8 77bc
00000120: addc c1bc 1b1f ec3c 5d4b 54bc 5779 3c3b
00000130: 3616 6cbc bb87 4ebd c37d b0bc 28cd 853c
00000140: 6a11 de3c 1456 e8bc a3a7 d23c 1f8e 8d3b
00000150: cb67 0c3c 37fa f5bc 902a 8d3b 7550 14bd
00000160: 546b 99bc bbc5 8a3c 4566 06bb d2a5 433b
00000170: 5e44 bfbc 54fb 323d f6dc ea3a 575e d13b
00000180: fa88 473c 4f59 02bd 29f0 b83c 4142 edbb
00000190: 0aa2 5b3c 86ee ec3b 1238 b6bc 4bfc a3bb
000001a0: f8b7 e13c ff97 02bd 4541 0039 d391 843d
000001b0: b502 fdbc e58a 19bc c9fa 16bc 4c8a b9bb
000001c0: 5ac4 c4ba 4530 ae3c 043c 27bb 5aa2 d1bc
000001d0: 2a7b 90bc fbca 1bba 61ad 543b 6b5d 293d
000001e0: e0b9 91bb d9ee 56bc 9f38 19bc 8d68 823b
000001f0: 1955 b1bc ff77 25bd 6729 1a3d 421c 363c
00000200: 3e27 113c cfec d1bb 34fa 7d3d f915 ab3c
00000210: bab1 1e3d a0db a7ba 59be 8fbc 7e7b 81bc
00000220: 0ee5 013c 8687 8ebb f1ca 843c 2915 07bc
00000230: 0596 48bc e5d4 0a3c 849f 02bb ea6d 383d
00000240: 1d46 1d3c 898f 5b3c 5222 6e3c 33c3 9f3c
00000250: b2f9 fdbc 99fc 54bc e39b f73c 113d 8bbc
00000260: 8eec d83b add2 2abc da3e 84bb af5d 733d
00000270: ab8b afbc eb8b d6bc ac18 9b3c 67b5 10bd
00000280: 3cfe 013c cdde 10bc 1182 20bb 00a7 5f3c
00000290: 1330 f3bb caa9 e3bc 4e97 48bb c4a1 083d
000002a0: e236 6dbc 7188 bf3b 0264 1b3c df77 85bc
000002b0: 6e03 30bc 7c86 fc3b 60b9 94bc aaa0 04bc
000002c0: f668 40bc b666 9e3c 629d f7ba d912 4f3c
-0.03751867 -0.016264807 0.02059996 0.008833467 -0.050425798 0.026354916 -0.03847834 -0.0039363843
0.0267279 0.018505335 0.030896468 0.015162961 0.031546507 0.046534583 0.038181495 0.004644897
0.024262168 0.0358617 -0.03690685 -0.00063154456 0.00641139 -0.0019178466 0.00014109028 -0.02458652
0.02546178 -0.012059209 0.0076888353 0.012365191 0.03459023 -0.0043987636 -0.05666336 0.0036893664
0.035499148 0.02427656 -0.033455156 -0.011272713 -0.011121821 0.03115181 0.021549853 0.017968558
0.05240198 0.05426856 0.038494732 0.024284061 0.027482819 0.024308302 0.01265453 -0.025538726
-0.023869963 0.012598485 0.0084104035 -0.038563747 0.0121795 0.0005849733 0.012204742 0.049999986
0.06945845 0.041291583 0.0020646034 -0.016026903 0.003776048 0.008310187 0.032287974 -0.008535526
0.006124505 -0.0031953698 0.032155126 0.0066873156 6.0940147e-06 -0.017528288 -0.020585861 -0.01513101
-0.023664797 0.028823426 -0.012957421 0.0028758848 -0.014409592 -0.05042241 -0.021544343 0.016333178
0.027107913 -0.028361358 0.025714701 0.0043199207 0.008569668 -0.030026538 0.0043080524 -0.036209542
-0.018727936 0.016939988 -0.0020507735 0.0029853475 -0.02334803 0.043696716 0.0017918635 0.00638942
0.012178654 -0.031823453 0.022575455 -0.007240564 0.013405332 0.0072305826 -0.022243533 -0.005004441
0.027553543 -0.031883236 0.00012231346 0.06473126 -0.03088508 -0.009371494 -0.009215065 -0.005662238
-0.0015012131 0.021263251 -0.002551795 -0.02559011 -0.017636854 -0.0005943027 0.0032451975 0.041348856
-0.004447207 -0.013118469 -0.009351878 0.0039797486 -0.021647023 -0.04039764 0.03763714 0.011115136
0.008859454 -0.0064064036 0.06200619 0.0208845 0.038743712 -0.0012806542 -0.01754682 -0.015805956
0.007928146 -0.0043496517 0.016210051 -0.008244791 -0.012242799 0.00847361 -0.0019931505 0.045026697
0.009599236 0.013400921 0.01453455 0.019502258 -0.031002853 -0.012999677 0.0302257 -0.016996892
0.0066199964 -0.010426206 -0.004035813 0.059415516 -0.021428904 -0.026189765 0.018932663 -0.03532925
0.007934149 -0.008842182 -0.0024491588 0.013650656 -0.0074215024 -0.027790923 -0.0030607763 0.033357397
-0.014478417 0.0058451225 0.009484293 -0.01629251 -0.010743005 0.0077064615 -0.0181548 -0.008094946
-0.011743775 0.019336086 -0.0018891508 0.012638771

spectral.conv2.conv.bias f4 [6]
00000000: 6fa5 bbbd bdd3 36be 4184 363e 9ff8 93bd
00000010: 347a d03b 9bbb da3b
-0.09162413 -0.17854209 0.17823888 -0.07225155 0.006362224 0.0066751963

spectral.conv2.bn.weight f4 [6]
00000000: be10 7d3f cdbd 7b3f 0716 7c3f e47b 833f
00000010: d936 753f 2734 823f
0.9885367 0.9833649 0.9847111 1.0272183 0.95786816 1.0172166

spectral.conv2.bn.bias f4 [6]
00000000: 7852 3dbd 2c84 6bbc 03bb 883b ce8f 573c
00000010: 53bf 1ebd b84b 1f3c
-0.046221226 -0.014374774 0.004172684 0.013156844 -0.03875668 0.009722643

spectral.conv2.bn.running_mean f4 [6]
00000000: d56c 99bc 6eda 36bd 3652 133e d4ff 60bd
00000010: a72a 503d c30c bb39
-0.018728653 -0.044641905 0.1438683 -0.054931477 0.050821926 0.00035676928

spectral.conv2.bn.running_var f4 [6]
00000000: b63a 143c e1a0 063c cff3 0c3b 7de2 a53a
00000010: 0dfc e33b 9e12 2e3b
0.009047201 0.008217067 0.0021507626 0.0012656 0.006957537 0.002656139

spectral.conv3.conv.weight f4 [12, 12, 1, 1, 5]
00000000: 8405 6abc 45e7 debc c6b7 7abc f14e 1cbd
00000010: 127d b83b 6fbc 943a 18e9 cabc c42e d5bc
00000020: 036a f2bc adad 44bb ccd9 e8bc 8057 5a3c
00000030: abfe bd3c 79d9 92bc 3914 9d3c 7951 393c
00000040: 2bc5 aa3b ea0b 2bbc 4dc1 183d 8b46 423c
00000050: 2a98 37bd d6a2 53bc 9769 cbbc 0cc3 08bc
00000060: a29c 4bbb b91f d7ba 09ed bbbc 7aa1 21bb
00000070: 9854 8dbc 589f cd3c 02c0 12bc 9f42 e13b
00000080: d743 253c 9931 b736 716b 8dbc 6be4 af3c
00000090: 052b 63bc 7dbb 233d 6e54 b6bc 4e04 4a3c
000000a0: 15cf db3c 7018 c0bb 51f6 1c3d 3572 9dbc
000000b0: 586a ee3c 23e5 ddbc dcd7 be3c 380d 9d3c
000000c0: 4b65 e93c 572d 73ba 13f6 81bc e4ea 20bc
000000d0: 65e2 983c e4bf 58bc 5239 093d fcb1 0bbd
000000e0: 4623 24bd 7864 313a e2ae 503c 86f1 343d
000000f0: 087f 80bc 6cfd 5fbc 6187 57bb 5ef1 fabc
00000100: 39e1 e13b 6549 d6bb d5ee 2dbc 96a5 d83c
00000110: ae15 223c d3bd 933c 70a4 a03c 6461 7b3c
00000120: 8b22 7dbc 5157 bbbc b402 82bd 062f 1abc
00000130: 876c 3a3c 6cb2 4437 9c57 8bbc 1f5c 653d
00000140: f551 7ebc 0292 dfbb a840 12bc f83a bfbb
00000150: 3057 673c fef6 ca3c de60 dabc 8f88 dc3b
00000160: a60f 8fbd 2558 c1ba f257 a53b ca42 8ebb
00000170: 0eeb 003d fa8b c03c d962 f6ba 57fd 303c
00000180: 302f 9a3c 8de4 18bd c202 7e3c 63da 24bc
00000190: 5849 d13b a34b c23c 18ed 83bc d67b 14bc
000001a0: 807a 16bd 499f 04bd 7096 d0bb 6a36 1439
000001b0: 07cd 21bc d3a4 913c 5514 16bb 3f59 243d
000001c0: 7850 403d 6c81 5ebc 31e5 993c e4b0 b33c
000001d0: 9460 aabc 0661 703c db3c 6abc e891 0dbc
000001e0: 6a8e a4bb fdf1 e73b 2e02 1c3c f67c 2abd
000001f0: afdf c3bc 337d 76bc 2f6e 4abb 0f0a 01bc
00000200: a063 22bb b5f1 4e3a 43e6 133d f32c 393c
00000210: 1666 d7bc 2a6c 123b ac27 6f3c 7fe4 a83b
00000220: 45b9 37bd c439 443d 787f 8dbc 0e1d 0d3c
00000230: 6db8 7838 0631 243c c621 533c 1ad4 bcbb
00000240: aecd a53c 7de6 bebb 766c aabb 91f5 633d
00000250: e122 a2bc 8a8d b33b 8c4c 5cbc 4b3a 253d
00000260: 69c9 91bb 848b 173d 4926 70bc 038e b7ba
00000270: a090 8a3c 3c73 0c3c 46ba 2c3c d31d c63c
00000280: 1482 623c 5451 b33c c188 d83b e1ea 963b
00000290: aad2 233c 336f e4bc c22d 403b c1d3 24bd
000002a0: 359f 123c c8bb 9b3c 3bbb 09bd 29b4 6e3c
000002b0: 4fd7 9cba 7c10 a63b 27ef cabc 6d95 af3c
000002c0: ea0f 04bd ee12 4bbb 2ae5 01bc 9970 e2bb
000002d0: 715a 913b 75e1 e2bc 5eeb fa3b dd6b 0ebd
000002e0: 313a f0bc 249e 73bc 8dc7 d43a 0218 38bb
000002f0: e73f 9bbc 1d44 b8ba ea1f adbb d5ea 3dbc
00000300: e3f4 9dbb 44fa 013d b689 593c bf41 9fbc
00000310: 73c1 a5bc 99b3 a7bc 3165 733c b84e 383c
00000320: 4a2c 36bc c7c4 9fbc 956f faba 5b89 2c3c
00000330: 8f01 883b 0e09 a5bb d9ce febb 2404 28bd
00000340: d4b6 debc 985d 433c 7e3d 8e39 5454 783c
00000350: 2cf1 4d3c 14b5 f3bc ad87 063c fbe7 febc
00000360: 90a2 b2bb ed01 193c b035 c0bc 150e ff3c
00000370: a311 7c3c 9cc3 0ebd 43b4 0a3c 19af 2a3c
00000380: 87c5 b83c 0122 cabc 4829 46bc db85 b53c
00000390: a20e 423c 2adc bbba a053 353c de87 8abd
000003a0: f78f 89bb 0b7f 71bd f32c a93c cf18 b2bc
000003b0: 3433 f9bb 048f 22bd 52a0 b63c f312 d33c
000003c0: 30cf 8abc 8aea f1bb 0ade 3bbc 8f3e 003d
000003d0: fb6d 21bc 62f0 03bb 9ab2 31bd af4d e23a
000003e0: 4ac9 3bbc d361 e33c a1d1 09bd a5ed 49bb
000003f0: 96bd 14bc e59e 8f3c 7f4b c73c c1ff 57bc
-0.014283542 -0.027209887 -0.015302604 -0.038161222 0.005630144 0.0011347661 -0.02476935 -0.026023276
-0.029591566 -0.0030010745 -0.028424166 0.013326526 0.023192724 -0.017925965 0.019174682 0.0113109285
0.0052114925 -0.010439852 0.03729372 0.011857639 -0.04482285 -0.012917241 -0.024830623 -0.008347284
-0.0031068702 -0.0016412652 -0.022940176 -0.0024662898 -0.017252252 0.025100395 -0.008956911 0.006874397
0.010086975 5.459599e-06 -0.017263146 0.021471223 -0.013865237 0.039973725 -0.022257056 0.012330128
0.026832143 -0.005862288 0.038320843 -0.019219497 0.029103443 -0.0270868 0.02329629 0.019171342
0.028490683 -0.00092764705 -0.015864408 -0.009821627 0.01866264 -0.013229344 0.03350193 -0.034105286
-0.040072702 0.0006766985 0.012737008 0.044175647 -0.015685573 -0.01367126 -0.0032887089 -0.030632671
0.0068933037 -0.006539511 -0.010616024 0.026446145 0.009892864 0.018034851 0.01960966 0.015343044
-0.01545013 -0.022868784 -0.06348172 -0.009410625 0.011378414 1.17240525e-05 -0.017009549 0.055996057
-0.01552247 -0.0068228254 -0.008926548 -0.005835887 0.014119908 0.024775978 -0.026657518 0.0067301462
-0.069854066 -0.0014751 0.0050458843 -0.004341458 0.031474166 0.023504246 -0.001879777 0.010802588
0.018821329 -0.037327338 0.015503587 -0.010061833 0.006386917 0.023717707 -0.016104266 -0.009062728
-0.03673792 -0.03237847 -0.00636559 0.0001413465 -0.0098755425 0.01777879 -0.0022900302 0.040124174
0.04695174 -0.013580661 0.018786045 0.021934934 -0.020798005 0.01467157 -0.014296736 -0.008640744
-0.00502186 0.007078408 0.009522004 -0.04162308 -0.023910372 -0.015044498 -0.0030888428 -0.007875933
-0.002477862 0.00078942935 0.036108267 0.011302221 -0.026293796 0.0022342303 0.014596861 0.005154192
-0.04485442 0.047906652 -0.017272696 0.008612884 5.9299568e-05 0.010021454 0.01288647 -0.005762589
0.020239677 -0.005825816 -0.005200918 0.055654112 -0.019792022 0.0054795193 -0.013445985 0.040338796
-0.004449059 0.036998287 -0.014657565 -0.0014004115 0.016914666 0.008572396 0.010542458 0.024184143
0.013824958 0.021889366 0.006608099 0.0046056365 0.009998957 -0.027885055 0.0029324149 -0.040241007
0.008949091 0.01901044 -0.033625823 0.014569321 -0.0011966022 0.005067883 -0.02477224 0.021433556
-0.03224174 -0.0030986625 -0.007928172 -0.0069103953 0.0044358303 -0.027695397 0.0076574525 -0.034770835
-0.029324623 -0.014869247 0.0016233787 -0.0028090482 -0.01895137 -0.0014058385 -0.0052833455 -0.011591633
-0.0048204525 0.031732813 0.013277462 -0.01944053 -0.020233845 -0.020471381 0.014855669 0.011249237
-0.011118958 -0.01950301 -0.001910674 0.010530795 0.0041505764 -0.00503648 -0.007776123 -0.041019574
-0.027186789 0.01192417 0.00027130166 0.015156824 0.012569707 -0.02974943 0.008211059 -0.031116476
-0.005451508 0.009338838 -0.0234631 0.031134645 0.015385064 -0.034854516 0.008465829 0.010417723
0.022555126 -0.024674417 -0.012094803 0.022158554 0.011844309 -0.0014332582 0.011067301 -0.06764196
-0.00419807 -0.05895905 0.020651316 -0.021740345 -0.007604981 -0.03968717 0.022293244 0.025765872
-0.016944498 -0.0073826956 -0.011466512 0.03130966 -0.009852882 -0.0020132293 -0.04338322 0.0017265583
-0.011461565 0.027756607 -0.033647183 -0.0030811813 -0.009078404 0.017531822 0.024327992 -0.013183535

spectral.conv3.conv.bias f4 [12]
00000000: b0be 113b f92b 8dbc 1be8 b8bc b044 053d
00000010: 3694 223c b189 053c 1b1d cdbd ebb3 fabd
00000020: b6c7 93bc 76ea d33d 1d6f 85bd cbaa 92bd
0.0022238903 -0.017232882 -0.022571614 0.03253621 0.009923032 0.008150504 -0.10015317 -0.12241348
-0.018039566 0.10347454 -0.06515334 -0.071614824

spectral.conv3.bn.weight f4 [12]
00000000: 07ec 7e3f 5dd6 803f 0610 803f c3b6 803f
00000010: efdc 863f f157 813f aecd 813f 5223 7f3f
00000020: 9263 833f 021e 813f 2f6d 843f 680e 7f3f
0.995789 1.0065418 1.000489 1.0055774 1.0536174 1.0104963 1.0140893 0.9966327
1.0264761 1.0087283 1.034582 0.9963136

spectral.conv3.bn.bias f4 [12]
00000000: a2d2 9fbc b1e6 2a3b 63b9 c23b 810d e73b
00000010: dd0f cd3c 7fd8 aebc 70b1 e8bc a55b abbc
00000020: e34c 7b3c d347 b0ba 0d49 363b 5bc0 4e3c
-0.019509617 0.0026077444 0.00594251 0.0070511703 0.025031978 -0.021343468 -0.028404921 -0.020917723
0.015338155 -0.001344914 0.0027814538 0.012619103

spectral.conv3.bn.running_mean f4 [12]
00000000: bfca 1bbd 2c09 07bd 9126 a03a 5f0b b5bd
00000010: 784d 44bd 8bba 593e 37e4 d93c 43f6 85bd
00000020: 024b 8abc a0fc 043d dbd0 e9bd da9a 3bbd
-0.03803515 -0.03296773 0.0012218525 -0.088400595 -0.047925442 0.21262567 0.02659808 -0.06541111
-0.01688147 0.032467484 -0.11416789 -0.045801975

spectral.conv3.bn.running_var f4 [12]
00000000: 74f0 083c 5e16 bf3b fefd 843b 4ad9 6b3c
00000010: e6f2 933b d9e8 2d3d ca6f d73c 6dc0 623c
00000020: 9f16 003c 4494 cd3b 789e f53b c5a5 db3b
0.00835811 0.005831524 0.0040585985 0.0143950675 0.0045150397 0.04245839 0.026298422 0.013839823
0.007817893 0.006273778 0.0074956976 0.006703111

spectral.conv4.conv.weight f4 [12, 18, 1, 1, 5]
00000000: a31f 4bbc d6be 823c 81b6 b83c 2ad7 babc
00000010: c6ee 7eba a5ec 4f3c 3311 51bd 4842 4d3d
00000020: 24f5 2e3d 6f38 28bc 5e62 a83c 1c41 24bc
00000030: 5cc9 073d fac2 ec3c c554 3bbc 48a7 d9bc
00000040: 3380 3cbd 089b 7f3c e478 5dbd 9abd c7bc
00000050: 9cb3 99bc b5a8 323c 2cb3 143c 4529 693b
00000060: d5fb 973c d16d e9bc b96f da3c f9fc 06bc
00000070: 4eea e0bc 76bf d33a 44f9 4fbc 493a c1bc
00000080: ca61 48bb d7ae 473d da6c 00bd 554d 043a
00000090: bdaf 983b 9ef8 9cbb e188 cc3b 203b e3ba
000000a0: f73c b5bc f554 4c3c cdc2 213d 4b34 bcbb
000000b0: 3b5f 7abc 7e95 c03c 9d57 6fbd e785 46bc
000000c0: 4ca4 55bc e0e4 e9bc 1e0a 473c 0ecc eeba
000000d0: 2ee6 203c 8616 81bc 65e4 f5bc 2508 f739
000000e0: ce1d 7cbb d350 7539 6758 bdbc f1c1 bdbc
000000f0: 57cb 5f3b 95bb b83c 18ff 913d f871 a93c
00000100: a0d0 003d 8d89 4dbc 4fac 4f3d 2bf2 86bb
00000110: ceaa 283c f5d5 fb3b 6049 3cbc 35c8 94bb
00000120: edf8 3fbb ca7a d4bc d260 d4bc 9bd9 e3bc
00000130: ee28 ab3c 4be4 113c 55bc acbc e011 003c
00000140: 7f1c d23c 3fb3 7c3b 89bd 7cbc f5ec 233c
00000150: 5467 7e3b f72c be3b e948 ccbc 4a50 fc3c
00000160: e930 c43c 2983 693c 2064 46bd cbee 263c
00000170: b503 ab3c ab66 723c 5f9b 1cbc 9201 f1bc
00000180: 177c 8b3c 1b9a 7abc fffe 3d3b b9ff 903c
00000190: 42db b1bc cad9 cb3b be42 73bc 7228 1d3d
000001a0: 3ba1 1e3c 3726 9f3b cd33 da3c 94b3 9a3b
000001b0: 550e 973c 8ffe 023d 6d21 513b c9bf a83b
000001c0: d067 3f3d e868 e13b 47be 3bbb 26ce 623b
000001d0: 2e89 453d a504 283b a0c8 643b f8d9 ab3c
000001e0: ab62 1abc 2e64 fcbb fe58 acba 4991 153d
000001f0: d9be a33c e54d 5bbb 27ac cbbc bfa0 803b
00000200: 574d 083d 0ce7 9abb 2966 0bbd dacc 9e3b
00000210: 109f 183c 2203 a7bc a3f6 52bb 0933 a63c
00000220: a9cd b03c 5411 623c 5964 c3ba 5c52 32bd
00000230: 0c0e 463c 939e b2bc f7e7 d2bb 2df5 043d
00000240: a456 91bc 926a d13c f009 9c3c 8211 3a39
00000250: 9e3e 263c cb2f 4cbc 242b 253c fa5a 21bc
00000260: ab1a d73c 5871 803b b6da e23c e8cf cabc
00000270: af40 143c eec6 dfbb 3ce8 97bb dc4b ec3b
00000280: d0ed c8bc a593 72bc 9c56 bd3c 3aba 39bc
00000290: c33b 64bb 4321 563c b826 bc3a ff23 34bb
000002a0: f0cc 1e3b b8cc 15bb b65b 1b3d 32bb 8e3c
000002b0: dc25 2b3d a23b 23bc 3bad fd3c d73e 0f3d
000002c0: c18c a4bc 4317 9bbb a613 273c 6b74 423c
000002d0: 50e3 363c f76d 0bbc 4f80 2f3c 8435 d8b9
000002e0: 86c4 853c 6a53 0bbb d8ad bb3b 1377 8e3b
000002f0: 7fa4 ac3c 5d16 85bb f366 b8ba a82f 203d
00000300: bf0d 8ebc 215e 9c3b a666 433d 9e68 84ba
00000310: 8bc6 d339 c48c 7dbb ea28 633b 915a 3e3d
00000320: 52b5 f13b 3575 4cbb 75c4 a0bc 6753 183c
00000330: 86c0 1b3d a59e 86bc 88e5 ca3b dc13 833c
00000340: aef4 bdbb 85e9 aebc bcec adbb e861 d0bc
00000350: 127e 423c 224b 243d 6390 a5bb 38cd c9bb
00000360: 67e9 59ba ead5 a9bc 1f91 d63c 8e1a f33b
00000370: 3124 413d e60f 0f3d 8144 30bc 4faf 473c
00000380: b8ca 083d bf7d 673c b8c8 163d 4c3c 543c
00000390: 98aa bbbc 8d71 0abd 1d2d cf3c 7b22 a43c
000003a0: 83ff fa3c 2438 95ba bb8a 0f3d 1b6c b03c
000003b0: 5aa8 93bc 6123 973c 62b0 063d 65a5 663c
000003c0: 8403 f7bc f219 393d e9f8 41bc 7577 7abb
000003d0: 57c0 033b eb6e 08bc 1aa2 233c c0dd 40bc
000003e0: 3820 a63b 3300 b43c 1626 303c b334 323c
000003f0: 240d d33b e186 11bd 8361 35bc b76f a33c
-0.0123976795 0.015960138 0.022547962 -0.022807676 -0.0009724911 0.012690698 -0.051041793 0.05011204
0.042714253 -0.010267361 0.020554718 -0.010025289 0.033151016 0.028901566 -0.011433785 -0.026569024
-0.046020698 0.015600927 -0.05407037 -0.024382401 -0.018762402 0.010904481 0.009075921 0.0035577577
0.0185527 -0.028494747 0.026664602 -0.008239024 -0.027455475 0.0016155082 -0.012693707 -0.023587363
-0.0030575865 0.048750725 -0.03135381 0.0005046924 0.0046596215 -0.0047903797 0.006241903 -0.0017336346
-0.022123797 0.012471427 0.039492417 -0.0057435385 -0.015281494 0.023508783 -0.058433164 -0.012116886
-0.01303966 -0.028551519 0.012148408 -0.0018218772 0.009820504 -0.01575781 -0.030016134 0.0004711758
-0.0038469913 0.0002339513 -0.023113443 -0.023163768 0.00341483 0.022550384 0.071287334 0.020684227
0.03144896 -0.012545002 0.050701436 -0.004118224 0.010294629 0.007685418 -0.011492103 -0.004540468
-0.0029292658 -0.025937457 -0.025925074 -0.027813723 0.02089354 0.008904527 -0.021085897 0.007816762
0.025648354 0.0038558987 -0.015426048 0.010005225 0.0038818913 0.0058037 -0.02493711 0.030800004
0.023949103 0.014252462 -0.04843533 0.010188769 0.020875791 0.014794986 -0.009558528 -0.029419694
0.017026944 -0.015295531 0.00289911 0.017700063 -0.021710996 0.006221031 -0.014847456 0.03836865
0.009681995 0.0048568505 0.026636029 0.0047211144 0.018439451 0.031981047 0.0031910792 0.0051498157
0.046729863 0.006878961 -0.002864735 0.0034607737 0.048226528 0.0025637534 0.003490962 0.020977959
-0.009422938 -0.007702372 -0.001314908 0.036515508 0.019988464 -0.0033463177 -0.024862362 0.0039254124
0.033276882 -0.00472725 -0.034032974 0.0048461976 0.009315267 -0.020387236 -0.0032190464 0.020288007
0.021582441 0.013798077 -0.0014907225 -0.043535575 0.01208831 -0.02180413 -0.006436344 0.03246038
-0.017741509 0.025563512 0.019047707 0.00017744864 0.010146765 -0.012462567 0.010081086 -0.009848351
0.026257833 0.0039197616 0.02769218 -0.02475734 0.009048625 -0.006829134 -0.004635839 0.0072111916
-0.02452746 -0.014805709 0.023112588 -0.011335904 -0.003482566 0.013069454 0.0014354801 -0.0027487276
0.002423104 -0.0022857618 0.03792926 0.017423246 0.041784152 -0.009962948 0.030966392 0.034972038
-0.020086648 -0.0047329976 0.010197556 0.0118685765 0.011162594 -0.008510104 0.0107117435 -0.00041238603
0.016329061 -0.0021259435 0.005727511 0.004347691 0.021074532 -0.004061504 -0.0014068767 0.03910795
-0.017340539 0.004771963 0.047705315 -0.0010101979 0.00040392982 -0.003868864 0.0034661838 0.04647309
0.0073763514 -0.003119779 -0.019624928 0.009297228 0.0380254 -0.01643307 0.006191913 0.01600068
-0.0057969904 -0.021351585 -0.005307762 -0.02543731 0.011870878 0.040110715 -0.0050526126 -0.006158497
-0.0008312673 -0.020731885 0.026192246 0.007418937 0.047153655 0.03492727 -0.01075852 0.012187793
0.033396453 0.014129101 0.036812514 0.012953829 -0.022908494 -0.033799697 0.025290066 0.020035973
0.030639416 -0.0011384529 0.035044413 0.021535924 -0.018024612 0.018449487 0.032883056 0.014077519
-0.030153044 0.04519076 -0.01183913 -0.0038218175 0.0020103657 -0.008327226 0.0099873785 -0.011771619
0.0050697587 0.021972751 0.010751268 0.010876822 0.0064407755 -0.03552902 -0.011070612 0.01995073

spectral.conv4.conv.bias f4 [12]
00000000: 08f6 b1bd 3f18 49bc 85b9 2f3d e2ca 29bc
00000010: e78c 8fbc e168 ac3c d98a ae3b e730 66bd
00000020: 5e90 a73c 61d5 b4bd b589 d3bd 03e7 9d3d
-0.08689505 -0.012273847 0.042901535 -0.010363312 -0.017523242 0.021046104 0.0053266105 -0.05619898
0.020454582 -0.08829761 -0.10329 0.077100776

spectral.conv4.bn.weight f4 [12]
00000000: ec8e 793f 2e7a 7f3f 83fa 823f b3e2 7f3f
00000010: 54f6 843f 86e9 843f 9b38 7e3f bddf 823f
00000020: 53eb 813f 03d9 823f 16e1 893f 5dfc 803f
0.97483706 0.99795806 1.02327 0.9995529 1.0387673 1.0383766 0.99305123 1.022453
1.014994 1.0222477 1.0771816 1.0077015

spectral.conv4.bn.bias f4 [12]
00000000: a9ca 11bd e71d 013b 0760 ddbb 957e 993b
00000010: 61c7 353d 3b9e dd3b dd8a d4bb 6e11 3c3c
00000020: 2fb0 873b a318 7a3b 05d9 3f3d 4e4a afbb
-0.035593662 0.001970166 -0.006755832 0.004684279 0.044379596 0.0067632473 -0.0064862804 0.011478765
0.004140876 0.0038161657 0.046837825 -0.005349434

spectral.conv4.bn.running_mean f4 [12]
00000000: f917 d0bd a695 263e fa93 723e 680e 54be
00000010: 17fd 47bd 58d7 debd ecf6 22be fbd5 59bd
00000020: 8e5e 993d d384 26be 1aa5 96be 1be1 c83e
-0.101608224 0.16268024 0.23689261 -0.2070862 -0.04882535 -0.10880917 -0.15914506 -0.053182583
0.07488738 -0.16261606 -0.29422837 0.39234242

spectral.conv4.bn.running_var f4 [12]
00000000: 5031 133d e027 c23c b2e4 b23c d2d8 e33c
00000010: 1981 4c3c fb79 d63c d71b 0f3d 4c42 ed3c
00000020: 3b23 c63c 5d53 9a3c 2e47 163d 4e3f fc3c
0.0359357 0.023700655 0.021837566 0.027813349 0.012481951 0.026181212 0.03493866 0.028962277
0.024186721 0.018838579 0.036688976 0.030791905

spectral.conv5.conv.weight f4 [24, 36, 1, 1, 49]
00000000: 3168 69bc 907a aebb c380 4e3d 53dc e1bc
00000010: 4b69 20bd a4f3 3b3c 7098 f7bc 928a c33c
00000020: 17d8 023c 0f3c 02bb 1632 8fbc 93b9 b83c
00000030: e436 913c abf3 c43c 2fd6 a33c fa7b 3e3b
00000040: da5a 5b3c 6c3e ea3c 290f ee3c 1772 29bb
00000050: 989b 543c ffd0 c5bb 28b2 e0bb d051 1a3a
00000060: ead8 993c e6c7 213c 913c 563c b9b3 96bb
00000070: 825a fabb 5a32 e53b 6c75 ebbc 1851 34bc
00000080: 524e d0bc 2aaf 16bd c5bc cf39 ad98 3e3c
00000090: fab2 74bc cc2e 9ebc 76fb 30bc 713b 76bd
000000a0: 3b9d 30bc 1138 4438 05b3 2dbc 8f69 d3bc
000000b0: b8ff 27bd b5dd 04bb 98aa ff3b 7ce9 3c3b
000000c0: 8c40 5a3b ff6a 55bc 2f7f c23c 9bb7 403b
000000d0: bbe9 b3bc fde5 79bc 27e3 813a 8531 b4bb
000000e0: 29c5 cb3c f66e 77bc 8ff4 a2bb 624c 93bc
000000f0: 2908 81bc 0dfe 35bc 544c 29bb 8e17 73bb
00000100: d9f5 f4ba edb1 44bc afd7 f0bc 2b6a 3abc
00000110: 30ef fbbc c9bc a8bc df31 27bd 9432 063c
00000120: 665c aebb 5733 48bd d12d dabc 2f71 60bc
00000130: 56fd ddbb 6db4 ddbb 54e0 aa3c bf66 1c3c
00000140: fecd b6bb 457f c3bc 5b28 6e3c 2f31 0ebc
00000150: 3441 523c fa28 5cbc 65a6 2b3c 5023 c4bc
00000160: ab51 05bb 101c 98bc 8183 38bd fd3f 42bb
00000170: 13fd b53a 3a0c 5e3d c779 d2bc 2160 123d
00000180: 0fdb 253d cc1b 2e3b bb7f 153d 17af dbbc
00000190: 5f1a 173d f519 27bd 13eb 4ebc cd31 613b
000001a0: 793d 89b9 4c85 6c3b 9f11 c73c a077 adbc
000001b0: aef5 a1bc 4376 703c 168d c93c 921b be3c
000001c0: 9793 b73a 8208 dfba 539e 3abc 491a 173b
000001d0: 63cf 583c f85e 253d 332c 1e3c eb8f 473c
000001e0: 01d7 c93b 741b 443b ab33 aeba 2387 3c3c
000001f0: a863 10bd 3c50 f93b 5875 553b 1ce8 86bc
00000200: bd11 fd3b 17dc c9bc 79fa e73c a897 e7bc
00000210: 49fe 613c dc8a af3b 5f53 c1bc 3928 abbb
00000220: 23ea 31bd 3dd7 07bd e893 bcbc 99b8 e93c
00000230: 4a3b c33b 72a7 9c3c a0a5 55bb 4e0f 323c
00000240: 0047 493a 1fdb b7bb d495 14bd 7d71 19bd
00000250: b977 943a 8b4e 1dbd ba12 523b 20c5 363c
00000260: 91e1 1fbc 5d06 afbb d575 67bc cd28 81ba
00000270: 2f62 2abc a6e5 983b fc9a 823b b3c1 76bb
00000280: 6f06 a23c 5816 22bd 4a98 dc3c 4ed2 18bc
00000290: 1ee1 efbc f4e4 6ebb ac24 20bd 43cb a0bc
000002a0: f52b 6f3c 0527 a33a 7d97 aebc 18a6 3dbb
000002b0: 31c1 f43b aeef b1bb fda5 e6bc 8010 76bc
000002c0: 1438 07bc 2473 cdbc 98b5 a13c 8ca1 95bc
000002d0: 8fb8 803c f489 7ebc a8ff 75bd d0a3 94bc
000002e0: 571a d93c 36f4 03bb e574 03bd 6421 103c
000002f0: 1a66 15bd 3578 473c 71db 223c e143 9dbc
00000300: 79cd ac3b c365 b3bc c59f da3b 5745 b8bc
00000310: 0c6a 793c e35c 01bc 9591 0dbd 5c6e 28bc
00000320: 73c7 83bc 5500 c83c 4d4b 5fbc ff06 2dbc
00000330: 4c1e 5abc 680f 57bc ba79 cbbc 2871 d33b
00000340: ad4e ad3c efd4 063c a4a4 80bc ba60 313c
00000350: ccc5 f03b 96ae aebc 4827 acbb 584f 6a3c
00000360: 9163 1a3b 32c8 c03a 7bab 523c f890 143c
00000370: 1ab2 323c 3049 a53c dac1 1b3c 9e98 523b
00000380: ec99 37bb 08d0 44bc 0611 82bc c4a2 2cbd
00000390: 594d 9b3c df4b 883c 2c5a 02bd a230 d33c
000003a0: d213 22bc be55 a0bc 0f75 d53c f3db c6bc
000003b0: 9f2a 2fbc 9fae 6ebd 8724 4dbc 13dd e13c
000003c0: 8f2e 06bc 73af b73c 5cad 533b fbb9 cfba
000003d0: a886 42bc 112d 16bc 81a9 8cbc 3730 dcbc
000003e0: f630 b7bc a4d8 7c3b a123 08bc ca75 96bc
000003f0: 629d 2bbd a3bc ffb8 7b27 443b 8515 273d
-0.014246033 -0.005324669 0.050415765 -0.02757088 -0.039162915 0.011471663 -0.030224055 0.023869786
0.00798609 -0.0019872223 -0.017479938 0.022549426 0.01772637 0.024041971 0.019999592 0.0029065595
0.01338836 0.028594218 0.029059963 -0.0025855356 0.01297655 -0.006036877 -0.0068571754 0.0005886825
0.01878019 0.00987432 0.013075964 -0.0045990613 -0.007640184 0.0069945278 -0.028742515 -0.011005662
-0.025427971 -0.036788143 0.0003962276 0.01163308 -0.014935249 -0.019309424 -0.01080214 -0.06011528
-0.010779674 4.6782257e-05 -0.010601764 -0.02580717 -0.041015357 -0.002027375 0.007802319 0.002882569
0.0033302633 -0.013025998 0.023742286 0.0029406312 -0.021962037 -0.015252587 0.0009909616 -0.0054990673
0.024874287 -0.015102139 -0.0049730013 -0.017980758 -0.015750961 -0.011107934 -0.0025832849 -0.0037092897
-0.0018688991 -0.012005311 -0.029399721 -0.0113778515 -0.030753702 -0.020597832 -0.040819045 0.00819077
-0.0053210733 -0.048877086 -0.026633175 -0.01369886 -0.0067745848 -0.006765893 0.020858921 0.009545981
-0.0055787554 -0.023864398 0.014535989 -0.0086787185 0.012832928 -0.013437504 0.010476683 -0.02394262
-0.0020342867 -0.018568069 -0.045047287 -0.002964019 0.0013884626 0.05421088 -0.025692834 0.035736207
0.040492114 0.0026566861 0.036498766 -0.026816888 0.036890384 -0.04079624 -0.012629288 0.003436196
-0.00026176477 0.0036090193 0.024300395 -0.021175206 -0.01977047 0.014676633 0.024603408 0.023206506
0.0014005777 -0.0017016085 -0.0113902865 0.0023056439 0.013233039 0.040373772 0.009654093 0.012180309
0.0061596637 0.002992359 -0.0013290545 0.0115068285 -0.03525129 0.0076084416 0.0032571163 -0.0164681
0.007723062 -0.02464108 0.028317677 -0.028270558 0.013793536 0.0053571295 -0.023599325 -0.005223301
-0.04343618 -0.03316425 -0.023019746 0.028530406 0.0059579955 0.019122813 -0.003259994 0.010867907
0.00076781213 -0.005610838 -0.0362757 -0.037461746 0.0011327184 -0.038404983 0.003205462 0.011155397
-0.009758369 -0.0053413347 -0.014127214 -0.0009854079 -0.010399385 0.004666048 0.0039857607 -0.0037652075
0.019778458 -0.03957209 0.026928086 -0.009327484 -0.029282149 -0.0036452385 -0.039097473 -0.019628173
0.0145978825 0.0012447542 -0.02131247 -0.002893811 0.0074693193 -0.0054301834 -0.028155321 -0.015018582
-0.008253116 -0.025079317 0.019739911 -0.018265508 0.015713004 -0.01553582 -0.060058266 -0.018144518
0.026501818 -0.0020134575 -0.0320939 0.008797023 -0.036474325 0.012174656 0.009940014 -0.019197406
0.0052735177 -0.02189911 0.006671878 -0.022494001 0.015223037 -0.007895681 -0.034562666 -0.010280218
-0.016086316 0.02441422 -0.013628793 -0.01056075 -0.013312887 -0.013126232 -0.024838317 0.0064526983
0.02115568 0.008229478 -0.015703507 0.010826284 0.007347798 -0.021323483 -0.005253706 0.014301144
0.0023557881 0.00147081 0.012858267 0.009067766 0.0109067205 0.0201765 0.009506667 0.0032134424
-0.0028015329 -0.012012489 -0.015877258 -0.042147413 0.01895778 0.01663774 -0.031824276 0.025780026
-0.009892421 -0.019572135 0.026056794 -0.024274802 -0.010691314 -0.058272 -0.012520916 0.027571237
-0.008189811 0.022422528 0.0032299375 -0.0015848273 -0.011872925 -0.009166018 -0.01717067 -0.02687846
-0.022362214 0.0038581276 -0.008309276 -0.018366713 -0.04189814 -0.00012194484 0.0029930759 0.040792007

spectral.conv5.conv.bias f4 [24]
00000000: ef55 9c3c 8a04 cdbc dac1 423c a174 bdbb
00000010: 7116 18bc fd36 25bc c7e9 cabc 630f b7bb
00000020: a7c5 a13c 0283 983c 96c1 8d3b c8e4 1bbc
00000030: af85 9bbc 75b7 f23a 1bfb fd3b eebc 053b
00000040: 8471 463c be92 55bc a933 bcbc 40b0 a9bc
00000050: 60c2 c23c 2a6c 633c 46a9 9c3c f3f7 70bc
0.019083945 -0.025026578 0.011887038 -0.0057817255 -0.009282694 -0.010083911 -0.024769677 -0.005586551
0.019747568 0.018617157 0.0043260558 -0.009514995 -0.018984644 0.0018517809 0.0077508814 0.00204068
0.012112025 -0.013035474 -0.022973852 -0.020713925 0.023774326 0.013880769 0.019123685 -0.014707553

spectral.conv5.bn.weight f4 [24]
00000000: 110e 663f 18d1 6b3f a1fb 813f 16ad 853f
00000010: f9c3 803f 91fe 6e3f 4aab 7c3f 4ff8 723f
00000020: 417b 5f3f 0cd2 703f a06f 703f 6063 773f
00000030: 8a6f 643f 2b2f 7e3f 4dd1 7a3f 8a32 643f
00000040: a6d0 6f3f 299e 6c3f b5a2 543f 75a7 773f
00000050: b52b 763f 57b8 7f3f e6b0 753f ae2d 7d3f
0.89865214 0.92115927 1.0154916 1.0443447 1.0059806 0.9335719 0.98698866 0.9491014
0.87297446 0.94070506 0.93920326 0.9663601 0.89232695 0.9929072 0.9797562 0.89139616
0.9367775 0.92428833 0.8306077 0.96739894 0.9616044 0.99890655 0.9597305 0.98897827

spectral.conv5.bn.bias f4 [24]
00000000: 252c afbd f195 c0bc 7fd9 4cbc 1046 edbc
00000010: 5786 87bd 19b4 07bd 0ee2 24bb 8f4e 25bd
00000020: 055a 92bd 45bf e7bc 442e 7cbd 016f 78bd
00000030: f22b a8bd f84e 50bc e3f9 89bc 626c 82bd
00000040: c1a5 52bd a8ce e6bc 6b03 ddbd 296f 2dbd
00000050: 0f13 06bd 9f75 d7bc fb1a 6ebc 7b12 dabc
-0.08553342 -0.023508998 -0.012503027 -0.028964072 -0.0661742 -0.03313074 -0.0025159153 -0.040358122
-0.07146076 -0.028289447 -0.06156756 -0.060652737 -0.08211507 -0.01271414 -0.016842788 -0.06368329
-0.051427606 -0.028174713 -0.107916676 -0.04234234 -0.03273302 -0.026301203 -0.0145328 -0.02662014

spectral.conv5.bn.running_mean f4 [24]
00000000: 1399 bfbf 8cd0 dbbf 2a61 f5bf 7d5d bcbf
00000010: 8548 403f 38dd 78bf 5517 f6bf d8b7 06c0
00000020: f030 d6be 6359 c5bf 6f2b c3bf 2f1e d7bf
00000030: 1e8f bdbf bfdb cdbf 776e 81bd 674b fbbf
00000040: 3de8 e9bf 7fc5 49bf a804 d8bf a30b 7abe
00000050: 0140 99bf 87ca e5be 3a5f 47bf ea60 21c0
-1.496859 -1.7173018 -1.9170277 -1.471603 0.75110656 -0.97212553 -1.922587 -2.104971
-0.4183421 -1.5417904 -1.524763 -1.6806086 -1.4809301 -1.6082686 -0.063198976 -1.9632386
-1.8273998 -0.7881698 -1.6876421 -0.24418502 -1.1972657 -0.4488108 -0.7787968 -2.5215402

spectral.conv5.bn.running_var f4 [24]
00000000: 5cb7 b23f 5bc0 c740 6807 bb40 4aca 6440
00000010: 03c1 1540 ca48 1040 d9f3 2640 f340 8840
00000020: 925b e53f 64c7 8f40 b1cb 0640 8588 4b40
00000030: 51f6 9040 4673 2c3f bf93 4740 3a18 9740
00000040: b388 9840 8793 7540 3d5f 1a40 b3f4 d23f
00000050: 6300 c93f a012 6f40 76d5 683f 5f88 f140
1.3962207 6.242231 5.844654 3.5748467 2.3399055 2.2544427 2.6086333 4.2579284
1.791857 4.4930897 2.1061823 3.1802075 4.530068 0.67363393 3.1183927 4.7217073
4.766687 3.8371294 2.412063 1.6480926 1.5703243 3.7355118 0.90950716 7.547897

spectral.bn.weight f4 [24]
00000000: 4fa4 8e3f 765d 893f 9962 8c3f f10a 8b3f
00000010: 33b8 903f 8ed2 8f3f b813 883f 66ae 903f
00000020: 0a23 8c3f 502d 873f 0367 893f c7f5 8b3f
00000030: d5f8 913f 9ea6 893f 0542 883f 623c 963f
00000040: 2c5e 913f a868 883f 3108 963f 8236 8a3f
00000050: b74e 8a3f a39c 893f ea4f 893f b958 8e3f
1.1143893 1.0731647 1.096759 1.0862714 1.1306213 1.1236131 1.0631018 1.1303222
1.0948193 1.0560703 1.0734562 1.093438 1.1404063 1.0753973 1.0645148 1.1737177
1.1356864 1.0656939 1.172125 1.0797884 1.0805272 1.0750927 1.0727513 1.1120826

spectral.bn.bias f4 [24]
00000000: 4108 d23d 9365 023e 0d7c 543e 28d0 233e
00000010: e01e 513e cf41 413e ed05 033e 2369 3e3e
00000020: 80d4 023e a7e5 b53d 2dac 093e 9add 323e
00000030: f258 573e b5c7 3b3e 1738 2e3e 4306 463e
00000040: f6c0 213e 6d29 0f3e 2b97 503e aa35 213e
00000050: d81a 2b3e e4aa 373e 2693 db3d 14ac 573e
0.102554806 0.1273406 0.20750447 0.15997374 0.20421934 0.1887276 0.1279523 0.18594794
0.12776375 0.08881693 0.13444586 0.17467347 0.21030024 0.18337901 0.17013584 0.19338326
0.15796265 0.13980646 0.20370166 0.15743127 0.16709459 0.17936283 0.10721426 0.21061736

spectral.bn.running_mean f4 [24]
00000000: 00ef 7e3f bad9 8d3f 323b 923f d871 833f
00000010: 71c7 823f 6380 843f d24d a03f 5280 8e3f
00000020: 177b 843f 11cf 923f 16a6 8c3f c0cf 8d3f
00000030: aab8 793f 0afb 9d3f bdb9 8a3f 7bac 823f
00000040: b1b6 873f 2b8e 963f 73cb 7c3f 1d45 8e3f
00000050: a70c 903f ea90 933f 3e6b 943f a956 763f
0.99583435 1.108207 1.1424315 1.0269117 1.0217115 1.035168 1.2523749 1.113291
1.0350064 1.1469442 1.0988185 1.1079025 0.975474 1.2342236 1.0837933 1.0208887
1.0602628 1.1762136 0.9874794 1.1114842 1.1253861 1.1528599 1.1595228 0.9622598

spectral.bn.running_var f4 [24]
00000000: 653b 5e40 f97c 1f40 ae2b 4940 d546 3c40
00000010: 8dd0 6e40 1c47 4940 9262 5340 5956 3340
00000020: 153d 5a40 1d14 3b40 88bb 2940 991e 3840
00000030: c20e 2640 fbf2 5e40 2826 8840 87df 1f40
00000040: f1a7 6340 807f 3940 140c 4540 e0f9 8640
00000050: deb0 3240 f626 5840 63c9 9b40 3020 1640
3.4723752 2.4920027 3.143291 2.9418232 3.731479 3.1449652 3.3028913 2.8021452
3.4099782 2.9231026 2.652071 2.8768675 2.5946507 3.4835804 4.2546577 2.498018
3.5571253 2.898407 3.0788622 4.2180023 2.792045 3.377378 4.8683333 2.3457146

spatial.conv1.conv.weight f4 [24, 1, 1, 1, 102]
00000000: 43b5 7b3d 390e fb3c ae29 e03c e2a3 843c
00000010: e94e 183d c539 dc3c 45e0 c73c 4ef7 333c
00000020: 47d6 c03c 7906 433c 8786 453d 6f8c 9b3c
00000030: 7d83 31bb 5487 02bd ffe6 943c 80b8 6c3a
00000040: 90d7 003d 17e7 963c 5f9f 98bc 1ea6 963c
00000050: 6064 a4bb 5cf0 5d3d 3c55 49bd 58c0 83bc
00000060: 0816 8abd 6688 75bd 685e 03bc 3671 e5bc
00000070: 383e 8abd 1ff5 70bd 7bdd b6bc 7081 a6bd
00000080: 87cd 50bd bbc5 3fbd 6dfd 8ebc 96b8 1cbd
00000090: 3745 f3ba b21d 1b3c d334 3e3c dc60 9ebc
000000a0: 6f32 9b3c dcff 793c bf6e c9bc c589 4f3c
000000b0: bd96 4abb f880 123c a091 963c 723a 2e3c
000000c0: 4765 af3c 59f1 2e3c 6164 b3bc e3e6 263d
000000d0: 518e ec3c 0ca5 0e3c 0e9e b8ba 1933 81bb
000000e0: 02ac 7dbc fe28 a83c 1ad0 b9bb 1685 e7bb
000000f0: fb14 4f3c ac35 31bd 156a 913b d9f0 8cbb
00000100: 90f6 3cbd 75df 96bc 73bb 8dbc 31a1 0bbd
00000110: 6502 67bb 981b 08bd 33f0 39bd 42a9 8c3c
00000120: 301a 4bbd 4887 903a 0723 fbbc f5f9 53bb
00000130: 0a3b ae3c b2f0 c4bc 7c8a 01bb 4872 683c
00000140: 922a 063d 1887 7d3b 3071 7e3b 2ae4 bbbb
00000150: b7d8 203c 5a4c 513c 7aad 5dbd 513d 97ba
00000160: e0be 3ebc 93b8 4ebb b31a 8d3c f465 da3c
00000170: 5933 003c 7798 033d 78d3 c73b c824 173c
00000180: c83c 79bc a1a3 03bc 7f93 08bd 1aab febb
00000190: 76f9 aabc 13e8 093d bfd7 58bc 96f6 ac39
000001a0: 2545 f43b 103d 46bc bd8d 04bd 0fbf 15bc
000001b0: da0e 7cbc b9ec 9ebc 49a7 c83c c6d9 70bc
000001c0: c6fe c0bb 418e 93bc 50dd 293d 08c9 bfbb
000001d0: 4c6a 04bc b0f1 a73b cbbb 453c 5e1f ea3c
000001e0: 2320 1fbc 5094 993b 01d7 b6bc 4dbf 063d
000001f0: 284a 033d fc1e 06bd a035 5c3c 0689 353c
00000200: fb95 183c fa1c 9c3c c806 353d a549 d93c
00000210: 048e 323c cc78 a73c 687a e73c efce 2e3b
00000220: ece1 1f3c d50d 2b3d bb7f 193c 3835 353c
00000230: 9460 5f3d 2ada ef3c e938 673d 1362 f53c
00000240: e7fb 07b9 9668 e7bb f187 8e3c 794b d4bc
00000250: 6f97 d4bb 6e96 0e3c ee23 54bb ac2c 4b3d
00000260: bba7 b13c 51de 31bc d048 fb3a 5634 003d
00000270: a999 88bc 7725 203d fbe1 45bc f931 d9bc
00000280: 72d7 f83b 9a85 b0bc 7326 28bd 7146 93bd
00000290: e37a d33b a892 2abb 3238 25bb 81af e3bc
000002a0: 5221 d8bc b4ef 58bd 15f9 02bc 5303 1bbd
000002b0: 1002 a3bc c3c5 98bc d381 a5bc c152 d5bc
000002c0: 0e69 e6bc ffde 8fbc c0ec 03bd 35fd 3bbd
000002d0: 8cdf b2bb b860 58bc bcb5 07bb 50e3 03bd
000002e0: 283b 11bd 24a9 edbb 1ea1 a53c 7584 2dbb
000002f0: d701 a1bd daf5 69bc 6ec0 9c3c ff64 163d
00000300: cee4 9b3c c7c7 63bc ec61 923c 12c5 31bc
00000310: 4c13 e0bc 8818 be3c baa2 1a3c 1d2f 583b
00000320: a158 ef3c 2f5a 923b b628 903c 3d65 b1bc
00000330: 3b4a a3bc ba7a 1b3c 459d 0a3d 770b bdba
00000340: cd3b d5bc cefd 4abc f52f 8839 a19c 75bc
00000350: 376c 30bc ca7c a33c fc0e 0cbb 83fb a1bc
00000360: ff3e 9ebc f4bf 963a ef07 66bc 7297 ecbc
00000370: a7c8 7c3c ba6f c73b 1396 8fbc 537c 03bc
00000380: ceaf babc e189 6d3c 2169 d63c de01 213c
00000390: e7cc c23c ae08 0dbc f798 a63d 1b5b d03c
000003a0: 1497 923d 46f8 043d 6111 563b 587e 023d
000003b0: ccef 033d 3eff 6c3c 6a5f 363d 224f 473c
000003c0: 9a0f 1c3c b81b ec3c 1d68 5bbc 55f2 cfbc
000003d0: 3897 853d 087d 44bc 8f5e 3c3b 8cda 503c
000003e0: 6c4c de3c 0d6c 38bc bcb5 aa3c c6da 173c
000003f0: 08ea 0cbb 59ca 89bc 16e9 9fbc d399 55bb
0.06145216 0.03064643 0.027363624 0.016191427 0.03718463 0.026883015 0.024398932 0.010984255
0.023539675 0.011903399 0.048224 0.018987862 -0.002708643 -0.03186734 0.018176554 0.0009030178
0.031455576 0.01842074 -0.018630682 0.018389758 -0.0050168484 0.054184303 -0.04915355 -0.016082928
-0.067424834 -0.059944533 -0.008018114 -0.028008085 -0.067501485 -0.058827516 -0.022322407 -0.08130157
-0.050977256 -0.04681943 -0.017454827 -0.038261972 -0.0018560056 0.009467529 0.011609274 -0.019333296
0.018944947 0.015258756 -0.02458894 0.012667124 -0.00309126 0.008941881 0.018379986 0.010634052
0.021410597 0.010677659 -0.02189845 0.040747534 0.028876456 0.008706342 -0.001408519 -0.003942859
-0.015482904 0.02052736 -0.0056705596 -0.0070654256 0.0126392795 -0.043264076 0.004437695 -0.004301172
-0.046133578 -0.0184171 -0.017301297 -0.03408927 -0.003524923 -0.03322944 -0.045395087 0.017170552
-0.04958552 0.0011026645 -0.03065635 -0.003234503 0.021268386 -0.024040554 -0.001976638 0.014187403
0.032755442 0.0038685258 0.003882479 -0.0057339864 0.009817294 0.012774551 -0.05412052 -0.001153866
-0.011642188 -0.003154312 0.017224645 0.026659943 0.007824742 0.032127824 0.006098207 0.009225078
-0.015212245 -0.008034618 -0.03334379 -0.0077718617 -0.020870905 0.03366859 -0.013235032 0.00032990117
0.0074545317 -0.012099519 -0.032361735 -0.00913979 -0.0153844 -0.019399988 0.02449383 -0.014700359
-0.0058897464 -0.018012168 0.041470826 -0.005852822 -0.008081984 0.005125247 0.012068699 0.02857941
-0.009712252 0.0046868697 -0.022319319 0.032897282 0.032053143 -0.032744393 0.01344052 0.011080032
0.009313102 0.019056786 0.04419592 0.026524374 0.010898117 0.020443343 0.02825661 0.0026673635
0.009758454 0.041761238 0.009368832 0.011060052 0.054535463 0.029278833 0.056450758 0.029953992
-0.00012968444 -0.007062028 0.017398806 -0.025914894 -0.006487779 0.008702857 -0.0032370049 0.04960315
0.021686425 -0.010856227 0.001917148 0.03129991 -0.016674833 0.03909823 -0.012077804 -0.026513087
0.0075940425 -0.021548081 -0.041052293 -0.0719117 0.006453858 -0.0026027355 -0.0025210497 -0.027793648
-0.026383076 -0.052962974 -0.007993956 -0.037844967 -0.019898444 -0.018648988 -0.020203507 -0.026040437
-0.028126266 -0.017562388 -0.032208204 -0.045895774 -0.005458778 -0.013206653 -0.0020707687 -0.032199204
-0.035456806 -0.007252829 0.020218428 -0.0026476656 -0.07861679 -0.014279807 0.019134726 0.03671741
0.019030001 -0.013902611 0.017868958 -0.010850208 -0.027352951 0.023205057 0.009438211 0.0032987066
0.029217066 0.004466317 0.017597537 -0.02165472 -0.019932857 0.0094897095 0.03384139 -0.0014422972
-0.026029492 -0.012389613 0.00025975672 -0.0149909565 -0.010767988 0.019956965 -0.0021371236 -0.01977325
-0.019317148 0.0011501298 -0.014039977 -0.028880809 0.015428699 0.006086317 -0.017527616 -0.008025247
-0.022788908 0.014498205 0.026173176 0.009827105 0.023779346 -0.008608026 0.081346445 0.025434067
0.07157722 0.032463335 0.0032664167 0.031858772 0.03221111 0.014465151 0.044524588 0.012164863
0.009525204 0.028821811 -0.013391522 -0.025384108 0.06522983 -0.0119927 0.0028742885 0.012747418
0.02713605 -0.01125623 0.02083861 0.009268468 -0.0021501798 -0.01682012 -0.019520324 -0.0032592907

spatial.conv1.conv.bias f4 [24]
00000000: e4e4 663d dd0f 8d3d 16f9 0d3d 737b eabc
00000010: 17b0 4fbd 1a05 473d cbc5 87bd 2321 0c3c
00000020: 5c62 eb3c fcd6 e93c a48c 743d 9f4d 58bd
00000030: d661 c6bd e9a8 ee3b 3fe5 313c 0439 a5bd
00000040: 6b88 b7bd fe61 71bd 0702 a3bb 5580 e13c
00000050: b3a1 0ebd ca60 ebbc 2798 0ebd 576e 32bd
0.05637063 0.06887791 0.034661375 -0.028623318 -0.05070504 0.04858885 -0.06629523 0.008552822
0.028733425 0.028544895 0.059704438 -0.0528084 -0.096866295 0.0072833193 0.010857879 -0.080675155
-0.089615665 -0.058931343 -0.004974607 0.027527014 -0.034822177 -0.028732676 -0.034813073 -0.04356226

spatial.conv1.bn.weight f4 [24]
00000000: e6c6 813f e907 833f f01a 803f 5921 7d3f
00000010: 8c38 843f 25d5 7e3f 1c1b 7d3f e8e5 783f
00000020: c325 813f 9ce2 813f 4364 7d3f 29b8 803f
00000030: 9093 773f e9bd 813f 7a15 843f 4f21 833f
00000040: b7b1 7c3f 4330 813f af8e 813f 0707 793f
00000050: a22e 823f 23b1 803f 1af8 813f 08e6 803f
1.0138824 1.0236789 1.0008221 0.9887901 1.0329757 0.9954398 0.9886949 0.9722581
1.0089649 1.0147281 0.9898111 1.0056201 0.9670954 1.0136081 1.0319054 1.024454
0.9870867 1.0092853 1.0121669 0.9727635 1.0170481 1.0054058 1.015384 1.00702

spatial.conv1.bn.bias f4 [24]
00000000: 375b 98bb 4ff2 51bc f3e7 0a3c 436e 70bc
00000010: 329a 593c ba00 49ba 1740 bb3c 6f02 f43b
00000020: f337 823c a8fc b3bc 66ad 153c 1131 67bc
00000030: 7edf 2fbd 474c df3c 55c8 783c 8386 fa3c
00000040: f799 073c ed6c cb3c a264 82bd 743c f93b
00000050: efab ecbc 186a 57bc 6171 e7ba ba3c 543c
-0.0046495455 -0.0128141185 0.008478153 -0.014674726 0.013281392 -0.000766765 0.022857709 0.007446579
0.01589582 -0.021971062 0.00913558 -0.014110819 -0.042937748 0.027258052 0.015184482 0.030581718
0.008276454 0.024832213 -0.063668504 0.0076060835 -0.028890578 -0.013147853 -0.0017657691 0.0129539315

spatial.conv1.bn.running_mean f4 [24]
00000000: da3d c7c3 89c5 91c3 818e b0c3 0864 b2c4
00000010: d1fd fa43 4570 7c43 14e1 bf42 8a73 64c2
00000020: 8dde 53c2 28b2 0c44 1320 a343 d268 e5c2
00000030: c634 fd42 233b 99c3 3f89 16c3 a2ea be43
00000040: 8765 02c2 f83a 0944 aabf 85c4 0670 a644
00000050: 224d e6c3 ac59 2143 bc3c 7ec4 b249 5544
-398.48322 -291.54324 -353.1133 -1427.126 501.98294 252.43855 95.939606 -57.11283
-52.967335 562.7837 326.25058 -114.70473 126.60307 -306.462 -150.53612 381.83307
-32.599148 548.9214 -1069.9895 1331.5007 -460.6026 161.35028 -1016.949 853.1515

spatial.conv1.bn.running_var f4 [24]
00000000: bb4f b447 c573 bb47 4394 4c48 f986 6b49
00000010: cdc1 be47 4883 7b47 0239 e547 24b6 8348
00000020: d916 e047 89c1 3548 9d0f bc47 d4ac 1a48
00000030: 9248 b848 94a2 3b47 b0b2 4947 b377 8c47
00000040: 136b 7147 03b2 1548 9164 fc48 16ca 2049
00000050: 7770 eb47 c5b1 7347 14d8 d948 ccd4 6848
92319.46 95975.54 209489.05 964719.56 97667.6 64387.28 117362.016 269745.12
114733.695 186118.14 96287.23 158387.31 377412.56 48034.58 51634.688 71919.4
61803.074 153288.05 516900.53 658593.4 120544.93 62385.77 446144.62 238419.19
