checkpoints/model_epoch109.pth (torch, 752183 bytes, 210 tensors)

spectral.conv1.conv.weight f4 [24, 1, 1, 1, 5]
000000 f5 b0 ee 3c 9b f0 91 3c b3 1d a4 bc 7e c9 f3 ba
       0.029137114 0.017814925 -0.020033693 -0.0018599478
000010 03 0a 97 b9 8c aa af 3c aa db ef bc 46 06 03 bd
       -0.00028808424 0.021443628 -0.029279549 -0.031988405
000020 e0 e7 49 3c 48 c7 53 bc 87 de 53 bc 8c 87 cd bb
       0.01232335 -0.01292593 -0.012931473 -0.006272262
000030 4e ff 06 3d 9b 0b 19 3d 43 68 86 bb 6c 6d c6 bb
       0.03295832 0.037364583 -0.0041017844 -0.0060555246
000040 37 be 95 3b 17 23 0f bd 3c ca 0c 3d aa ad 31 bc
       0.0045697945 -0.034945574 0.034372553 -0.010844627
000050 86 1d 4a 3c a3 3f 54 3c 52 80 8a bc 55 0e 83 3c
       0.0123361405 0.012954625 -0.016906891 0.015998045
000060 7b 4e 0e bc 89 34 f1 3c df 7c b9 3a 38 a1 4c bd
       -0.008685703 0.029443996 0.0014151594 -0.049958438
000070 d7 25 63 3d 33 e3 ae bb 35 7a 9b 3a 9c ed 14 bd
       0.05545601 -0.005337143 0.0011861982 -0.036359414
000080 cd b6 e0 3c 7a 40 97 3c f8 4c 5c ba 29 99 dd bc
       0.027430916 0.018463362 -0.0008403803 -0.027050572
000090 79 2d 21 bd 47 71 4a 3d 15 fd 0c 3d 23 74 72 bc
       -0.039350007 0.049424436 0.034421045 -0.014798197
0000a0 8b 70 44 bc d2 2a 3a 3b 91 d1 68 3c 4a e7 26 bd
       -0.011989723 0.002840687 0.014210121 -0.04074792
0000b0 c2 01 73 bc ee ad a1 3c ff 15 87 bb db 5d 5f b7
       -0.014831962 0.019736256 -0.004122495 -1.3313688e-05
0000c0 57 66 33 bd 28 5d 5f 3c 45 b3 01 bc e7 f7 50 bd
       -0.04379877 0.01363305 -0.007916276 -0.051017668
0000d0 40 6b 11 3c 3b 2d ca 3b b2 d6 aa 3c 1d ed e3 3c
       0.008875668 0.0061699427 0.020854328 0.027823025
0000e0 61 0c 29 3d 18 38 2b bd 00 1a f3 3b ad 56 d9 3b
       0.04127157 -0.041801542 0.007418871 0.006632647
0000f0 1e bb 80 bc af 10 3f bc ae 20 4d 3c 2a dd 53 bc
       -0.015714224 -0.0116616925 0.0125199985 -0.012931148
000100 6e 6f 7e 3b 48 19 12 bd 52 17 03 3c 22 79 a5 bc
       0.0038823741 -0.03566864 0.008001165 -0.020199362
000110 d9 53 2c 3c 4c a4 1e 3c c5 fd 9a bc 1e eb bf bc
       0.010518038 0.009682726 -0.018919835 -0.023427542
000120 01 59 8f bc af 38 66 3d a1 3f a4 bc f4 e0 1f bd
       -0.017498495 0.0562064 -0.020049872 -0.03903289
000130 21 10 6a bc 83 3d 9d 3b 0f 72 81 bc 17 1c 19 3d
       -0.014286072 0.0047985925 -0.015801458 0.037380304
000140 89 6f 64 bb 84 86 03 3d b9 b5 8f bc c8 93 89 bc
       -0.003485652 0.032110706 -0.017542707 -0.0167941
000150 78 e5 10 bc 82 43 d3 bc fc b9 46 bd 28 9a 56 3c
       -0.008843772 -0.025789026 -0.048517212 0.013098277
000160 25 42 3f 3d 99 d4 83 bc 9e db 77 bc c2 c1 80 3c
       0.04669394 -0.016092585 -0.015128044 0.01571739
000170 65 d4 a5 bb 98 40 9c bb eb 1a c3 bc 8e 25 7e bc
       -0.00506072 -0.0047684424 -0.023816546 -0.015511883
000180 7a 34 08 3d 9e df 98 3a 7a a8 5e bd 87 f9 78 bd
       0.03325317 0.0011663323 -0.05435989 -0.060784843
000190 0e c0 3d bc 77 e0 07 bc 4c 97 fe 3b 38 62 fd 3c
       -0.011581434 -0.008293263 0.007769501 0.030930623
0001a0 61 55 aa 3c 32 7a 35 3c 4c 56 5c 3c ba 6e ba 3c
       0.020792665 0.011076497 0.013448309 0.022757877
0001b0 de 8b 1d bd 17 6c b8 bb af 23 ab 3b 87 9e 53 bb
       -0.038463466 -0.0056281197 0.0052227597 -0.0032290535
0001c0 62 f1 35 3b ec 55 92 3c b4 51 09 bd 27 b4 85 bd
       0.0027762284 0.017863236 -0.033525184 -0.06528502
0001d0 93 0a 29 bd a0 42 6b ba b1 94 ce 3c ed 7a 12 bd
       -0.04126985 -0.00089744665 0.025217386 -0.035761762

spectral.conv1.conv.bias f4 [24]
000000 2e ab 73 be b3 ca d1 be 70 2a 23 3e c4 42 b2 be
       -0.23795769 -0.4097496 0.15934157 -0.34816563
000010 84 8f b1 be bf 69 a9 3e 1f 9a e0 bc d3 dc a4 bd
       -0.34679806 0.3308849 -0.02741724 -0.080499314
000020 40 f7 8a 3e 41 5a 0e 3e b2 39 54 be f4 fc 41 be
       0.27141762 0.13901617 -0.20725134 -0.1894415
000030 aa 09 7d 3e e4 e4 96 3e 17 6b be 3d 3d 07 8b bd
       0.24710718 0.29471505 0.092977695 -0.0678849
000040 7f a1 c1 3e 1a bb 9f 3e 10 4b a5 be e7 fd aa bc
       0.37818524 0.31197435 -0.3228383 -0.020873023
000050 89 13 a1 be 22 a4 7f 3e 9d 50 54 3e 5a 10 3a 3d
       -0.31460217 0.24964955 0.20733877 0.04542575

spectral.conv1.bn.weight f4 [24]
000000 a4 f1 77 3f f1 6b 77 3f 3e c6 78 3f d1 85 77 3f
       0.9685309 0.9664908 0.97177494 0.9668856
000010 c4 be 6f 3f 9d b8 76 3f 19 d1 7d 3f b4 c4 81 3f
       0.9365046 0.9637545 0.9914718 1.0138154
000020 dc d1 82 3f 7b 47 80 3f 9e 5a 7b 3f 75 09 7f 3f
       1.0220294 1.0021814 0.98185146 0.99623805
000030 60 7b 7c 3f d9 83 7d 3f 29 62 7d 3f ec 8f 81 3f
       0.98625755 0.9902931 0.98977906 1.0122046
000040 22 56 80 3f 26 b3 80 3f 1a 1f 7c 3f 73 f1 7b 3f
       1.0026286 1.0054672 0.9848496 0.984153
000050 82 7a 80 3f 6c 98 77 3f be e4 7e 3f c3 4c 7a 3f
       1.0037386 0.9671695 0.9956778 0.9777338

spectral.conv1.bn.bias f4 [24]
000000 c5 46 30 bd 14 2b d0 bc 29 33 91 bc df b1 0e bd
       -0.04303624 -0.025411166 -0.01772459 -0.0348376
000010 f7 73 47 bd be 4a da bc 59 28 1c bb 43 03 3e 3c
       -0.048694577 -0.026646968 -0.002382776 0.011597457
000020 ec cc ef 39 9f 2a e9 3c ac c0 c6 bb af 42 d7 bc
       0.0004573831 0.028462706 -0.0060654487 -0.026276914
000030 13 58 dd bb ba be b8 bb 18 6b a6 bc 59 74 44 bc
       -0.006754884 -0.0056379708 -0.020314738 -0.01199063
000040 9b ba 1c 3c e4 30 cc bc ff 9b 83 3a 89 f5 68 bc
       0.009565975 -0.024925657 0.0010040997 -0.014218696
000050 b4 f3 8d 3c b5 69 ff bc ac a7 1a bc 2d 31 e2 bb
       0.01732812 -0.031178335 -0.00943939 -0.006902835

spectral.conv1.bn.running_mean f4 [24]
000000 84 71 de 41 17 3d 3d c2 7a 83 57 42 d1 04 7a c1
       27.805428 -47.309658 53.878395 -15.626176
000010 f8 fa 8f 41 2e f5 10 42 57 7d 4f 41 95 3b 9e 40
       17.997543 36.239433 12.968101 4.944773
000020 13 0f 6c c2 cf e8 8a c1 ce ab cf c1 73 d5 3d 42
       -59.01472 -17.363676 -25.958889 47.458447
000030 07 e6 d8 c1 d7 b1 fc c1 53 b6 d3 c1 eb f3 e5 c1
       -27.112318 -31.586836 -26.464025 -28.7441
000040 91 6c 8d c1 83 a5 05 c2 2a 97 1c c2 e1 a3 e3 c2
       -17.67801 -33.411633 -39.14762 -113.820076
000050 a7 8a 2d 42 ae 67 02 c0 b6 77 51 c1 67 0d 07 c3
       43.385403 -2.037578 -13.091726 -135.05235

spectral.conv1.bn.running_var f4 [24]
000000 95 95 0b 44 80 1d c2 44 6f d0 ff 44 24 d5 24 43
       558.3372 1552.9219 2046.5135 164.83258
000010 74 bf 6d 43 53 dd 5f 44 43 a9 fc 42 32 88 3d 42
       237.74786 895.4582 126.33059 47.383003
000020 76 74 19 45 e9 fa 61 43 49 bc f7 43 32 ac c6 44
       2455.2788 225.98012 495.47098 1589.3811
000030 c2 22 03 44 b8 b1 35 44 76 39 fc 43 9a b8 1b 44
       524.5431 726.77686 504.4489 622.8844
000040 d1 1a 6c 43 fb f7 4c 44 bc 44 83 44 b2 ec 0d 46
       236.10475 819.8747 1050.148 9083.174
000050 60 8c aa 44 ec d9 c3 41 fc cd ff 42 c8 14 47 46
       1364.3867 24.481407 127.90231 12741.195

spectral.conv2.conv.weight f4 [6, 6, 1, 1, 5]
000000 3b 72 1f bd 5e f9 8e bc ea df a4 3c 1c 1d 13 3c
       -0.038927298 -0.017452892 0.020126302 0.008979108
000010 c1 51 4b bd a9 aa d8 3c f9 4f 18 bd e9 74 52 ba
       -0.049638513 0.026448565 -0.037185643 -0.0008028285
000020 27 bd f4 3c e6 e0 b7 3c 33 69 f8 3c bd 0f 68 3c
       0.029875351 0.022446107 0.0303236 0.014163909
000030 f5 73 f5 3c 77 d4 37 3d a9 15 18 3d c0 a4 86 3b
       0.02996252 0.044880357 0.03713003 0.004108995
000040 79 e5 c3 3c 6e 1a 0f 3d 28 a1 1a bd 01 09 aa ba
       0.023913132 0.034937315 -0.037751347 -0.0012972654
000050 4d 46 da 3b 87 62 bc ba a7 c7 cd 39 74 76 ce bc
       0.0066612125 -0.0014372625 0.000392494 -0.025202967
000060 79 89 c6 3c 34 41 52 bc b7 c8 de 3b 30 1f 3b 3c
       0.024235474 -0.012832928 0.0067988294 0.01142101
000070 2c 6a 0a 3d 79 82 9e bb a5 5e 6c bd af 3f 35 3b
       0.03379266 -0.004837331 -0.057707448 0.0027656367
000080 15 4b 0f 3d 03 1e c5 3c 98 e4 05 bd 1d 6f 1f bc
       0.034983713 0.024062162 -0.032688707 -0.009731081
000090 f3 5f 2a bc 0c f3 07 3d 5e 6e be 3c d6 9f ac 3c
       -0.010398853 0.033190772 0.023245987 0.02107231
0000a0 d8 d0 56 3d 6a 60 5e 3d 7b 33 1e 3d 45 b6 c7 3c
       0.052445263 0.054291166 0.038623314 0.024378905
0000b0 f1 c3 e1 3c 6a 70 ca 3c de 99 52 3c f7 1e d1 bc
       0.027559252 0.024711806 0.012854068 -0.02552746
0000c0 09 07 c3 bc 94 b6 4d 3c d5 4d 0a 3c e4 16 1c bd
       -0.023807066 0.012555737 0.008441408 -0.038107768
0000d0 49 bd 49 3c 21 cb ef 39 9d dc 41 3c 99 75 45 3d
       0.0123131955 0.00045736975 0.011832383 0.048207853
0000e0 b9 2e 8b 3d 3b 2d 23 3d 9b 7f a4 3a 0b 3d 86 bc
       0.06796021 0.039838057 0.0012550236 -0.01638653
0000f0 38 9d aa 3b e5 b0 24 3c 28 39 06 3d 39 d0 be bb
       0.00520673 0.010051941 0.032769352 -0.005823162
000100 ea 20 24 3c 2f bb ab bb 4f f3 06 3d 23 23 87 3b
       0.010017613 -0.00524082 0.03294688 0.0041240617
000110 e3 33 41 3b a9 03 4d bc bd 98 b6 bc cf 9b 88 bc
       0.002948039 -0.01251308 -0.022289628 -0.016675858
000120 b8 01 c9 bc 0d 59 e3 3c b9 a5 6e bc f5 46 d3 3a
       -0.024536952 0.027752424 -0.014565879 0.0016119169
000130 bf e5 80 bc cb db 51 bd 1a 9a c0 bc b3 c0 69 3c
       -0.015734551 -0.051235 -0.023510981 0.0142671345
000140 9d 9d cf 3c d4 d5 f0 bc 24 fa d1 3c f7 66 8a 3b
       0.02534371 -0.029398836 0.025631972 0.0042237
000150 8a 15 fd 3b b0 ae d9 bc d7 f4 df 3b 51 d5 09 bd
       0.007723515 -0.026572555 0.006834607 -0.0336507
000160 4c 67 82 bc d7 95 a5 3c 9d 81 25 38 ac ee 93 3b
       -0.015918396 0.02021305 3.9459777e-05 0.004514536
000170 be f8 ad bc 64 2f 34 3d 21 9d 84 3b f1 28 4d 3c
       -0.021236774 0.043990508 0.0040470515 0.012521968
000180 ce 7f 6b 3c a1 0e e4 bc 51 63 8b 3c 97 c9 85 bb
       0.014373733 -0.027839007 0.017015131 -0.0040828693
000190 28 15 76 3c 64 34 0a 3c 52 88 aa bc 0c 0b 6e bb
       0.0150196925 0.008435342 -0.020816956 -0.0036322502
0001a0 3e 09 ec 3c aa 03 fb bc 95 4c 8f 3a 9e 3e 85 3d
       0.028813 -0.030641396 0.0010932857 0.06506084
0001b0 cc 6a f5 bc c9 96 0e bc 2c 71 04 bc 10 f6 a3 bb
       -0.029958151 -0.008702942 -0.008083623 -0.005003698
0001c0 cf 12 eb b8 a4 58 b2 3c 7f 40 a3 ba 24 c0 d7 bc
       -0.000112091766 0.021770783 -0.0012455134 -0.026336737
0001d0 5a cd 8f bc e9 e9 94 ba 66 fa b0 3b 47 b0 2e 3d
       -0.017553974 -0.0011361215 0.0054009436 0.04264858
0001e0 fa 32 82 bb cf 5d 5a bc ba 7e 1a bc ce fe 6d 3b
       -0.003973362 -0.01332803 -0.009429628 0.0036315206
0001f0 ad 3c b4 bc 17 84 1e bd 45 98 16 3d ad 37 38 3c
       -0.022001589 -0.03870019 0.03676631 0.011243743
000200 9b f5 08 3c 8d 4e c8 bb 0d eb 7e 3d f9 0f af 3c
       0.008359338 -0.0061128796 0.06223588 0.021369921
000210 ef 5e 21 3d 2a 49 32 ba 3e 02 86 bc 15 12 7e bc
       0.039397176 -0.00068010634 -0.016358491 -0.015507241
000220 88 48 0a 3c 9d c3 4f bb 98 35 8b 3c c6 81 e4 bb
       0.008440144 -0.0031702288 0.016993329 -0.006973478
000230 36 b4 55 bc 9b 78 fc 3b c0 d2 32 bb 2a a8 37 3d
       -0.013043454 0.007704807 -0.0027286261 0.044838108
000240 64 a2 23 3c c8 8c 61 3c 24 ef 75 3c 06 fd a1 3c
       0.009987447 0.013766475 0.015010629 0.019773971
000250 c0 14 01 bd fa 60 5d bc ee 60 00 3d 54 00 80 bc
       -0.03151393 -0.013511891 0.03134244 -0.015625156
000260 f4 8f f3 3b e9 9f 27 bc ea 89 6f bb aa 74 6e 3d
       0.007432932 -0.010230997 -0.003655071 0.05821673
000270 b2 58 aa bc 57 d5 c3 bc a7 3d 97 3c 3d 19 0a bd
       -0.020794246 -0.02390544 0.018462015 -0.033715475
000280 0f f7 d8 3b 1f 4a 1c bc 2e b6 49 bb 65 f3 54 3c
       0.0066212486 -0.009539156 -0.0030778754 0.012997483
000290 d7 32 05 bc 38 3f ea bc 96 99 52 bb ca 49 06 3d
       -0.008129797 -0.028594598 -0.0032135001 0.032785214
0002a0 2b e8 73 bc d7 4d ab 3b 53 79 fb 3b 7d c8 90 bc
       -0.014886896 0.005227785 0.007674375 -0.017673725
0002b0 a0 33 37 bc 17 f4 e0 3b 5e 35 97 bc ff 33 97 bb
       -0.011181742 0.0068650353 -0.018458065 -0.0046143527
0002c0 a9 ed 16 bc 28 ea ac 3c 46 d7 c8 b9 15 83 5b 3c
       -0.009211936 0.021107748 -0.00038307364 0.013397952

spectral.conv2.conv.bias f4 [6]
000000 ad 56 be bd 63 7f 35 be 01 91 33 3e d1 50 94 bd
       -0.09293876 -0.17724375 0.17535783 -0.07241977
000010 ee d3 dd 3b e5 91 a1 3b
       0.0067696488 0.004930722

spectral.conv2.bn.weight f4 [6]
000000 31 e6 7d 3f 04 f5 7b 3f 71 41 7c 3f f3 c3 82 3f
       0.9917937 0.9842074 0.98537356 1.0216049
000010 30 12 76 3f 3b a2 81 3f
       0.961215 1.0127634

spectral.conv2.bn.bias f4 [6]
000000 dd f6 25 bd 4b 1d 7b bc 7e 69 64 3b c2 c8 54 3c
       -0.04051863 -0.015326808 0.0034852917 0.0129873175
000010 f4 bc 10 bd 02 c7 ee 3b
       -0.03533645 0.007286907

spectral.conv2.bn.running_mean f4 [6]
000000 57 b1 b2 bc 3d 3f 27 bd 86 5c 15 3e bb 1c 27 bd
       -0.021813078 -0.040831793 0.14586076 -0.040798884
000010 ba 6b 5f 3d e2 61 17 3b
       0.054546095 0.0023099114

spectral.conv2.bn.running_var f4 [6]
000000 e9 e9 fe 3b d1 5b 12 3c ac 35 7c 3b f9 c1 f4 3a
       0.007779349 0.008933024 0.003848414 0.0018673531
000010 eb 9e dd 3b 2f 4e 5a 3b
       0.0067633293 0.0033310761

spectral.conv3.conv.weight f4 [12, 12, 1, 1, 5]
000000 76 29 6a bc 55 74 e0 bc e0 a1 79 bc a8 f1 1c bd
       -0.014292112 -0.027399221 -0.015236348 -0.0383164
000010 fd 8c c1 3b af 7d cc 39 10 46 c7 bc cd 7a db bc
       0.0059066997 0.00039003554 -0.0243254 -0.026791954
000020 e4 d6 f4 bc 97 ef 08 bb 4e 77 d0 bc 4f 64 83 3c
       -0.029887624 -0.002089476 -0.025447514 0.016039042
000030 e5 de c9 3c 64 22 95 bc 65 1f 98 3c 72 c6 64 3c
       0.024642417 -0.018204875 0.018569658 0.013963329
000040 bb 3e 91 3b 89 6a 03 bc f0 07 15 3d 03 55 41 3c
       0.004432527 -0.008021005 0.036384523 0.0118000535
000050 03 a6 35 bd ae 11 50 bc 9c d5 c7 bc 56 8a 00 bc
       -0.044347774 -0.012699528 -0.02439385 -0.007845482
000060 65 b2 1a bb 2b 27 1f 3b 36 ea b7 bc 45 2d a2 b9
       -0.0023604867 0.002428482 -0.022450548 -0.00030932776
000070 95 29 71 bc a3 8e b6 3c 8c eb 14 bc 37 06 de 3b
       -0.014719387 0.022284811 -0.009089362 0.006775643
000080 30 a1 23 3c dc 60 6c 39 95 15 8b bc c8 a7 ab 3c
       0.009987161 0.00022542797 -0.016978065 0.020954028
000090 65 33 65 bc 5e b8 23 3d a9 9e b4 bc 22 5d 50 3c
       -0.013989304 0.039970748 -0.022048311 0.012717517
0000a0 67 7f d9 3c f2 ba c2 bb b0 f0 1b 3d 19 1a 9a bc
       0.026550008 -0.005942696 0.038071334 -0.018811272
0000b0 72 d6 ef 3c 5c af e3 bc bb 43 bb 3c 47 56 9d 3c
       0.02927706 -0.027793579 0.022859445 0.01920618
0000c0 19 1f ed 3c 37 cd 13 ba 39 19 7e bc 4c 15 24 bc
       0.028945493 -0.00056381844 -0.015508943 -0.010014843
0000d0 cf 4e 95 3c e4 87 63 bc ca c5 08 3d 3b 13 0d bd
       0.018226055 -0.013887379 0.03339175 -0.034442168
0000e0 e0 93 24 bd c8 5d 15 3a 2d 48 57 3c f3 c7 35 3d
       -0.040180087 0.00056978734 0.013139767 0.04438014
0000f0 9e 7f ab bc 17 02 9e bc 0d aa 1b bc 17 35 16 bd
       -0.020934876 -0.019288106 -0.0095009925 -0.036671724
000100 a7 05 82 3a fd 4f 28 bc d9 b0 65 bc e7 6c b1 3c
       0.0009919897 -0.010272977 -0.014019215 0.021658374
000110 0c 36 a0 3b 4e 54 57 3c 5b be c3 3c ac 38 aa 3c
       0.0048892554 0.013142658 0.02389448 0.020778976
000120 9a 3e 52 bc 37 1e b3 bc 78 e3 81 bd fe cb 1b bc
       -0.012832308 -0.021864993 -0.06342214 -0.009509085
000130 a8 51 27 3c 3b 32 11 ba 39 1f 71 bc 8b ed 5a 3d
       0.010212339 -0.0005538796 -0.014716917 0.053449195
000140 0a 68 9d bc 77 e4 46 bc b4 71 5f bc 29 87 41 bc
       -0.019214649 -0.012139431 -0.013637949 -0.01181201
000150 f1 61 0d 3c 3e 89 ae 3c eb c5 fb bc fb 68 92 3b
       0.008629308 0.021305677 -0.030734023 0.004468081
000160 5a b9 82 bd 39 49 60 bb 77 bf c7 3a b6 9b f9 bb
       -0.06383009 -0.0034223332 0.0015239556 -0.007617439
000170 ee ac e2 3c 36 7c 9d 3c 0e 11 c2 bb 27 e5 f1 3b
       0.02767035 0.019224267 -0.0059224432 0.0073820534
000180 80 6c 80 3c fc 20 29 bd 85 20 34 3c 32 0f 66 bc
       0.015676737 -0.041291222 0.010994081 -0.014041709
000190 15 d3 90 3a 97 7d a8 3c 9c 2f b0 bc 63 32 7c bc
       0.0011049235 0.020567698 -0.021507077 -0.0153928725
0001a0 d6 38 2d bd a6 5c 13 bd 99 c0 21 bc 3d ea a3 bb
       -0.04229053 -0.03597703 -0.009872579 -0.0050022886
0001b0 ba 24 7c bc 61 4b 55 3c 9e 06 9b bb 7d 90 12 3d
       -0.015389616 0.01301846 -0.0047310134 0.035782326
0001c0 b4 c3 35 3d 95 83 8c bc 5c 04 70 3c 06 58 88 3c
       0.04437609 -0.017152587 0.014649477 0.016643535
0001d0 40 13 c5 bc 14 39 0e 3c 1e c9 a7 bc cd 8b 67 bc
       -0.02405703 0.008680601 -0.020481642 -0.014132452
0001e0 55 1f e8 bb 7b c2 9f 3b 7f 85 0d 3c af 96 2c bd
       -0.007083813 0.004875479 0.008637785 -0.04213589
0001f0 a3 5c b7 bc 13 64 a6 bc 6f 2f 0c bc 62 dd 57 bc
       -0.02238304 -0.020311391 -0.008556231 -0.01317534
000200 e6 da dd bb 31 5e 52 ba 6b 28 06 3d bb f2 29 3c
       -0.0067704795 -0.00080249 0.03275339 0.010372813
000210 49 9e e8 bc 54 0a b3 ba 72 37 1a 3c e2 8d 7e ba
       -0.028395789 -0.0013659694 0.009412633 -0.0009710473
000220 5f 4c 46 bd c9 5f 2c 3d 0f dd 99 bc 13 b6 d0 3b
       -0.048412677 0.042083535 -0.018782167 0.006369361
000230 14 36 dc ba f2 15 0d 3c 86 19 41 3c 1d 2f c6 bb
       -0.0016800785 0.008611189 0.01178587 -0.006048097
000240 ca cf a9 3c c3 21 09 bc 74 1d 06 bc 87 26 57 3d
       0.020728964 -0.008369866 -0.008185733 0.052526977
000250 0c 2c b4 bc b0 67 8b 3b 07 ab 5b bc cd 6b 25 3d
       -0.02199366 0.004254304 -0.013407475 0.04038601
000260 5e dd 8a bb 96 15 19 3d df f1 4d bc 26 cf 28 ba
       -0.004237815 0.0373741 -0.012569874 -0.0006439559
000270 0b b0 88 3c 4c 88 08 3c 9b 26 31 3c 02 f2 d2 3c
       0.016685506 0.008333277 0.010812427 0.025750164
000280 e0 36 6d 3c bf f6 b0 3c fc 15 da 3b d4 0e 9f 3b
       0.014478415 0.021602033 0.006655453 0.0048540626
000290 13 d0 32 3c d3 ad da bc 61 5b 32 3b c1 cf 26 bd
       0.010913867 -0.026694214 0.002721511 -0.040725473
0002a0 bd 77 0d 3c c0 69 a3 3c 69 e6 0c bd a7 a8 79 3c
       0.008634505 0.019947886 -0.034399424 0.015237964
0002b0 5e bc 81 ba 16 c9 cb 3b 97 0f af bc 0c 2c b5 3c
       -0.0009898057 0.0062190397 -0.021369739 0.02211573
0002c0 1c 1b 05 bd 67 c6 4c bb 0a 3f 00 bc 48 78 c6 bb
       -0.032496557 -0.0031246187 -0.00782753 -0.006056819
0002d0 4e 02 b3 3b 88 cc d8 bc d4 38 13 3c 03 a3 0b bd
       0.005462921 -0.026464716 0.008985717 -0.034091007
0002e0 4d c1 e9 bc 6b 8a 7f bc e0 55 e5 3a f5 72 7a bb
       -0.028534556 -0.015596966 0.0017496906 -0.0038215492
0002f0 4e 16 a4 bc 47 f7 ab ba 33 b9 a8 bb 32 95 36 bc
       -0.020030167 -0.0013119959 -0.0051490306 -0.011143969
000300 0f 67 89 bb e0 3c 02 3d ce 52 4c 3c f1 ad a1 bc
       -0.0041931937 0.031796336 0.012470914 -0.019736262
000310 2e 33 c3 bc 03 11 a4 bc 39 80 41 3c 7c a2 16 3c
       -0.023828115 -0.020027643 0.011810356 0.009194013
000320 a8 87 2c bc d1 3a 9c bc 91 55 c4 ba 8c ce 36 3c
       -0.01053039 -0.019071015 -0.0014979114 0.011157643
000330 b6 60 9d 3b 1b 37 a2 bb 4a be 20 bc f2 7e 24 bd
       0.0048027886 -0.0049504167 -0.009810993 -0.040160127
000340 68 da e2 bc 2c aa 18 3c 04 f7 00 3a 47 c0 79 3c
       -0.027692035 0.009317916 0.00049196207 0.015243596
000350 cb 11 50 3c 25 28 f4 bc f9 d9 07 3c c4 ce fa bc
       0.012699555 -0.029804299 0.008291715 -0.030616172
000360 a3 0b a7 bb 49 76 18 3c b6 1d c2 bc 9d b4 fd 3c
       -0.0050978228 0.009305545 -0.023695808 0.030969912
000370 bd 93 82 3c 65 7a 0e bd b6 01 0c 3c 83 eb 2b 3c
       0.015939588 -0.034784693 0.00854533 0.010493162
000380 56 c8 b8 3c 7f 3b c4 bc 6d be 3d bc 08 49 b7 3c
       0.022556465 -0.023954151 -0.011581046 0.022373691
000390 2c 0f 3f 3c c3 a9 de ba 5a 22 32 3c 0c cd 88 bd
       0.011661332 -0.0016987849 0.010872448 -0.066797346
0003a0 57 a7 86 bb 03 6d 71 bd 55 3a ad 3c a7 e1 ad bc
       -0.004109304 -0.058941852 0.021145979 -0.021225763
0003b0 f0 38 f6 bb e0 09 22 bd 3a 13 b7 3c 41 f6 d2 3c
       -0.0075141117 -0.0395602 0.022348035 0.025752189
0003c0 19 8c 73 bc bc 39 a7 bb 88 9f 14 bc b1 b3 08 3d
       -0.014864945 -0.005103318 -0.009071238 0.033374492
0003d0 94 04 fe bb 60 b5 36 bb 4e b6 34 bd 83 3e 8d 3a
       -0.0077520106 -0.0027879104 -0.04411917 0.0010776076
0003e0 5a 5a 3b bc 6f 20 e4 3c 17 14 fc bc 49 2c 56 3a
       -0.011435116 0.027847497 -0.030771298 0.0008170051
0003f0 1b b0 bd bb e0 22 9e 3c 6b 4f d0 3c 82 ec 3e bc
       -0.0057888157 0.01930374 0.025428494 -0.011653068

spectral.conv3.conv.bias f4 [12]
000000 7a c9 d8 3b 14 65 b4 bc cc 92 c4 bc 5d 1c 00 3d
       0.0066158148 -0.022020854 -0.02399578 0.03127705
000010 cf 98 2f 3c e7 17 ee 3b 7c 77 cc bd c6 3f fa bd
       0.010717585 0.007266033 -0.09983727 -0.12219195
000020 4b 95 a3 bc 7c 82 d6 3d 52 65 87 bd 08 4e 8f bd
       -0.01996865 0.10474107 -0.06611122 -0.06997305

spectral.conv3.bn.weight f4 [12]
000000 40 ce 7e 3f 36 01 81 3f d0 aa 7e 3f 9e 69 80 3f
       0.9953346 1.0078495 0.9947939 1.0032232
000010 bd a8 86 3f df 5c 81 3f 2e 87 81 3f 3c bb 7f 3f
       1.0520245 1.0106467 1.0119379 0.9989507
000020 6f 3e 83 3f a1 87 80 3f 24 7b 84 3f 84 00 7e 3f
       1.0253428 1.0041391 1.035008 0.99219537

spectral.conv3.bn.bias f4 [12]
000000 86 37 95 bc 0d ba 45 3b 11 9b 0a 3c b8 cd 8d 3b
       -0.018214952 0.003017071 0.008459822 0.004327502
000010 94 b5 c4 3c 8c a9 94 bc 11 a8 ca bc d2 fb 97 bc
       0.024012364 -0.018147253 -0.024738343 -0.018552694
000020 2f 28 86 3c fe 11 9b bb 92 10 94 3b d2 bf 26 3c
       0.016376583 -0.0047323694 0.004518577 0.010177569

spectral.conv3.bn.running_mean f4 [12]
000000 ba f0 03 bd f7 75 ff bd 8d 46 ff bc 1b 97 c0 bd
       -0.032211997 -0.12473672 -0.03116157 -0.09403821
000010 19 4e 08 bd c1 7d 61 3e 19 0a fd 3c cf 85 97 bc
       -0.033277605 0.22020628 0.030888604 -0.018496422
000020 42 e2 82 bd bc 38 ef 3c 43 44 0e be 07 32 0f bd
       -0.063908115 0.029201858 -0.13893227 -0.03495982

spectral.conv3.bn.running_var f4 [12]
000000 6a 46 0a 3c 33 a6 04 3c f0 03 64 3b ce bf 82 3c
       0.00843964 0.008096266 0.0034792386 0.0159606
000010 e6 90 6d 3b 91 4f 49 3d 93 11 14 3d c4 d1 8d 3c
       0.0036249696 0.049148146 0.036149573 0.017311938
000020 d7 fd 13 3c c9 ec a5 3b 01 f5 23 3c 38 fc 44 3c
       0.009032688 0.0050636274 0.010007144 0.012023024

spectral.conv4.conv.weight f4 [12, 18, 1, 1, 5]
000000 68 1c 23 bc e7 02 9f 3c 8e ec ef 3c 82 4e 86 bc
       -0.009955503 0.019410564 0.029287603 -0.016394857
000010 37 62 97 3b d4 5a 48 3c 22 64 44 bd 9c 71 48 3d
       0.0046198624 0.012228686 -0.047947057 0.04893647
000020 e1 23 18 3d fc b6 ce bb 12 27 c9 3c 8a 27 20 bc
       0.03714359 -0.0063084345 0.024554763 -0.009775052
000030 86 49 05 3d 8a 48 be 3c a8 4b 19 bc 95 2a d5 bc
       0.03254082 0.023227949 -0.009356417 -0.026021281
000040 44 60 2e bd 57 9f af 3c 8d 12 4d bd 90 e2 a7 bc
       -0.042572275 0.021438284 -0.05006652 -0.020493776
000050 4f ef a2 bc 7a 1b 30 3c 35 79 29 3c c3 ec aa 3b
       -0.019889502 0.010748738 0.010343839 0.0052162125
000060 3a db 91 3c 0a 73 0e bd 37 cf aa 3c fa ff 58 bc
       0.01780473 -0.03477768 0.02085076 -0.013244623
000070 77 3a 04 bd 33 05 02 bb 76 ea 9e bc 35 90 f8 bc
       -0.03228232 -0.0019839525 -0.019398909 -0.0303422
000080 5f 53 1b bc 3b 5b 30 3d 0b ea 12 bd a5 a8 67 bb
       -0.009480326 0.043055754 -0.035867732 -0.0035348323
000090 36 c8 65 ba a4 ab 10 bc f8 73 72 3a 89 18 2b bc
       -0.00087654905 -0.008829985 0.0009248848 -0.010442861
0000a0 93 b6 91 bc 3b 28 21 3c c1 89 0f 3d 70 3a f7 bb
       -0.017787253 0.009836252 0.03504348 -0.007544808
0000b0 1c 94 82 bc ef 88 84 3c cf da 6b bd 73 ee 52 bc
       -0.015939765 0.016178576 -0.05758172 -0.012874234
0000c0 b1 3d b7 bc 6c 34 04 bd b4 be 6a 3c 13 68 70 3a
       -0.022368284 -0.032276556 0.014327694 0.00091707817
0000d0 3d 64 1d 3c eb 65 4b bc 48 e6 c8 bc 5d e8 2f 3b
       0.009606418 -0.012414436 -0.02452387 0.002684138
0000e0 c2 b4 37 bb 8e 0a d0 3b 80 8f 8d bc 31 4e 97 bc
       -0.0028031324 0.0063489145 -0.01728034 -0.018469902
0000f0 63 ae e7 b9 d8 ca 98 3c 0e 17 8b 3d 9d 92 8b 3c
       -0.00044189682 0.018651411 0.06791507 0.017037684
000100 99 5c ee 3c 23 91 86 bc 9f 9f 3f 3d 89 bc f3 bb
       0.029096888 -0.016426628 0.046783086 -0.0074382466
000110 22 8c db 3b a1 68 af 3b d0 16 29 bc b3 0f 60 bb
       0.0067000547 0.005353049 -0.01032038 -0.0034189045
000120 49 08 13 bb a2 9b e2 bc e0 f5 e1 bc fb d4 e1 bc
       -0.0022435358 -0.027662102 -0.027583063 -0.027567377
000130 6b 54 a6 3c 4a de 27 3c 9c 78 ad bc d6 eb 7c 3b
       0.020303925 0.010245869 -0.021175675 0.0038592718
000140 06 b1 ad 3c 72 4f d5 39 49 29 95 bc 0d 27 eb 3b
       0.021202575 0.00040685717 -0.018208163 0.007176286
000150 9a 75 e5 3a 79 da e5 3a db c9 ec bc f0 a8 dd 3c
       0.0017506361 0.0017536423 -0.028904846 0.027058095
000160 cd 9a a4 3c 5a 38 3b 3c 6e fb 45 bd 72 28 0c 3c
       0.020093346 0.0114270095 -0.048335485 0.008554565
000170 15 a5 9a 3c 8e 24 5a 3c 60 f9 26 bc d6 e0 f8 bc
       0.018877545 0.013314379 -0.010191292 -0.030380648
000180 59 64 82 3c 98 8c 81 bc 0c 4a cd 3a 3f 07 8b 3c
       0.01591699 -0.01581411 0.0015662326 0.016971229
000190 35 de a3 bc de 4e 07 3c f2 5d 61 bc 42 f5 17 3d
       -0.020003418 0.0082585495 -0.013755308 0.03709913
0001a0 0e db 09 3c 57 c8 b4 3b e0 ac d4 3c 2b 6b 93 3b
       0.008414043 0.0055170464 0.02596134 0.0044988594
0001b0 57 d2 9a 3c c3 c7 05 3d 88 87 49 3b 6e cc 63 3b
       0.018899126 0.03266121 0.003075095 0.00347593
0001c0 89 e7 37 3d f0 f3 a0 3b 78 1e 72 bb 44 f1 c8 3b
       0.044898544 0.004911892 -0.003694443 0.0061322767
0001d0 3c 04 4d 3d 41 8c 92 3b f4 d4 a1 3b af 07 b7 3c
       0.050052866 0.004472286 0.004938716 0.022342531
0001e0 fe f2 e4 bb 11 2f b8 bb f3 86 a4 39 70 63 1b 3d
       -0.0069869747 -0.005620845 0.00031381063 0.037936628
0001f0 b5 82 ae 3c 65 96 8a ba de ab bd bc f0 49 9e 3b
       0.02130256 -0.0010573386 -0.023153242 0.0048305914
000200 8b 48 0b 3d e9 46 86 bb 53 08 f8 bc 1b 35 dd 3b
       0.03400473 -0.0040978086 -0.030277407 0.0067507154
000210 b8 61 31 3c 80 0e a9 bc ab 15 7d bb c7 32 b7 3c
       0.010826521 -0.020636797 -0.0038617651 0.02236308
000220 2b 1a c1 3c 6c 94 8b 3c 52 f8 b5 3a c6 12 2f bd
       0.023572048 0.017038547 0.0013883209 -0.042742513
000230 dd 11 35 3c 45 8b ba bc 49 94 e3 bb 48 6c f9 3c
       0.011051622 -0.022771487 -0.006945167 0.03044714
000240 cd 01 9c bc 00 4e d2 3c 9c 95 8b 3c 58 c0 08 bb
       -0.019043827 0.025671959 0.017039113 -0.00208666
000250 99 a4 ec 3b 9b 36 61 bc 14 91 3a 3c b5 fa 17 bc
       0.00722177 -0.013745929 0.011387128 -0.009276082
000260 dd 80 d9 3c 78 1a 82 3b e8 91 e0 3c 71 04 c0 bc
       0.026550705 0.0039704405 0.027413324 -0.023439618
000270 47 b5 1d 3c d7 41 da bb 50 f4 94 bb 51 6e e4 3b
       0.009625739 -0.0066606808 -0.004545726 0.0069711586
000280 b4 9d b9 bc ed ed 58 bc 58 68 c7 3c 43 d4 26 bc
       -0.022658207 -0.01324032 0.024341747 -0.010182443
000290 b5 55 1e bb 3c ac 77 3c 3b 0d 5a 3b 64 1a a5 ba
       -0.0024159972 0.0151167475 0.0033272046 -0.0012596366
0002a0 0c fb 71 3b 42 3c 6a ba f1 71 1f 3d 05 23 8e 3c
       0.0036923317 -0.0008935371 0.038927022 0.017350683
0002b0 2d 9f 29 3d a1 2b 20 bc 61 d6 fb 3c 57 68 15 3d
       0.041411567 -0.009776027 0.030741872 0.03647646
0002c0 c9 1a 9f bc 1c c0 87 bb 25 d9 2e 3c 5c f0 38 3c
       -0.019421952 -0.0041427743 0.0106718885 0.011287775
0002d0 4d 87 4d 3c 05 55 ef bb 83 3a 37 3c 4a 01 a8 3a
       0.012544465 -0.0073038363 0.011183384 0.0012817767
0002e0 28 b8 92 3c 43 7b 82 bb f3 44 98 3b 02 f8 c7 3b
       0.017910078 -0.003981979 0.0046468913 0.006102563
0002f0 93 32 b1 3c e1 47 82 ba d5 7a 66 bb 42 b7 10 3d
       0.021630561 -0.0009939634 -0.0035168428 0.03533102
000300 7a c2 96 bc d7 b6 2f 3b 2e a5 3b 3d ed 5c de b9
       -0.01840328 0.0026811862 0.045811825 -0.00042412375
000310 85 18 1f 3a 24 95 5c bb 4b 62 8b 3b ce 15 40 3d
       0.00060690223 -0.003365823 0.004253661 0.046895795
000320 fa 09 fd 3b d3 38 32 bb b3 1a a6 bc 25 07 20 3c
       0.0077221366 -0.0027194514 -0.020276403 0.009767328
000330 15 63 1f 3d 04 06 9d bc 92 02 6c 3b 4e 22 59 3c
       0.03891285 -0.019167908 0.0036012274 0.013252808
000340 6b f9 f5 bb 48 a6 ba bc 07 80 dc bb de 7f da bc
       -0.0075065396 -0.022784367 -0.0067291292 -0.0266723
000350 7b 74 30 3c b8 23 20 3d dc 73 d0 bb 71 46 40 bc
       0.010769959 0.039096564 -0.0063614678 -0.011735545
000360 ad 1b a5 bb b3 fd d9 bc 0f 57 b8 3c ff b7 95 3b
       -0.0050386996 -0.026610231 0.02250245 0.004569053
000370 48 0d 2d 3d 8f 52 0c 3d ff 8d 6c bc 44 03 bc 3b
       0.042248994 0.03425842 -0.014438151 0.005737694
000380 c8 87 05 3d 56 3f 7f 3c 4e bf 10 3d 2c 63 52 3c
       0.032600194 0.015579065 0.035338692 0.012841027
000390 fb e0 b1 bc 63 c3 0a bd 95 03 cd 3c 1c cb b6 3c
       -0.021713724 -0.03387774 0.025026122 0.022313647
0003a0 35 5e 0d 3d 61 f6 13 ba 80 21 10 3d ff 31 99 3c
       0.03451367 -0.00056443183 0.035188198 0.018700598
0003b0 51 d2 95 bc 2f 24 97 3c 21 d6 fd 3c c6 18 65 3c
       -0.018288763 0.01844987 0.030985894 0.013982957
0003c0 55 99 f7 bc 66 59 38 3d f1 b9 44 bc b8 e7 7f bb
       -0.030224482 0.045007132 -0.0120072225 -0.0039048027
0003d0 90 b7 08 3b 26 33 0a bc f1 be 20 3c 2f 43 44 bc
       0.0020861365 -0.008435046 0.009811149 -0.011978908
0003e0 8a 94 a2 3b a9 d6 b4 3c 68 11 17 3c 19 3c 18 3c
       0.004961555 0.022075014 0.009220459 0.009291672
0003f0 f2 48 a1 3b 22 13 16 bd d1 8d 48 bc a4 b3 98 3c
       0.004922026 -0.03663934 -0.012240843 0.018640347

spectral.conv4.conv.bias f4 [12]
000000 7e 51 b1 bd 00 d6 4e bc dc 4f 32 3d 53 73 1b bc
       -0.086581215 -0.012624264 0.04353319 -0.009487945
000010 63 8c a5 bc 7b 78 b0 3c 02 8a 95 3b 26 1b 5e bd
       -0.020208543 0.021541825 0.004563571 -0.05422511
000020 9e 82 97 3c 27 fb b4 bd bb 35 d3 bd bd 29 9d 3d
       0.0184949 -0.08836966 -0.10312983 0.076739766

spectral.conv4.bn.weight f4 [12]
000000 67 71 7a 3f 37 43 80 3f f3 db 82 3f 9b 5f 7f 3f
       0.9782929 1.0020512 1.0223373 0.9975526
000010 14 44 85 3f 21 8c 84 3f db 69 7e 3f 9c 2c 83 3f
       1.0411401 1.0355264 0.9938027 1.0247989
000020 ee d9 81 3f 6a 51 82 3f c7 e8 88 3f 80 02 81 3f
       1.0144632 1.0181096 1.0696038 1.0078888

spectral.conv4.bn.bias f4 [12]
000000 af 93 08 bd f6 f2 81 3b 79 8e d0 bb 83 2d db 39
       -0.033343967 0.003965731 -0.0063646403 0.00041804844
000010 7b 35 2b 3d de c9 f1 3b 69 13 dd bb 2d 58 5f 3c
       0.04179905 0.007378801 -0.0067466986 0.013631863
000020 71 fb 2c 3b a8 70 28 3b 37 0e 23 3d a8 b5 11 bb
       0.0026394988 0.0025701914 0.03980848 -0.002223352

spectral.conv4.bn.running_mean f4 [12]
000000 9c f0 09 be 60 dd 30 3e 8b a5 6a 3e 1f 52 47 be
       -0.13470691 0.17271948 0.22914712 -0.1946492
000010 f9 9b 1d bd 2a e3 01 be 87 52 0f be fa 53 51 bd
       -0.038478825 -0.12684312 -0.13996325 -0.051105477
000020 6c 05 70 3d c9 5f 29 be dd 0c 9b be 01 6a c4 3e
       0.05859892 -0.16540445 -0.3028325 0.38362125

spectral.conv4.bn.running_var f4 [12]
000000 f3 e3 89 3c 72 64 02 3d d3 de 80 3c 8e 11 f8 3c
       0.016832327 0.031834073 0.01573125 0.030281808
000010 d4 13 0f 3c c9 ec 72 3c 7d d4 e7 3c 5e e2 bc 3c
       0.008732755 0.014826962 0.028299564 0.023057159
000020 3c c7 b0 3c f2 e0 3c 3c 88 08 b6 3c 18 02 2b 3d
       0.021579377 0.0115282405 0.022220865 0.041750044

spectral.conv5.conv.weight f4 [24, 36, 1, 1, 49]
000000 34 6e 42 bc 17 9d 98 bb 7e e2 4a 3d 14 f4 f4 bc
       -0.011867095 -0.0046573984 0.049532406 -0.029901542
000010 d1 0f 29 bd 9e 3d 17 3c 26 e1 04 bd 72 17 b0 3c
       -0.04127485 0.009230999 -0.03244128 0.021495555
000020 ca 6e a4 3b 8f ff 94 bb e9 91 a3 bc 49 5b a5 3c
       0.00501809 -0.0045470665 -0.019967036 0.02018513
000030 0a 3b 75 3c a0 38 ae 3c 47 8e 8d 3c 53 1a 49 39
       0.014967689 0.021267235 0.017279757 0.0001917866
000040 fe a7 2a 3c 78 84 d1 3c 10 34 d4 3c 56 33 bb bb
       0.010416029 0.025575861 0.025903732 -0.005712907
000050 6d d1 1f 3c 29 a2 19 bc c1 2b 29 bc 4d f3 3d bb
       0.009754521 -0.009377041 -0.010325373 -0.002898413
000060 c2 da 7b 3c 24 24 d4 3b 6a 47 19 3c 2a b9 03 bc
       0.01537198 0.006474035 0.009355405 -0.008039752
000070 dd d7 35 bc c6 40 68 3b a2 8d 02 bd 5b ad 67 bc
       -0.011098829 0.0035438999 -0.031873353 -0.014140452
000080 48 49 e9 bc bd 9a 23 bd 7f 65 3c bb d5 03 0a 3c
       -0.028477326 -0.03994249 -0.002874702 0.008423765
000090 16 f7 90 bc 88 c1 b5 bc 9e 1e 5c bc f0 5a 80 bd
       -0.017695945 -0.02218701 -0.013435034 -0.06267345
0000a0 2c 5c 5e bc 02 f2 1f bb f9 8a 5f bc 6a 9b ea bc
       -0.01357178 -0.0024405723 -0.0136439735 -0.02863856
0000b0 39 9f 34 bd 6a 5d aa bb d6 f6 97 3b e1 45 b0 b9
       -0.04409716 -0.005199124 0.0046375794 -0.000336214
0000c0 65 21 8a 39 80 28 5c bc 34 77 c3 3c 4c ec 21 3b
       0.00026346292 -0.01343739 0.023860551 0.0024707494
0000d0 ad ff b3 bc 5a ce 72 bc 9a 67 98 3a 0d 7f a0 bb
       -0.021972502 -0.014819706 0.0011627555 -0.004897958
0000e0 c4 5e cd 3c ae 21 6f bc d4 e1 9b bb 31 cc 91 bc
       0.025069602 -0.014595432 -0.0047571454 -0.017797561
0000f0 a9 41 7e bc a4 17 31 bc 2f 27 16 bb 20 29 59 bb
       -0.015518584 -0.010808859 -0.0022911539 -0.0033136085
000100 a9 6c c2 ba e4 cd 3b bc 1a fb ec bc 62 7f 32 bc
       -0.0014833409 -0.011462662 -0.028928328 -0.010894628
000110 f6 13 f8 bc da 9e a5 bc 43 db 25 bd 5e a0 0a 3c
       -0.030282956 -0.020217348 -0.040492307 0.008461086
000120 70 0a a1 bb 5e 98 46 bd 91 b2 d6 bc 60 9c 5b bc
       -0.0049145743 -0.048485152 -0.026208194 -0.013403982
000130 ec cb d7 bb 5c b6 d8 bb c2 ff aa 3c c5 c7 1d 3c
       -0.0065855887 -0.006613536 0.020873908 0.009630148
000140 b1 14 a7 bb 29 70 ba bc ca 64 81 3c 9d 0b ea bb
       -0.005098902 -0.02275856 0.01579513 -0.0071424977
000150 69 13 6c 3c f0 83 3e bc fa 5e 4a 3c 03 31 b6 bc
       0.014408925 -0.011628136 0.012351746 -0.022240167
000160 f9 dd 9c b9 4b 62 8a bc ea 22 31 bd cd c7 91 ba
       -0.0002992002 -0.016892573 -0.043246187 -0.0011122167
000170 c4 51 4d 3b 5a 36 65 3d f4 89 c3 bc 51 7b 19 3d
       0.0031329254 0.055960037 -0.023869492 0.03747112
000180 36 6d 2d 3d fa e2 98 3b 4b d2 0e 3d 2e 86 f0 bc
       0.04234048 0.0046657296 0.03486852 -0.029360857
000190 75 f8 0b 3d 2e 97 30 bd 51 03 77 bc f5 c4 5c 3a
       0.034172494 -0.043112926 -0.015076474 0.0008421683
0001a0 66 09 44 bb 4d 2d 39 3a 98 c8 b1 3c 41 8a c2 bc
       -0.0029912828 0.000706394 0.021702096 -0.023747565
0001b0 ff 8a b7 bc a7 55 40 3c 20 79 b2 3c 95 91 a6 3c
       -0.022405146 0.011739171 0.021786273 0.02033309
0001c0 f8 21 c8 ba 9d a7 9e bb 8f 87 6e bc 58 d3 78 ba
       -0.0015268913 -0.0048417584 -0.014558687 -0.0009491942
0001d0 95 d4 22 3c c7 76 17 3d fd be cb 3b d1 41 0d 3c
       0.009938379 0.03697851 0.006217836 0.008621649
0001e0 1a 6b 2b 3b ef 0f 0a ba db 76 9f bb 41 63 00 3c
       0.0026156367 -0.00052666565 -0.0048664636 0.007836164
0001f0 c2 8d 1e bd c8 5c 88 3b 38 94 dd b8 b7 76 a0 bc
       -0.03870941 0.004161451 -0.00010565709 -0.019587858
000200 d1 7e 92 3b 27 0e e4 bc c0 a2 cd 3c 1b dd 00 bd
       0.004470684 -0.02783878 0.02510202 -0.031460863
000210 de 70 31 3c f2 9d 2b 3b 5f 23 d8 bc c4 98 00 bc
       0.010830132 0.0026186672 -0.026384054 -0.007848922
000220 8c e4 3c bd 89 76 13 bd 03 51 d4 bc 77 1d d0 3c
       -0.046116397 -0.036001716 -0.025917536 0.025404675
000230 e1 d1 45 3b 51 29 82 3c 5c 77 d3 bb 06 99 f9 3b
       0.0030184912 0.015888842 -0.0064534377 0.007617119
000240 f4 67 28 bb af 74 14 bc 9a 3d 25 bd 69 79 22 bd
       -0.0025696727 -0.009061023 -0.04034195 -0.039666567
000250 bf 65 86 3a 13 50 1e bd 69 81 22 3b 43 f5 3f 3c
       0.0010253711 -0.038650583 0.0024796373 0.01171619
000260 27 67 21 bc e2 b0 98 bb 1e 63 67 bc 40 c4 b3 b9
       -0.009851254 -0.004659758 -0.0141227525 -0.00034287758
000270 7d 34 24 bc 9a 04 a0 3b df 38 87 3b ed a8 68 bb
       -0.01002228 0.004883361 0.0041266526 -0.0035501078
000280 92 fd a2 3c dc 3a 20 bd 66 6c df 3c 47 85 0c bc
       0.019896302 -0.039118633 0.027273368 -0.008576698
000290 c0 41 ea bc a2 64 3f bb 0d fb 1c bd ac 38 9b bc
       -0.028595805 -0.002920427 -0.03832536 -0.018947922
0002a0 99 cd 78 3c f7 62 cc 3a 72 4e ab bc 03 9e 1d bb
       0.015185737 0.0015593459 -0.02091143 -0.002405048
0002b0 24 0e 04 3c 61 8a a0 bb 64 70 e3 bc f3 7c 6f bc
       0.008060012 -0.0048993086 -0.027763553 -0.014617193
0002c0 a1 e1 03 bc ed 3a cd bc 4a d2 a0 3c 45 ff 8d bc
       -0.0080494 -0.025052512 0.019631524 -0.017333636
0002d0 c5 c5 89 3c 32 73 61 bc 01 c5 6e bd 0d 6e 83 bc
       0.016817937 -0.013760375 -0.058293346 -0.016043687
0002e0 2c 20 ed 3c 85 31 25 39 3a 79 f3 bc 4c b9 34 3c
       0.028946005 0.00015754074 -0.029720891 0.011030506
0002f0 bf 20 0c bd e5 13 6f 3c 3d 88 49 3c 20 d2 8a bc
       -0.034210917 0.014592146 0.012300548 -0.016945899
000300 2d 94 fe 3b a4 84 a0 bc e4 17 17 3c fb 14 a4 bc
       0.007769129 -0.019594498 0.009222005 -0.020029536
000310 1d 39 88 3c 08 88 0c bc 0f ed 14 bd 73 ac 52 bc
       0.016628796 -0.008577354 -0.03635889 -0.012858498
000320 b4 9f 97 bc 68 09 b4 3c 28 16 85 bc 84 93 5a bc
       -0.01850877 0.021977141 -0.016245916 -0.0133408345
000330 2f e8 86 bc 07 8f 81 bc 9c 5f e2 bc 71 4e 6e 3b
       -0.016468136 -0.015815271 -0.02763348 0.0036362673
000340 33 b9 94 3c 18 6e a9 3b 23 80 98 bc dc 9c ff 3b
       0.018154716 0.005170595 -0.018615788 0.0078006815
000350 74 25 84 3b 30 30 ca bc 66 ab 0d bc 69 43 31 3c
       0.004032785 -0.02468118 -0.008646822 0.0108192945
000360 b6 46 97 ba 47 fd 0f bb e0 3b 14 3c ec 31 ad 3b
       -0.0011541459 -0.0021971033 0.009047478 0.005285492
000370 04 d4 ec 3b 6e af 86 3c 60 0b b8 3b a7 e5 f0 b9
       0.0072274227 0.016441073 0.0056165904 -0.00045947472
000380 b7 b2 d5 bb 3a d4 7e bc 6d fa 9d bc 0c 57 3a bd
       -0.0065215486 -0.015553528 -0.019284451 -0.04549317
000390 f6 21 80 3c 7d c4 57 3c 0e 61 10 bd 7d 14 b9 3c
       0.015641194 0.013169405 -0.03524881 0.022592777
0003a0 e1 62 51 bc 6d ec b7 bc a8 eb bf 3c eb 80 dc bc
       -0.012779922 -0.022451604 0.0234278 -0.026916942
0003b0 d1 3d 5e bc 74 38 7a bd 20 04 7e bc 1c 7d c9 3c
       -0.013564543 -0.061088994 -0.015503913 0.02459579
0003c0 3a 62 39 bc b4 39 9d 3c 66 55 66 b7 e0 da 9e bb
       -0.011314923 0.019192554 -1.3728952e-05 -0.0048478693
0003d0 fb 14 79 bc 99 d1 0f bc ac a5 98 bc 45 d3 e9 bc
       -0.015202756 -0.008777999 -0.018633686 -0.028543124
0003e0 25 f3 cc bc 7f ac 68 3a ca 89 37 bc 98 ac b3 bc
       -0.025018284 0.00088758016 -0.011202285 -0.021932885
0003f0 d1 b2 39 bd e7 f5 8a bb 4d 42 1c ba 12 8f 15 3d
       -0.04533655 -0.0042407396 -0.00059608073 0.036513396

spectral.conv5.conv.bias f4 [24]
000000 ea e5 9b 3c 9c 4c cd bc ae d9 42 3c c4 b3 ba bb
       0.01903053 -0.025060944 0.011892719 -0.0056976993
000010 72 a9 17 bc 00 ef 27 bc 00 34 c9 bc b7 98 b4 bb
       -0.0092567075 -0.010249853 -0.024560928 -0.005511369
000020 55 3c a0 3c 7b 7c 99 3c 0e d6 86 3b 5b 0b 21 bc
       0.019560019 0.018736115 0.004114873 -0.0098293675
000030 de 68 9c bc 58 96 c3 3a d5 06 02 3c 24 c8 0c 3b
       -0.019092973 0.0014922125 0.007936199 0.0021481598
000040 2d 72 45 3c 7b 47 5b bc 79 39 ba bc 7b ee a7 bc
       0.012051147 -0.0133837415 -0.022732483 -0.020499459
000050 47 8c c3 3c bc 9a 65 3c 96 fb 9a 3c 04 5a 6f bc
       0.0238706 0.014013942 0.018918794 -0.014608864

spectral.conv5.bn.weight f4 [24]
000000 6e 81 68 3f 37 16 6c 3f 5d 87 82 3f 5a 50 84 3f
       0.90822494 0.922214 1.019756 1.0337021
000010 e2 5f 7f 3f 3c 24 6f 3f e0 39 7e 3f e8 78 73 3f
       0.9975568 0.93414664 0.9930706 0.95106363
000020 f8 e8 60 3f 94 68 71 3f b5 c1 71 3f aa d5 77 3f
       0.8785548 0.943002 0.944362 0.968104
000030 7e bd 66 3f 20 c7 7c 3f 32 0b 7c 3f 7d c9 65 3f
       0.9013289 0.9874134 0.9845458 0.8976057
000040 0a 92 70 3f 35 06 6d 3f a8 9b 55 3f 7c af 78 3f
       0.9397284 0.92587596 0.8344064 0.9714277
000050 13 8b 76 3f b6 11 80 3f f6 aa 75 3f 18 c8 7d 3f
       0.9630596 1.0005405 0.9596399 0.99133444

spectral.conv5.bn.bias f4 [24]
000000 a5 79 99 bd b7 18 de bc 57 17 17 bc 83 30 17 bd
       -0.07493905 -0.027111394 -0.009221873 -0.0369115
000010 c0 eb 89 bd 8f 1c 0e bd d8 1b 52 39 22 80 17 bd
       -0.06734419 -0.034695204 0.00020037533 -0.03698743
000020 03 bd 8d bd cf da e0 bc 7e c2 59 bd 0d 56 7c bd
       -0.06920817 -0.027448086 -0.053163998 -0.061605502
000030 ce 5c a6 bd 0f 1b 55 bc 52 09 83 bc 93 99 80 bd
       -0.0812317 -0.01300694 -0.015995655 -0.06279292
000040 44 89 40 bd a1 3b 02 bd db 6a d8 bd 0a 6f 0f bd
       -0.047005907 -0.031795148 -0.10567256 -0.035018004
000050 a1 0f f4 bc fb f3 d1 bc ed 0b 65 bc 4d 4c 01 bd
       -0.029792609 -0.025629034 -0.013979894 -0.031566907

spectral.conv5.bn.running_mean f4 [24]
000000 f7 08 00 c0 93 ed b5 bf a7 2f c9 bf fe 53 e6 bf
       -2.0005472 -1.4213127 -1.5717667 -1.7994382
000010 a0 c0 7a 3f 77 70 75 bf 87 1c ff bf 22 fa de bf
       0.9795017 -0.9587473 -1.9930581 -1.7420084
000020 42 5e 2f bf 3c 35 02 c0 da 2c aa bf f2 d7 d1 bf
       -0.685032 -2.0344992 -1.3294938 -1.6394026
000030 29 0b bc bf f1 92 bd bf bd 83 5b bf bf 23 fe bf
       -1.4690906 -1.4810468 -0.8574789 -1.9854659
000040 da ff e3 bf e6 9c 3c bf 4c 87 99 bf 71 f6 b0 3d
       -1.7812455 -0.7367691 -1.1994414 0.08640755
000050 5c 96 87 bf c0 8b 2f bf 38 85 c5 bf 0b 0b ea bf
       -1.0592761 -0.68572617 -1.543128 -1.828462

spectral.conv5.bn.running_var f4 [24]
000000 9d e6 07 40 c9 51 8e 40 9c 1b 86 40 1f 20 f0 3f
       2.1234505 4.4474835 4.1908703 1.8759803
000010 a1 1e 85 40 ef 7a dd 3f 1e 58 d5 3f f9 e9 54 40
       4.159989 1.7303141 1.6667516 3.3267806
000020 2b 8e 81 40 47 be 86 40 0b c1 07 40 aa 0b 29 40
       4.0486045 4.210727 2.1211574 2.641337
000030 89 b4 9a 40 af c3 f4 3f 2d 20 be 3f 70 a0 4a 40
       4.834538 1.9122218 1.4853569 3.1660423
000040 35 b6 3c 40 79 5b 01 40 9c ab b7 3f d1 92 9e 3f
       2.948621 2.021208 1.4349246 1.2388555
000050 2d 4d 69 3f a1 9f 05 40 39 9f 20 40 b1 3f 12 40
       0.91133386 2.087868 2.5097182 2.2851374

spectral.bn.weight f4 [24]
000000 ff 61 8e 3f bc f5 89 3f 36 62 8c 3f 5a 72 8b 3f
       1.1123656 1.0778117 1.0967472 1.0894272
000010 30 3d 90 3f fb 71 8f 3f 09 20 88 3f 10 7b 90 3f
       1.1268673 1.1206659 1.0634776 1.1287556
000020 27 b8 8b 3f ad 7b 87 3f 96 d8 89 3f 02 63 8c 3f
       1.0915574 1.0584618 1.0769222 1.0967715
000030 8d 97 91 3f fb 36 8a 3f f3 55 88 3f f4 e8 95 3f
       1.1374375 1.0798029 1.065123 1.1711717
000040 43 30 90 3f 24 84 88 3f db 85 95 3f 8f 47 8a 3f
       1.1264728 1.0665326 1.1681474 1.0803088
000050 a8 56 8a 3f 1a fb 89 3f 60 62 89 3f 63 a5 8e 3f
       1.0807695 1.0779755 1.0733147 1.1144222

spectral.bn.bias f4 [24]
000000 58 35 cd 3d b1 49 04 3e 01 42 50 3e 67 b1 1e 3e
       0.1001994 0.12918736 0.20337678 0.15497361
000010 a8 b6 47 3e 39 94 33 3e 5d c6 00 3e ec 91 36 3e
       0.19503272 0.17537011 0.1257567 0.17829102
000020 a8 d9 f6 3d 91 17 b7 3d c6 53 0c 3e da 3c 32 3e
       0.120532334 0.08940042 0.13703832 0.17406026
000030 9d 5a 52 3e 04 c6 3a 3e e7 2e 29 3e 48 c1 3f 3e
       0.20542379 0.182396 0.16521798 0.18726075
000040 97 ad 19 3e f6 89 0c 3e 1c 70 4b 3e d8 7c 22 3e
       0.15007626 0.13724503 0.19866985 0.15867937
000050 3b 53 29 3e 3a 3b 35 3e b9 c8 d5 3d fc 1c 52 3e
       0.16535656 0.17698374 0.104386754 0.20518869

spectral.bn.running_mean f4 [24]
000000 66 ce 80 3f 85 1d 96 3f e9 ee 9c 3f cf 1d 87 3f
       1.0062988 1.1727759 1.226041 1.0555972
000010 e9 bb 85 3f 16 06 90 3f 09 5c 9c 3f 74 e5 97 3f
       1.0447971 1.1251857 1.2215587 1.1866899
000020 45 49 92 3f 1e a4 9f 3f 4b 0d 94 3f dc 7f 8c 3f
       1.142861 1.247196 1.1566557 1.097652
000030 a7 68 83 3f b2 0e 87 3f c2 24 a0 3f 81 1e 8c 3f
       1.0266312 1.055136 1.2511218 1.0946809
000040 05 2a 88 3f e6 65 98 3f 95 4f 6f 3f 8e a3 98 3f
       1.0637823 1.1906097 0.9348081 1.1924913
000050 b9 e6 a0 3f fc 50 97 3f 1b 6d 99 3f 07 fd 96 3f
       1.2570411 1.182159 1.1986421 1.1795968

spectral.bn.running_var f4 [24]
000000 8a e0 3a 40 d8 f7 72 40 47 89 9e 40 46 04 46 40
       2.9199548 3.7963772 4.9542575 3.0940108
000010 85 5d 4b 40 fb 76 8c 40 3f fa 85 40 16 41 71 40
       3.177583 4.389524 4.1867976 3.7695975
000020 89 05 51 40 f8 4c 66 40 d8 8b 99 40 e3 50 3b 40
       3.2659628 3.5984478 4.798321 2.926812
000030 67 82 2f 40 2a 19 9a 40 a9 9f de 40 42 d3 3e 40
       2.7423341 4.815572 6.95699 2.9816442
000040 16 21 9b 40 64 a2 9e 40 bb e6 85 40 d3 f7 aa 40
       4.847789 4.957323 4.1844153 5.342752
000050 ab d4 ba 40 c7 9b 9c 40 17 30 68 40 aa 09 6b 40
       5.8384604 4.894016 3.6279352 3.6724648
