checkpoints/model_epoch169.pth (torch, 752695 bytes, 210 tensors)

spectral.conv1.conv.weight f4 [24, 1, 1, 1, 5]
0.02064404 0.008262492 -0.030468013 -0.013035197 -0.010698434 0.023544662 -0.029297713 -0.03215428
0.013409531 -0.010264129 -0.011984528 -0.006287761 0.03761217 0.035254795 -0.015870055 -0.005291552
0.0024790072 -0.039267287 0.034136076 -0.008938468 0.0072381333 0.006209162 -0.024635881 0.00800509
-0.01807921 0.026381694 -0.0018072125 -0.051167488 0.058732904 -0.0037262107 -0.009031557 -0.043743476
0.023386274 0.015111732 -0.004964294 -0.028346678 -0.03925488 0.052327763 0.038390342 -0.010131715
-0.011946003 0.0019788577 0.012650853 -0.04375102 -0.013595012 0.019967169 -0.0039533144 -0.000633283
-0.04524275 0.011994176 -0.010189014 -0.05363079 0.007597681 0.0072219367 0.022839924 0.01821816
0.029356517 -0.056254886 -0.008465263 -0.009051671 -0.016879147 -0.012036586 0.012851767 -0.011771651
0.0038117953 -0.038355306 0.007608749 -0.018841408 0.013404688 0.01378385 -0.019163564 -0.023765504
-0.018050412 0.055457164 -0.020996263 -0.039825357 -0.015016756 0.0041942038 -0.015803367 0.03785198
-0.004560163 0.030462958 -0.020273076 -0.019887269 -0.011772317 -0.027635083 -0.050989993 0.00962679
0.04226081 -0.020569261 -0.01804781 0.013922463 -0.00619794 -0.0048174886 -0.022982446 -0.016744783
0.03071622 -0.0020707243 -0.060213253 -0.06430091 -0.016666286 -0.012082619 0.007006671 0.03406121
0.020704532 0.009901686 0.011577749 0.019742237 -0.0433223 -0.011785005 0.0027893013 -0.0061009624
0.0004338408 0.01600685 -0.03492988 -0.068629265 -0.04869476 -0.0045256848 0.028670786 -0.03142266
00000000: b11d a93c 675f 073c 0e98 f9bc 9491 55bc
00000010: 7c48 2fbc bce0 c03c c201 f0bc 35b4 03bd
00000020: a6b3 5b3c e12a 28bc c15a 44bc 9009 cebb
00000030: 380f 1a3d 5567 103d eb01 82bc c164 adbb
00000040: d776 223b bcd6 20bd 45d2 0b3d a772 12bc
00000050: dd2d ed3b 3a76 cb3b 30d1 c9bc c827 033c
00000060: da1a 94bc 6c1e d83c fddf ecba 0095 51bd
00000070: ea91 703d 7133 74bb 18f9 13bc 5c2c 33bd
00000080: 9294 bf3c 3397 773c 84ab a2bb 4b37 e8bc
00000090: bac9 20bd a355 563d 313f 1d3d 7eff 25bc
000000a0: 2bb9 43bc b9af 013b 8645 4f3c 4534 33bd
000000b0: 9dbd 5ebc 3092 a33c ce8a 81bb e702 26ba
000000c0: 7650 39bd 3883 443c d2ef 26bc f6ab 5bbd
000000d0: f8f5 f83b ffa5 ec3b cb1a bb3c 403e 953c
000000e0: 147d f03c 866b 66bd e3b1 0abc 764d 14bc
000000f0: 2346 8abc 1a35 45bc 3890 523c e2dd 40bc
00000100: 50cf 793b 741a 1dbd d052 f93b 4c59 9abc
00000110: 569f 5b3c a8d5 613c e8fc 9cbc e0af c2bc
00000120: 75de 93bc 0d27 633d 5b00 acbc ea1f 23bd
00000130: d708 76bc 886f 893b 1076 81bc ae0a 1b3d
00000140: 6b6d 95bb 748d f93c b913 a6bc a0ea a2bc
00000150: ade0 40bc f862 e2bc e2da 50bd afb9 1d3c
00000160: ac19 2d3d de80 a8bc 00d9 93bc 0b1b 643c
00000170: 1718 cbbb 06dc 9dbb af45 bcbc 5b2c 89bc
00000180: 95a0 fb3c fdb4 07bb 2ca2 76bd 32b0 83bd
00000190: bc87 88bc 2df6 45bc 3798 e53b c483 0b3d
000001a0: 8d9c a93c ae3a 223c 99b0 3d3c 79ba a13c
000001b0: b972 31bd e515 41bc b6cc 363b 95ea c7bb
000001c0: 2075 e339 cc20 833c a212 0fbd 808d 8cbd
000001d0: 2874 47bd 324c 94bb ffde ea3c 0cb5 00bd

spectral.conv1.conv.bias f4 [24]
-0.23804565 -0.40973476 0.15935883 -0.34813863 -0.34683126 0.3309255 -0.027596084 -0.08138445
0.271414 0.13895871 -0.20712163 -0.18929917 0.24727105 0.29491112 0.09296971 -0.06779626
0.3780747 0.31196806 -0.32283613 -0.02087556 -0.31460315 0.24974956 0.20731823 0.045429002
00000000: 3dc2 73be c1c8 d1be f62e 233e 3a3f b2be
00000010: de93 b1be 116f a93e 2f11 e2bc e4ac a6bd
00000020: c7f6 8a3e 314b 0e3e b117 54be a4d7 41be
00000030: 9f34 7d3e 97fe 963e e766 be3d c4d8 8abd
00000040: 0293 c13e 47ba 9f3e c74a a5be 3903 abbc
00000050: aa13 a1be 59be 7f3e 3b4b 543e c313 3a3d

spectral.conv1.bn.weight f4 [24]
0.9723481 0.95171916 0.973644 0.9544794 0.9282104 0.9091456 0.9981424 1.037035
1.011134 0.99210954 0.9717502 0.99605656 0.980939 0.9872001 0.97833896 1.0019286
0.9999004 0.9894956 0.9778706 0.9777529 0.997195 0.9645517 0.98448706 0.9652995
00000000: ceeb 783f dea3 733f bc40 793f c358 743f
00000010: 329f 6d3f c4bd 683f 4386 7f3f 90bd 843f
00000020: d76c 813f e4fa 7d3f 9fc4 783f 90fd 7e3f
00000030: d11e 7b3f 25b9 7c3f 6c74 7a3f 323f 803f
00000040: 79f9 7f3f 954f 7d3f ba55 7a3f 044e 7a3f
00000050: 2c48 7f3f dcec 763f 5807 7c3f de1d 773f

spectral.conv1.bn.bias f4 [24]
-0.049535096 -0.03004071 -0.03103928 -0.04422599 -0.05657923 -0.046699926 -0.00372178 0.042296425
-0.017419953 0.024196189 -0.0077048573 -0.02556784 -0.007495674 -0.024274189 -0.0132741295 -0.005225631
0.016086798 -0.03928102 0.0045517245 -0.020073626 0.018350955 -0.028444927 -0.023539035 -0.0044686594
00000000: 50e5 4abd ef17 f6bc 1746 febc 5026 35bd
00000010: 9fbf 67bd 6c48 3fbd 1be9 73bb 043f 2d3d
00000020: 4ab4 8ebc 1637 c63c 0779 fcbb a673 d1bc
00000030: 459e f5bb aada c6bc bc7b 59bc c53b abbb
00000040: 76c8 833c 23e5 20bd a226 953b 7271 a4bc
00000050: be54 963c 5605 e9bc efd4 c0bc d56d 92bb

spectral.conv1.bn.running_mean f4 [24]
-30.25609 -41.836304 45.71565 -19.233315 -25.38189 33.796143 -21.568436 15.516908
-64.73968 -20.728544 -29.012896 -32.848213 -28.039345 -23.853563 -30.109583 -31.401567
-30.575415 -52.952625 -45.560757 -132.18205 38.022175 -16.665613 -25.54094 -144.45326
00000000: 790c f2c1 6058 27c2 d3dc 3642 d4dd 99c1
00000010: 1c0e cbc1 402f 0742 288c acc1 4145 7841
00000020: b77a 81c2 0fd4 a5c1 691a e8c1 9264 03c2
00000030: 9450 e0c1 19d4 bec1 6de0 f0c1 6936 fbc1
00000040: 739a f4c1 7dcf 53c2 373e 36c2 9b2e 04c3
00000050: b516 1842 2d53 85c1 d853 ccc1 0974 10c3

spectral.conv1.bn.running_var f4 [24]
622.3746 1160.0581 1408.1572 241.9341 424.04315 743.15424 318.5785 202.33743
2820.634 304.18954 591.65643 740.99365 536.7359 414.67154 619.1881 703.20123
648.4002 1911.67 1360.684 11688.894 1012.51025 209.8179 443.75436 13947.912
00000000: f997 1b44 dc01 9144 0805 b044 21ef 7143
00000010: 8605 d443 dfc9 3944 0c4a 9f43 6256 4a43
00000020: 254a 3045 4318 9843 03ea 1344 983f 3944
00000030: 192f 0644 f555 cf43 0acc 1a44 e1cc 2f44
00000040: 9d19 2244 71f5 ee44 e315 aa44 93a3 3646
00000050: a820 7d44 62d1 5143 8fe0 dd43 a6ef 5946

spectral.conv2.conv.weight f4 [6, 6, 1, 1, 5]
-0.050951637 -0.028429056 0.008151319 -0.0010981306 -0.057856712 0.042372644 -0.022189643 0.010871391
0.04199762 0.02966853 0.011313407 -0.0038895647 0.0106447805 0.025161052 0.018791277 -0.008035553
0.015760738 0.027252696 -0.05173223 -0.014021747 -0.0046639442 -0.0099403225 -0.004940382 -0.028921453
0.020678563 -0.025323391 -0.004100182 0.0012184583 0.022555895 -0.013704604 -0.05556368 0.0067201396
0.04035752 0.03095812 -0.026874386 -0.013988646 -0.012968462 0.02858323 0.023066223 0.02292799
0.04780904 0.049343005 0.03256052 0.017917713 0.019161317 0.02017408 0.008643662 -0.0316156
-0.030457497 0.0044946396 0.0030326054 -0.04387368 0.0082746055 -0.0013515726 0.011465165 0.053500175
0.07292396 0.044158287 0.005535237 -0.012722618 0.011747005 0.016968349 0.039988633 -0.006043253
0.006904765 0.00093534903 0.04051371 0.017053608 0.007889931 -0.014452329 -0.019382726 -0.014748759
-0.024098132 0.02773157 -0.015161823 0.010840891 -0.012040055 -0.046282317 -0.017323075 0.017041212
0.027389873 -0.025502943 0.0273891 0.0038064518 0.006532365 -0.027659992 0.0057726223 -0.03398352
-0.016076634 0.01783372 -0.0010879979 0.0014365138 -0.02409842 0.047260787 -0.00021758793 0.010775367
0.014655336 -0.035037275 0.033499744 -0.0073444434 0.013781367 0.0068008467 -0.022048682 -0.0045813983
0.029590664 -0.030968176 0.00054347387 0.066504985 -0.027679944 -0.0067600487 -0.004607661 -0.004169274
-3.497191e-05 0.025407622 -0.0022288356 -0.027952746 -0.019739937 -0.00054747285 0.0014016822 0.041849546
0.0018287764 -0.007346395 -0.0034546573 0.013317201 -0.0069563985 -0.038629718 0.040551957 0.008419071
0.009904205 -0.0012270757 0.06843279 0.028942175 0.044947345 0.0010543942 -0.013165224 -0.017099299
0.009196069 -0.0037679404 0.011246931 -0.015342218 -0.017377947 0.004635624 -0.0051892907 0.04850593
0.012542066 0.020367796 0.021959309 0.026450133 -0.027881203 -0.007409076 0.034119282 -0.017854368
0.0045563653 -0.01180558 -0.008386548 0.066011876 -0.022225985 -0.028633488 0.019112555 -0.038149077
0.0016573919 -0.015887192 -0.009940174 0.0047172555 -0.013462444 -0.027575074 -0.0037248456 0.030975636
-0.0154193835 0.0059657404 0.021586278 -0.007986863 -0.0022490562 0.016947301 -0.014518295 -0.0147230495
-0.018101012 0.014443219 -0.0098158475 0.0073162084
00000000: aab2 50bd 0de4 e8bc 1c8d 053c 26ef 8fba
00000010: 29fb 6cbd f08e 2d3d 0ec7 b5bc eb1d 323c
00000020: b205 2c3d 6b0b f33c de5b 393c 11e8 7ebb
00000030: 7267 2e3c 8d1e ce3c 2af0 993c 8da7 03bc
00000040: aa1c 813c 0c41 df3c 2de5 53bd 78bb 65bc
00000050: 00d4 98bb bcdc 22bc eee2 a1bb afec ecbc
00000060: 1766 a93c 0073 cfbc d25a 86bb adb4 9f3a
00000070: 24c7 b83c 4689 60bc be96 63bd 9e34 dc3b
00000080: ed4d 253d e29b fd3c ac27 dcbc a230 65bc
00000090: ac79 54bc 6127 ea3c 60f5 bc3c 7bd3 bb3c
000000a0: 69d3 433d e41b 4a3d 2e5e 053d 2bc8 923c
000000b0: 32f8 9c3c 1d44 a53c 259e 0d3c 5c7f 01bd
000000c0: 0082 f9bc c547 933b adbe 463b e3b4 33bd
000000d0: 3692 073c 4027 b1ba 63d8 3b3c 0023 5b3d
000000e0: 2859 953d 52df 343d ef60 b53b 8772 50bc
000000f0: 8376 403c 3501 8b3c 1fcb 233d 7b06 c6bb
00000100: 5e41 e23b 3632 753a b4f1 253d 02b4 8b3c
00000110: c544 013c 76c9 6cbc 86c8 9ebc c7a4 71bc
00000120: 7269 c5bc 512d e33c 4b69 78bc fe9d 313c
00000130: a743 45bc 8792 3dbd 1fe9 8dbc 039a 8b3c
00000140: ba60 e03c 8ceb d0bc 1b5f e03c aa75 793b
00000150: 730d d63b 3597 e2bc 4428 bd3b 4e32 0bbd
00000160: 25b3 83bc 0618 923c 279b 8eba 6849 bc3a
00000170: 0d6a c5bc 8794 413d 5128 64b9 2a8b 303c
00000180: ef1c 703c 3f83 0fbd 0737 093d a8a9 f0bb
00000190: 3ecb 613c a3d9 de3b 709f b4bc 8e1f 96bb
000001a0: 1f68 f23c f9b0 fdbc ea77 0e3a c433 883d
000001b0: 0dc1 e2bc 6683 ddbb ddfb 96bb 689e 88bb
000001c0: cdae 12b8 a523 d03c a811 12bb 28fd e4bc
000001d0: a6b5 a1bc 4884 0fba a6b8 b73a 6e6a 2b3d
000001e0: 8eb3 ef3a 07ba f0bb 8867 62bb 6430 5a3c
000001f0: 80f2 e3bb 323a 1ebd cf19 263d 25f0 093c
00000200: 3f45 223c d4d5 a0ba 7e26 8c3d 2418 ed3c
00000210: b51a 383d 9933 8a3a f4b2 57bc d413 8cbc
00000220: 1cab 163c 8def 76bb 0c45 383c ed5d 7bbc
00000230: 325c 8ebc 6fe6 973b ed0a aabb 27ae 463d
00000240: 3d7d 4d3c 5dda a63c 02e4 b33c f3ad d83c
00000250: 1f67 e4bc d6c7 f2bb a9c0 0b3d 5343 92bc
00000260: 904d 953b 316c 41bc bb67 09bc 3c31 873d
00000270: 4513 b6bc c790 eabc ef91 9c3c 3542 1cbd
00000280: d83c d93a db25 82bc 1ddc 22bc 3593 9a3b
00000290: 9591 5cbc 1fe5 e1bc 8a1c 74bb 9ec0 fd3c
000002a0: 95a1 7cbc 427c c33b b5d5 b03c 55db 02bc
000002b0: e764 13bb 11d5 8a3c 25de 6dbc f238 71bc
000002c0: 9348 94bc 40a3 6c3c a6d2 20bc cebc ef3b

spectral.conv2.conv.bias f4 [6]
-0.09307687 -0.17395285 0.1796194 -0.07146233 0.0042475425 -0.0040895524
00000000: 169f bebd b220 32be 26ee 373e d85a 92bd
00000010: f82e 8b3b a701 86bb

spectral.conv2.bn.weight f4 [6]
0.97515035 0.9883704 0.9871111 1.0439872 0.9431501 1.0284088
00000000: 74a3 793f d805 7d3f 50b3 7c3f 5fa1 853f
00000010: 4972 713f e6a2 833f

spectral.conv2.bn.bias f4 [6]
-0.049477827 -0.013529188 0.001047843 0.016347544 -0.054634463 0.02635596
00000000: 43a9 4abd 87a9 5dbc c757 893a 49eb 853c
00000010: 63c8 5fbd 74e8 d73c

spectral.conv2.bn.running_mean f4 [6]
-0.1061123 -0.05035938 0.18497315 -0.04584215 0.08502941 -0.025637282
00000000: 6851 d9bd a345 4ebd 9a69 3d3e fac4 3bbd
00000010: e623 ae3d 4705 d2bc

spectral.conv2.bn.running_var f4 [6]
0.012416017 0.012034783 0.002989109 0.00091183884 0.005950748 0.0011119967
00000000: 8d6c 4b3c 8a2d 453c ede4 433b 7808 6f3a
00000010: 7efe c23b 6bc0 913a

spectral.conv3.conv.weight f4 [12, 12, 1, 1, 5]
-0.019889815 -0.029198334 -0.017246656 -0.040474877 0.00546307 -0.0061420677 -0.031082388 -0.031393453
-0.033055395 -0.0035307845 -0.030842802 0.010232464 0.022347614 -0.019792793 0.01566275 0.011508533
0.0067261276 -0.009716177 0.03992187 0.012556498 -0.048509963 -0.016980246 -0.026147382 -0.0051468443
-0.00084104267 0.0052614347 -0.027831769 0.0042283144 -0.014365123 0.030121753 -0.009596414 0.006009636
0.009661096 0.00020067251 -0.016603854 0.020225031 -0.014654735 0.039405994 -0.024458673 0.010530247
0.02693941 -0.00567841 0.037846576 -0.020291451 0.029088022 -0.027892524 0.022349717 0.018065177
0.026233915 -0.0032010288 -0.016941175 -0.010280039 0.021685543 -0.012315038 0.033293474 -0.034314923
-0.040665634 -0.0005188487 0.011437807 0.04388478 -0.017822552 -0.016461926 -0.006028936 -0.03403253
0.00416474 -0.004048071 -0.0068372753 0.031205246 0.013484745 0.021127349 0.025510002 0.015630187
-0.013355083 -0.019390715 -0.061653234 -0.0038662308 0.019547028 0.004399589 -0.017723681 0.06106024
-0.014504906 -0.003401691 -0.0049750526 -0.0042086053 0.01757075 0.033502966 -0.027005086 0.013027977
-0.06790326 0.00019182569 0.0049275565 -0.0036642826 0.032401588 0.025058284 -0.0009448825 0.009380002
0.01811784 -0.037138637 0.01634306 -0.010650087 0.006140346 0.02334038 -0.01547891 -0.0070483065
-0.036682736 -0.0335067 -0.0069068773 0.00088878785 -0.008993028 0.017314387 -0.0019664816 0.043226134
0.048008088 -0.010978873 0.021566061 0.02201496 -0.02090732 0.015574168 -0.0120312 -0.0081918575
0.0015063785 0.012395013 0.013838004 -0.035831343 -0.018309673 -0.010022821 0.000119709905 -0.0038716793
0.0018859615 0.008209189 0.038687687 0.011625657 -0.026626987 0.0046593747 0.014031308 0.007184891
-0.045173045 0.055156924 -0.014159033 0.009994176 -0.0019430309 0.010482471 0.008193299 -0.013460052
0.018211275 -0.0079549095 -0.010084282 0.062217288 -0.0254067 0.009835113 -0.010629757 0.04335236
-0.0020214426 0.037583847 -0.010805999 0.0016834469 0.020053394 0.011793743 0.0135032935 0.029427806
0.015501639 0.02495349 0.0076280637 0.00647461 0.012903356 -0.02438485 0.0057730274 -0.037670393
0.011607497 0.023638614 -0.03141683 0.016424194 0.0004973523 0.0027050348 -0.022436785 0.023251887
-0.0295598 -0.0019978904 -0.0064540254 -0.0040196935 -0.0045263483 -0.026536271 0.01498011 -0.02882253
-0.016205316 -0.007516398 0.0057837474 0.00039467416 -0.020262808 -0.0046861023 -0.015617084 -0.019863514
-0.01373192 0.031742256 0.014749901 -0.02833201 -0.033522982 -0.02679348 0.0066203303 0.006417073
-0.020316713 -0.022052307 0.0006052723 0.015472785 0.011307517 -0.0024794322 -0.018107912 -0.047205195
-0.03195323 0.009832575 0.0032311184 0.018547032 0.012758268 -0.030449469 0.006201563 -0.027986128
0.0003407534 0.011868075 -0.020952871 0.03416174 0.017144445 -0.030350082 0.007511573 0.010829133
0.021485649 -0.02119097 -0.006194717 0.02403743 0.012718516 -0.0006309943 0.01356523 -0.06799761
-0.0023091172 -0.061013613 0.018093755 -0.019854026 -0.0035617019 -0.040449128 0.02234877 0.024563039
-0.014260308 0.0027523376 -9.453668e-05 0.040367845 0.00049468427 -0.005908249 -0.048946217 -0.005507822
-0.018081127 0.02195276 -0.038211968 -0.008254478 -0.013119692 0.020176023 0.03152582 -0.02617176
00000000: f7ef a2bc 5831 efbc dc48 8dbc fcc8 25bd
00000010: 8d03 b33b 6643 c9bb 7ea0 febc 6c96 00bd
00000020: 1865 07bd bc64 67bb 0baa fcbc 11a6 273c
00000030: 5812 b73c 7f24 a2bc 2b4f 803c 498e 3c3c
00000040: d966 dc3b 9a30 1fbc 1d85 233d c5b9 4d3c
00000050: 62b2 46bd 281a 8bbc 0933 d6bc dca6 a8bb
00000060: 6b79 5cba 1d68 ac3b 73ff e3bc ac8d 8a3b
00000070: b15b 6bbc e5c1 f63c 473a 1dbc 7bec c43b
00000080: 9349 1e3c 9e6b 5239 ce04 88bc f7ae a53c
00000090: 6a1a 70bc 2e68 213d 8e5d c8bc 0f87 2c3c
000000a0: 0ab0 dc3c f511 babb 0305 1b3d 423a a6bc
000000b0: 014a ee3c dd7e e4bc c116 b73c 6cfd 933c
000000c0: 82e8 d63c 5ac8 51bb 38c8 8abc 9c6d 28bc
000000d0: e1a5 b13c 03c5 49bc bd5e 083d ce8d 0cbd
000000e0: 0291 26bd 5903 08ba a465 3b3c 87c0 333d
000000f0: 9a00 92bc 29db 86bc 618e c5bb b265 0bbd
00000100: 5f78 883b aea5 84bb 390b e0bb 25a2 ff3c
00000110: 1fef 5c3c 4313 ad3c 5afa d03c e10a 803c
00000120: 47cf 5abc 47d9 9ebc 1a88 7cbd 9760 7dbb
00000130: 1721 a03c 6d2a 903b 4131 91bc 4d1a 7a3d
00000140: fca5 6dbc e8ee 5ebb c405 a3bb 57e8 89bb
00000150: 89f0 8f3c 683a 093d c539 ddbc 4c73 553c
00000160: dd10 8bbd d124 4939 5777 a13b 7624 70bb
00000170: 87b7 043d 0847 cd3c feb1 77ba 94ae 193c
00000180: dd6b 943c af1e 18bd e2e1 853c b47d 2ebc
00000190: f534 c93b 5334 bf3c 419b 7dbc 7bf5 e6bb
000001a0: a340 16bd 523e 09bd 1653 e2bb 8bfd 683a
000001b0: 7e57 13bc e7d6 8d3c 16e0 00bb e30d 313d
000001c0: 21a4 443d bbe0 33bc 4fab b03c b858 b43c
000001d0: d445 abbc cc2a 7f3c 831e 45bc 2437 06bc
000001e0: ad71 c53a 7414 4b3c ccb8 623c e3c3 12bd
000001f0: 2bfe 95bc c236 24bc c40c fb38 00bc 7dbb
00000200: 5e32 f73a d67f 063c fb76 1e3d 8a79 3e3c
00000210: d720 dabc abad 983b 92e3 653c 3c6f eb3b
00000220: 5f07 39bd 3aec 613d 4afb 67bc 9dbe 233c
00000230: 4cad feba acbe 2b3c 303d 063c 8d87 5cbc
00000240: d02f 953c 4f55 02bc 8b38 25bc 8ed7 7e3d
00000250: b621 d0bc 7423 213c 6f28 2ebc 3f92 313d
00000260: 2e7a 04bb 85f1 193d a50b 31bc 1ba7 dc3a
00000270: 0447 a43c 8b3a 413c eb3c 5d3c 9512 f13c
00000280: 96fa 7d3c 436b cc3c d6f4 f93b f728 d43b
00000290: 9968 533c bdc2 c7bc aa2b bd3b 454c 1abd
000002a0: 5f2d 3e3c c4a5 c13c efae 00bd 088c 863c
000002b0: bf60 023a f446 313b 59cd b7bc be7a be3c
000002c0: 6527 f2bc 0aef 02bb 4a7c d3bb a2b7 83bb
000002d0: c351 94bb 9862 d9bc 236f 753c 3a1d ecbc
000002e0: 03c1 84bc 1e4c f6bb 9785 bd3b 45ec ce39
000002f0: 30fe a5bc e08d 99bb ccde 7fbc cfb8 a2bc
00000300: d9fb 60bc 2b04 023d 92a9 713c 8818 e8bc
00000310: 654f 09bd 007e dbbc 5bef d83b 4f46 d23b
00000320: 3c6f a6bc 0aa7 b4bc 23ab 1e3a 9081 7d3c
00000330: 2a43 393c f87d 22bb 0b57 94bc 3c5a 41bd
00000340: 64e1 02bd cf18 213c 2cc1 533b f2ef 973c
00000350: 0e08 513c 2a71 f9bc 7b36 cb3b 2a43 e5bc
00000360: 26a7 b239 5072 423c 5ba5 abbc 2eed 0b3d
00000370: 8272 8c3c bca0 f8bc a423 f63b ad6c 313c
00000380: ac02 b03c af98 adbc 0dfd cabb 25ea c43c
00000390: 5361 503c 5069 25ba b340 5e3c 5542 8bbd
000003a0: 8f54 17bb 69e9 79bd 5b39 943c e9a4 a2bc
000003b0: 716b 69bb fcad 25bd c514 b73c 6d38 c93c
000003c0: 11a4 69bc 9060 343b fe41 c6b8 c158 253d
000003d0: b3ad 013a fc99 c1bb d47b 48bd f67a b4bb
000003e0: df1e 94bc 46d6 b33c 2784 1cbd ca3d 07bc
000003f0: faf3 56bc 3048 a53c 3821 013d 2966 d6bc

spectral.conv3.conv.bias f4 [12]
-0.000226664 -0.0074165096 -0.018592585 0.036461487 0.018176997 0.013918168 -0.10431151 -0.11677316
-0.01728968 0.1047534 -0.058829896 -0.07858136
00000000: a7ac 6db9 3106 f3bb 7a4f 98bc a458 153d
00000010: ede7 943c 0709 643c 46a1 d5bd c426 efbd
00000020: 16a3 8dbc f388 d63d 9ef7 70bd 44ef a0bd

spectral.conv3.bn.weight f4 [12]
0.9869084 1.0089477 1.0040418 1.0060872 1.0718617 1.0104465 1.0150856 1.0091354
1.0284612 1.006551 1.0379846 0.9960564
00000000: 07a6 7c3f 3325 813f 7184 803f 77c7 803f
00000010: c432 893f 5056 813f 53ee 813f 592b 813f
00000020: 9ea4 833f aad6 803f aedc 843f 8dfd 7e3f

spectral.conv3.bn.bias f4 [12]
-0.03205021 0.004700826 -0.000875919 0.0051323 0.02857228 -0.031919487 -0.04262228 -0.022392416
0.015996723 -0.006821055 0.008321629 0.012976063
00000000: 1547 03bd 6309 9a3b ee9d 65ba da2c a83b
00000010: 6a10 ea3c 02be 02bd b394 2ebd 4d70 b7bc
00000020: 8f0b 833c 2883 dfbb 7157 083c 8e99 543c

spectral.conv3.bn.running_mean f4 [12]
-0.048277147 0.0005395196 0.058290176 -0.099460095 -0.06000913 0.2157863 0.06953378 0.027942503
0.0011480635 0.025820166 -0.06271701 0.02688508
00000000: 42be 45bd 8c6e 0d3a aec1 6e3d bcb1 cbbd
00000010: 22cc 75bd 15f7 5c3e ba67 8e3d ade7 e43c
00000020: 9e7a 963a d084 d33c c771 80bd 193e dc3c

spectral.conv3.bn.running_var f4 [12]
0.0068847467 0.027306566 0.008224592 0.008092397 0.005737298 0.033522647 0.04036589 0.024588145
0.009865266 0.018517198 0.0047250306 0.014738334
00000000: 7199 e13b 05b2 df3c 70c0 063c f995 043c
00000010: f2ff bb3b 0b4f 093d b456 253d 146d c93c
00000020: eda1 213c 61b1 973c 6ed4 9a3b 0e79 713c

spectral.conv4.conv.weight f4 [12, 18, 1, 1, 5]
-0.010301076 0.018411921 0.020792577 -0.020111997 0.0042773522 0.012769407 -0.06103354 0.049551833
0.038315363 -0.020662816 0.013255342 -0.017275633 0.039648484 0.021678375 -0.022784714 -0.030510562
-0.044939563 0.012153009 -0.05252846 -0.022293303 -0.024889708 0.00907925 0.010022566 0.008410755
0.023068303 -0.034056574 0.020057717 -0.016568402 -0.033548243 -0.004691137 -0.01602871 -0.027828807
-0.0066415123 0.04409397 -0.034348786 -0.007653761 0.0005876254 -0.018113319 -0.0051751365 -0.006407127
-0.032840174 0.009215304 0.05026372 -0.017112445 -0.021542497 0.037275944 -0.054521646 -0.016305689
0.004934641 -0.029173747 0.019985488 -0.0059040305 0.025525043 -0.009612601 -0.026910732 -0.0073823463
-0.0008739199 -0.004094753 -0.028255781 -0.023592208 -0.0002566749 0.01925488 0.06723054 0.015007243
0.026224209 -0.016167019 0.04766456 -0.007899504 0.004283455 0.0020090798 -0.0065574707 -0.0005892008
0.0008121129 -0.021033691 -0.024341712 -0.028930647 0.023504723 0.010790472 -0.020659821 0.006636807
0.022877902 0.001369446 -0.020275358 0.003310309 -0.0016340769 0.0022692336 -0.028389199 0.026344037
0.019258559 0.009814515 -0.04961109 0.006804961 0.020598706 0.016193792 -0.00397091 -0.020632116
0.022635989 -0.006106997 0.011843548 0.027139215 -0.01828196 0.00759173 -0.008799031 0.039856203
0.008262897 0.012452253 0.033660483 0.011267534 0.025164383 0.039141867 -0.0050104633 0.0010035535
0.043524243 0.005039364 -0.0067705577 0.0051475116 0.051177226 0.006296884 0.00782005 0.025390718
-0.009061777 -0.0058653504 0.0017289923 0.040008403 0.023190461 0.0013104485 -0.020453744 0.00932863
0.03947744 0.0034812347 -0.026979953 0.013160406 0.018750373 -0.007928682 0.00049431407 0.022519177
0.022455847 0.012306162 -0.0013358898 -0.039428398 0.009015946 -0.024245316 -0.0041379724 0.033234354
-0.017961405 0.03087747 0.027260095 0.009927865 0.019430295 -0.0057393406 0.009270208 -0.010242575
0.027087102 0.004007084 0.027649427 -0.0255978 0.008852483 -0.0058684098 -0.004553281 0.006805722
-0.029884623 -0.020376973 0.017475583 -0.016843027 -0.007544423 0.009038599 -0.0020743962 -0.006377385
-0.0016552781 -0.0056982604 0.037809115 0.0167708 0.04265883 -0.011265056 0.029604798 0.0343894
-0.020664591 -0.0037738027 0.010950673 0.01284329 0.011006628 -0.009893591 0.009207821 -0.00075827684
0.018884689 -0.0034308971 0.004832273 0.0015980672 0.018651789 -0.005149005 -0.00095027307 0.040474143
-0.011565406 0.00682084 0.049048882 0.0023146998 0.0021373054 0.00095596723 0.007133032 0.050883032
0.0010444106 -0.005368679 -0.01904323 0.01194689 0.040665258 -0.00955006 0.013725595 0.022060744
0.0027091538 -0.011255519 0.00017924135 -0.018302256 0.019935649 0.04921463 0.006608541 0.0012250275
0.0060474537 -0.0124189565 0.033095125 0.018286576 0.04860458 0.03818832 -0.0033232437 0.014042756
0.03435439 0.0145469615 0.03721065 0.013998288 -0.022900844 -0.03333205 0.022645041 0.019675065
0.027113026 -0.009653043 0.030690894 0.020588243 -0.016909864 0.020704633 0.037918273 0.019349195
-0.029020507 0.045989294 -0.010952154 -0.003964302 0.0014508931 -0.006884149 0.0106474655 -0.010920884
0.0047963015 0.021103092 0.008189984 0.00829776 0.0042231693 -0.038602628 -0.013682267 0.016694292
00000000: d8c5 28bc 99d4 963c 3255 aa3c eac1 a4bc
00000010: 0829 8c3b c636 513c 4efe 79bd ddf6 4a3d
00000020: 92f0 1c3d 1145 a9bc ef2c 593c a185 8dbc
00000030: 7366 223d d996 b13c 02a7 babc 49f1 f9bc
00000040: 8c12 38bd 6a1d 473c 1528 57bd 72a0 b6bc
00000050: 80e5 cbbc 22c1 143c b035 243c 43cd 093c
00000060: bdf9 bc3c e87e 0bbd 1550 a43c 75ba 87bc
00000070: e269 09bd 1cb8 99bb a44e 83bc 3df9 e3bc
00000080: 0ba1 d9bb e19b 343d 50b1 0cbd 67cc fabb
00000090: e00a 1a3a 6262 94bc 3194 a9bb e0f2 d1bb
000000a0: 6b83 06bd c9fb 163c 55e1 4d3d 662f 8cbc
000000b0: e479 b0bc a9ae 183d 1752 5fbd 8293 85bc
000000c0: c5b2 a13b c8fd eebc 9bb8 a33c 9976 c1bb
000000d0: e519 d13c 2c7e 1dbc e573 dcbc 9ce7 f1bb
000000e0: c617 65ba 472d 86bb ab78 e7bc 7244 c1bc
000000f0: 5292 86b9 69bc 9d3c 2ab0 893d f0e0 753c
00000100: 27d4 d63c b270 84bc ea3b 433d ec6c 01bc
00000110: 3a5c 8c3b c4aa 033b 0de0 d6bb 9974 1aba
00000120: f9e3 543a d94e acbc 4568 c7bc f7ff ecbc
00000130: fa8c c03c 85ca 303c c93e a9bc 9379 d93b
00000140: 706a bb3c fc7e b33a 8218 a6bc c5f1 583b
00000150: 862e d6ba 6cb7 143b 7790 e8bc 73cf d73c
00000160: 20c4 9d3c 0fcd 203c 0035 4bbd 26fc de3b
00000170: 9ebe a83c d8a8 843c 681e 82bb af04 a9bc
00000180: 1c6f b93c 341d c8bb 710b 423c 0f53 de3c
00000190: 0dc4 95bc 0cc4 f83b d029 10bc 4240 233d
000001a0: 1a61 073c 8904 4c3c 93df 093d 779b 383c
000001b0: 8925 ce3c 3953 203d d02e a4bb ab89 833a
000001c0: 7a46 323d 4021 a53b 8edb ddbb 75ac a83b
000001d0: 369f 513d 1756 ce3b ab1f 003c 3200 d03c
000001e0: d977 14bc 2032 c0bb 5b9f e23a dadf 233d
000001f0: ecf9 bd3c 5bc3 ab3a 9c8e a7bc 1cd7 183c
00000200: 19b3 213d 6d25 643b 1005 ddbc be9e 573c
00000210: 629a 993c 4de7 01bc db94 013a 237a b83c
00000220: 53f5 b73c c99f 493c 0619 afba ac7f 21bd
00000230: 9eb7 133c 1d9e c6bc d497 87bb bf20 083d
00000240: cc23 93bc bff2 fc3c 9050 df3c 7ca8 223c
00000250: 482c 9f3c 1411 bcbb 12e2 173c 79d0 27bc
00000260: c5e5 dd3c db4d 833b 0d81 e23c 7ab2 d1bc
00000270: 010a 113c ca4b c0bb b033 95bb 8902 df3b
00000280: 99d0 f4bc 9ced a6bc f428 8f3c 63fa 89bc
00000290: 3537 f7bb a216 143c 98f2 07bb 62f9 d0bb
000002a0: ebf5 d8ba 79b8 babb bbdd 1a3d eb62 893c
000002b0: 06bb 2e3d 1291 38bc c385 f23c e6db 0c3d
000002c0: ca48 a9bc e751 77bb 746a 333c aa6c 523c
000002d0: 2555 343c ba18 22bc 67dc 163c 19c7 46ba
000002e0: 10b4 9a3c e7d8 60bb 0b58 9e3b 3d76 d13a
000002f0: a3cb 983c fcb8 a8bb bf1b 79ba 37c8 253d
00000300: d47c 3dbc 5a81 df3b 7be7 483d 38b2 173b
00000310: 0912 0c3b e099 7a3a 36bc e93b ba6a 503d
00000320: 9be4 883a beeb afbb 8c00 9cbc e3bc 433c
00000330: 9d90 263d db77 1cbc 51e1 603c bcb8 b43c
00000340: 0f8c 313b 1269 38bc bcf2 3b39 9dee 95bc
00000350: 1650 a33c 4895 493d 768c d83b 1a91 a03a
00000360: b829 c63b e178 4bbc c18e 073d bbcd 953c
00000370: 9915 473d 5b6b 1c3d c7ca 59bb 9613 663c
00000380: 30b7 0c3d 6156 6e3c 326a 183d 1359 653c
00000390: 8d9a bbbc 3087 08bd 1882 b93c 9a2d a13c
000003a0: 231c de3c cc27 1ebc 786b fb3c ada8 a83c
000003b0: 8e86 8abc c39c a93c 3150 1b3d 3482 9e3c
000003c0: 6abc edbc 455f 3c3d aa70 33bc fae6 81bb
000003d0: e52b be3a 6d94 e1bb b572 2e3c 82ed 32bc
000003e0: 4b2a 9d3b 64e0 ac3c 482f 063c 54f3 073c
000003f0: 8362 8a3b ca1d 1ebd 962b 60bc 78c2 883c

spectral.conv4.conv.bias f4 [12]
-0.09019461 -0.010611216 0.045795534 -0.010379347 -0.025466768 0.025372956 0.006157807 -0.05660005
0.017904075 -0.088664696 -0.106788605 0.07620323
00000000: f4b7 b8bd aada 2dbc 1994 3b3d 230e 2abc
00000010: af9f d0bc f2da cf3c 6ec7 c93b 74d5 67bd
00000020: 91ab 923c d695 b5bd fcb3 dabd 7010 9c3d

spectral.conv4.bn.weight f4 [12]
0.95934093 0.9990215 1.0418358 0.99976015 1.0452596 1.0432079 0.98641014 1.0325136
1.0255362 1.0267286 1.0879807 1.0111935
00000000: 5e97 753f dfbf 7f3f e05a 853f 48f0 7f3f
00000010: 11cb 853f d687 853f 6085 7c3f 6829 843f
00000020: c544 833f d86b 833f f442 8b3f ca6e 813f

spectral.conv4.bn.bias f4 [12]
-0.04817535 -0.000101181104 0.0018270981 -0.0025321653 0.050294876 0.0048532826 -0.007829745 0.013011164
-0.00262402 0.016467528 0.056318097 -0.005218796
00000000: 8453 45bd 3131 d4b8 3d7b ef3a aff2 25bb
00000010: 0002 4e3d 4908 9f3b 5548 00bc c72c 553c
00000020: c0f7 2bbb e9e6 863c cead 663d 6f02 abbb

spectral.conv4.bn.running_mean f4 [12]
-0.15489136 0.23117168 0.3070555 -0.20564929 0.001138116 -0.09961124 -0.1248033 0.037765305
0.12698612 -0.08154824 -0.2682624 0.46095055
00000000: d79b 1ebe 45b8 6c3e 6136 9d3e ba95 52be
00000010: d62c 953a fa00 ccbd df98 ffbd cbaf 1a3d
00000020: a608 023e c302 a7bd b059 89be b601 ec3e

spectral.conv4.bn.running_var f4 [12]
0.019291172 0.061540067 0.040172398 0.036051918 0.009272077 0.021270486 0.029223634 0.071519345
0.013921751 0.019670224 0.045065258 0.07975569
00000000: 8508 9e3c 7011 7c3d d08b 243d 2dab 133d
00000010: e9e9 173c 713f ae3c 6766 ef3c bc78 923d
00000020: 0e18 643c 7323 a13c 5996 383d f456 a33d

spectral.conv5.conv.weight f4 [24, 36, 1, 1, 49]
-0.031332057 -0.014774007 0.04452283 -0.03104476 -0.042472776 0.008681611 -0.03466748 0.022912892
0.0062388745 -0.00332536 -0.022361355 0.020486534 0.015769193 0.021749659 0.016657235 -0.00041547362
0.00931204 0.024640903 0.025701942 -0.006630114 0.010225364 -0.0075651505 -0.0077135437 -0.000102016376
0.017210117 0.008960871 0.012744336 -0.0063187173 -0.008563221 0.006928164 -0.029153967 -0.013497631
-0.03026919 -0.037937175 -0.00016769083 0.010518621 -0.018825084 -0.020356646 -0.010178312 -0.058729097
-0.009648207 -0.0062282854 -0.007612404 -0.02444229 -0.04041999 -0.002156721 0.008789514 0.004151202
0.0022108841 -0.0068812906 0.02879209 0.005797582 -0.01813754 -0.017063245 0.0012492432 -0.008804088
0.02440226 -0.016831294 -0.0054644705 -0.0192897 -0.017160796 -0.012104123 -0.0035574648 -0.0049359407
-0.0038367116 -0.014622822 -0.032129608 -0.014265173 -0.03347392 -0.021779679 -0.042261165 0.008466997
-0.0046964893 -0.04788729 -0.025328565 -0.011929843 -0.005399484 -0.0047264514 0.023468643 0.012013605
-0.004924109 -0.02535006 0.01358295 -0.01000452 0.010774811 -0.013797783 0.010319028 -0.024488322
-0.0027186628 -0.020197554 -0.04579441 -0.0038996914 -0.00019807195 0.052434612 -0.027948026 0.032801475
0.036277104 -0.00052094617 0.034609135 -0.021428848 0.040293727 -0.038909875 -0.00849276 0.0075311763
0.0038146155 0.006918689 0.025798956 -0.021575348 -0.01827481 0.014196107 0.023062838 0.020982686
-0.001191056 -0.0047544516 -0.014740022 -0.00089735514 0.009284898 0.036617782 0.006118158 0.008046792
0.0022092378 -0.0017901344 -0.005727616 0.006429022 -0.04176623 0.0014103062 -0.0039892877 -0.024188694
-0.00039170193 -0.03209915 0.02298586 -0.033157676 0.006953797 -0.0026800635 -0.029452115 -0.011766241
-0.050867777 -0.041022517 -0.033153422 0.026217645 -0.0003092495 0.013239088 -0.008400393 0.0066820625
-0.0040737763 -0.010634538 -0.038457867 -0.029447626 0.011751785 -0.037270512 0.010712182 0.010204922
-0.005674583 -0.008103433 -0.014189521 -0.0033854647 -0.010611821 0.0043737646 0.0031388858 -0.0043366784
0.019205531 -0.040161032 0.026573008 -0.011187901 -0.031316325 -0.005463925 -0.041631237 -0.020572735
0.01283675 0.0020433294 -0.019882211 -0.0008817853 0.009711076 -0.0012225531 -0.024487726 -0.010816962
-0.0030799445 -0.019073278 0.026252976 -0.01662261 0.01772184 -0.013863886 -0.06011965 -0.017934686
0.027904889 -0.0006198777 -0.030941363 0.009844088 -0.036323525 0.012746059 0.01053133 -0.019090518
0.005008245 -0.022643026 0.0033236225 -0.024998847 0.0025426121 -0.013193094 -0.03962896 -0.015044267
-0.021212665 0.019145718 -0.018338347 -0.014085057 -0.016235752 -0.016566094 -0.029374722 0.002749159
0.017905103 0.004476217 -0.019777462 0.006791887 0.0031432835 -0.025254192 -0.008986827 0.011441752
-0.00028437356 -0.00062388385 0.012029521 0.008242582 0.010070045 0.01992608 0.009552731 0.002945562
-0.002816232 -0.011904512 -0.01574182 -0.043913726 0.016902866 0.01612838 -0.032164402 0.026035715
-0.009497871 -0.01920025 0.026349448 -0.024348265 -0.011038071 -0.058583997 -0.012647348 0.027687479
-0.008147529 0.022541376 0.0035250597 -0.0014690742 -0.0108310785 -0.019120444 -0.021685723 -0.025178863
-0.018154236 0.0058084335 -0.005776276 -0.016357936 -0.038986966 0.0007240554 0.003695864 0.040644012
00000000: 0b56 00bd ad0e 72bc 925d 363d 9551 febc
00000010: eff7 2dbd 513d 0e3c 7dff 0dbd d1b3 bb3c
00000020: 796f cc3b 48ee 59bb 292f b7bc 60d3 a73c
00000030: 652e 813c 572c b23c c174 883c edd3 d9b9
00000040: 8791 183c b8db c93c e18c d23c 6d41 d9bb
00000050: 4988 273c 15e5 f7bb e5c1 fcbb a0f1 d5b8
00000060: 3bfc 8c3c 9ed0 123c 9fcd 503c 3e0d cfbb
00000070: c14c 0cbc a705 e33b 4dd4 eebc 2b25 5dbc
00000080: 18f7 f7bc 0364 1bbd 2ad6 2fb9 4b56 2c3c
00000090: 1037 9abc fbc2 a6bc efc2 26bc ec8d 70bd
000000a0: 8313 1ebc a516 ccbb 7971 f9bb 333b c8bc
000000b0: 6e8f 25bd c657 0dbb e501 103c ce06 883b
000000c0: 7be4 103b 737c e1bb 64dd eb3c a5f9 bd3b
000000d0: 2e95 94bc 38c8 8bbc a5bd a33a 063f 10bc
000000e0: 40e7 c73c c8e1 89bc 4d0f b3bb 6f05 9ebc
000000f0: cc94 8cbc 5f50 46bc 5b24 69bb acbd a1bb
00000100: 5771 7bbb 9094 6fbc 569a 03bd 79b8 69bc
00000110: f31b 09bd 4c6b b2bc 0b1a 2dbd 29b9 0a3c
00000120: 02e5 99bb 7725 44bd da7d cfbc 6375 43bc
00000130: 28ee b0bb 59e0 9abb 5041 c03c b6d4 443c
00000140: 6c5a a1bb eeaa cfbc 068b 5e3c 00ea 23bc
00000150: d588 303c 1910 62bc 2411 293c bc9b c8bc
00000160: 982b 32bb 5775 a5bc eb92 3bbd f791 7fbb
00000170: 89b1 4fb9 adc5 563d 42f3 e4bc d75a 063d
00000180: 4d97 143d 1b90 08ba 4fc2 0d3d 8d8b afbc
00000190: 090b 253d f65f 1fbd 3825 0bbc 16c8 f63b
000001a0: a1fe 793b 2bb6 e23b 5558 d33c c9be b0bc
000001b0: 0eb5 95bc ca96 683c 47ee bc3c e2e3 ab3c
000001c0: 351d 9cba 3bcb 9bbb 2280 71bc 7c3c 6bba
000001d0: af1f 183c 87fc 153d d47a c83b b1d6 033c
000001e0: dcc8 103b f1a2 eaba baae bbbb 8caa d23b
000001f0: 1113 2bbd 06da b83a 92b8 82bb 5e27 c6bc
00000200: 585d cdb9 667a 03bd d84c bc3c 58d0 07bd
00000210: addc e33b 01a4 2fbb 9045 f1bc 31c7 40bc
00000220: bb5a 50bd 3a07 28bd e2cb 07bd 63c6 d63c
00000230: c422 a2b9 c2e8 583c cda1 09bc 34f5 da3b
00000240: 507d 85bb 7c3c 2ebc ff85 1dbd 263c f1bc
00000250: 8f8a 403c f7a8 18bd 2682 2f3c 8c32 273c
00000260: daf1 b9bb 43c4 04bc 2a7b 68bc acde 5dbb
00000270: 34dd 2dbc cc51 8f3b c4b5 4d3b b21a 8ebb
00000280: eb54 9d3c e57f 24bd a3af d93c 754d 37bc
00000290: 8c45 00bd ba0a b3bb 8485 2abd 2788 a8bc
000002a0: 3b51 523c 61e9 053b 05e0 a2bc 9c27 67ba
000002b0: 341b 1f3c 133e a0ba 7c9a c8bc a139 31bc
000002c0: e5d8 49bb 903f 9cbc 7b10 d73c 242c 88bc
000002d0: 642d 913c 5a25 63bc 0640 76bd c3eb 92bc
000002e0: cb98 e43c 4a7f 22ba be78 fdbc 1949 213c
000002f0: fac7 14bd d9d4 503c 998b 2c3c b863 9cbc
00000300: 341c a43b de7d b9bc 22d1 593b 62ca ccbc
00000310: f4a1 263b d927 58bc fa51 22bd 3b7c 76bc
00000320: 2fc6 adbc 7bd7 9c3c 4d3a 96bc 03c5 66bc
00000330: d700 85bc 9eb5 87bc 42a3 f0bc 3c2b 343b
00000340: b9ad 923c 3bad 923b 5804 a2bc 7a8e de3b
00000350: 8cff 4d3b e1e1 cebc 7c3d 13bc 3076 3b3c
00000360: f917 95b9 238c 23ba 7817 453c e50b 073c
00000370: d4fc 243c 053c a33c 0f83 1c3c 540a 413b
00000380: 8890 38bb 240b 43bc fdf4 80bc e1de 33bd
00000390: e177 8a3c aa1f 843c d2be 03bd da48 d53c
000003a0: f59c 1bbc d849 9dbc ccda d73c 0376 c7bc
000003b0: 06d9 34bc c6f5 6fbd d336 4fbc dad0 e23c
000003c0: 377d 05bc b1a8 b83c b004 673b f38d c0ba
000003d0: d674 31bc 7aa2 9cbc 42a6 b1bc e743 cebc
000003e0: 31b8 94bc ac54 be3b ea46 bdbb 1401 86bc
000003f0: ccb0 1fbd 89ce 3d3a 4f36 723b 567a 263d

spectral.conv5.conv.bias f4 [24]
0.019326838 -0.025318649 0.011949196 -0.0060074097 -0.010834477 -0.009464732 -0.024944967 -0.0053974763
0.020308653 0.018456373 0.004920666 -0.009545625 -0.019569105 0.001828276 0.007878182 0.0023737752
0.011291349 -0.014022397 -0.024712175 -0.020710113 0.022555973 0.013560423 0.019707719 -0.014357151
00000000: 5153 9e3c 0e69 cfbc 90c6 433c ced9 c4bb
00000010: 1783 31bc f711 1bbc 6359 ccbc 50dd b0bb
00000020: 555e a63c d231 973c 8a3d a13b 4165 1cbc
00000030: 634f a0bc c3a2 ef3a 7e13 013c 5791 1b3b
00000040: 5aff 383c 32be 65bc 3071 cabc 41a8 a9bc
00000050: 4ec7 b83c 892c 5e3c 1572 a13c 423a 6bbc

spectral.conv5.bn.weight f4 [24]
0.8630429 0.9057922 1.0195563 1.0444207 1.0087012 0.9460756 0.9879805 0.918863
0.84630674 0.9331779 0.9435978 0.9582856 0.87428594 0.9778904 0.9532567 0.8683431
0.9198536 0.90294206 0.8088576 0.9568166 0.9532886 0.99450463 0.9462522 0.98109627
00000000: 61f0 5c3f ffe1 673f d280 823f 94af 853f
00000010: 1f1d 813f 0332 723f 4aec 7c3f 9b3a 6b3f
00000020: 8fa7 583f bfe4 6e3f a08f 713f 3552 753f
00000030: 34d1 5f3f 0657 7a3f a208 743f bc4b 5e3f
00000040: 877b 6b3f 3627 673f 4b11 4f3f eff1 743f
00000050: b90a 743f db97 7e3f 963d 723f 2029 7b3f

spectral.conv5.bn.bias f4 [24]
-0.1073537 -0.03766645 -0.008848891 -0.039042298 -0.06828757 -0.02413538 -0.0002841498 -0.06360997
-0.066091664 -0.02286233 -0.06359172 -0.06558975 -0.08695824 -0.019273682 -0.030896684 -0.08318769
-0.061592963 -0.047561377 -0.12094621 -0.045429386 -0.033863265 -0.028981637 -0.014650432 -0.018833917
00000000: 42dc dbbd 2348 1abd f0fa 10bc d1ea 1fbd
00000010: 5ada 8bbd 8fb7 c5bc f1f9 94b9 f245 82bd
00000020: 115b 87bd c849 bbbc 603c 82bd eb53 86bd
00000030: 2917 b2bd d7e3 9dbc 0b1b fdbc 4f5e aabd
00000040: e748 7cbd b8cf 42bd a6b2 f7bd 2a14 3abd
00000050: 35b4 0abd e66a edbc 5e08 70bc 9649 9abc

spectral.conv5.bn.running_mean f4 [24]
-2.076255 -1.5810039 -2.4661095 -2.5240715 2.885117 -0.58171695 -0.955063 -2.832633
0.94975233 -2.269026 0.1856872 -1.7590544 -1.829664 -2.4984477 -2.8392642 -2.4238596
-1.3787737 -1.9950508 -2.0202146 -0.8679255 -1.0764763 -1.4550831 -3.181674 -3.379818
00000000: 5de1 04c0 565e cabf bdd4 1dc0 638a 21c0
00000010: c2a5 3840 67eb 14bf 027f 74bf dc49 35c0
00000020: f822 733f b937 11c0 c924 3e3e b228 e1bf
00000030: 6e32 eabf 91e6 1fc0 81b6 35c0 8420 1bc0
00000040: a87b b0bf d35d ffbf 324b 01c0 5e30 5ebf
00000050: fac9 89bf 2a40 babf 8ca0 4bc0 f04e 58c0

spectral.conv5.bn.running_var f4 [24]
1.7199754 4.5228806 5.2629113 3.8894491 13.20581 3.1190155 2.7631977 8.379762
4.8283863 8.011496 2.9649909 4.4623833 5.09852 7.2260346 4.988438 4.0263553
7.1413083 8.2347555 2.1600301 5.911651 4.779485 9.979025 5.2836657 6.823386
00000000: 2728 dc3f 70bb 9040 c569 a840 bcec 7840
00000010: ff4a 5341 f39d 4740 3bd8 3040 8113 0641
00000020: 2482 9a40 162f 0041 69c2 3d40 d8cb 8e40
00000030: 1327 a340 ad3b e740 49a1 9f40 e7d7 8040
00000040: 9985 e440 8fc1 0341 ef3d 0a40 3f2c bd40
00000050: 8bf1 9840 16aa 1f41 ca13 a940 2e59 da40

spectral.bn.weight f4 [24]
1.1269692 1.0544511 1.0863631 1.0764567 1.1249884 1.142376 1.0664524 1.139298
1.0919513 1.045346 1.0701276 1.0828522 1.1390929 1.0621989 1.0530605 1.1804482
1.1505232 1.0487201 1.1771696 1.0806403 1.0713671 1.0672232 1.0688031 1.1112014
00000000: 8740 903f 41f8 863f f20d 8b3f 55c9 893f
00000010: 9fff 8f3f 6039 923f 8381 883f 84d4 913f
00000020: 0fc5 8b3f e6cd 853f f1f9 883f e79a 8a3f
00000030: cccd 913f 22f6 873f b0ca 863f ed18 973f
00000040: 5844 933f 763c 863f 7ead 963f 6c52 8a3f
00000050: 8f22 893f c59a 883f 8ace 883f d93b 8e3f

spectral.bn.bias f4 [24]
0.10900006 0.11916135 0.21510237 0.16536309 0.2225886 0.21838497 0.16027856 0.20543557
0.14622432 0.08412759 0.14533876 0.18728736 0.2320944 0.18793097 0.18891995 0.20884702
0.18114187 0.13782682 0.22914742 0.15492588 0.1747232 0.18868874 0.10784414 0.22013637
00000000: 6c3b df3d de0a f43d cc43 5c3e f154 293e
00000010: 44ee 633e 4fa0 5f3e 1020 243e b45d 523e
00000020: d4bb 153e 164b ac3d afd3 143e 42c8 3f3e
00000030: 28aa 6d3e fa70 403e 3b74 413e fedb 553e
00000040: 417d 393e 7922 0d3e 9fa5 6a3e e4a4 1e3e
00000050: a3ea 323e 9f37 413e 63dd dc3d 6e6b 613e

spectral.bn.running_mean f4 [24]
0.95126057 1.0398817 1.1237003 1.1460816 0.8531235 0.89232963 1.2468265 1.0351447
0.968196 1.15451 1.0614796 1.082985 0.97064304 1.1470959 1.0833534 0.96775085
1.0838482 1.0717608 0.89116216 1.1034313 1.1023841 1.109463 1.1007745 1.170897
00000000: d085 733f d81a 853f 69d5 8f3f cdb2 923f
00000010: 4d66 5a3f b76f 643f 0398 9f3f 9f7f 843f
00000020: b1db 773f fcc6 933f 90de 873f 419f 8a3f
00000030: 107c 783f 0ad4 923f 53ab 8a3f 85be 773f
00000040: 8abb 8a3f 752f 893f 3423 643f 3d3d 8d3f
00000050: ec1a 8d3f e202 8e3f 2ee6 8c3f f4df 953f

spectral.bn.running_var f4 [24]
4.347357 3.346238 3.9058104 4.180346 1.4396166 3.2708435 4.147386 3.4800866
2.872793 2.4624646 3.0929594 4.14521 3.4246595 3.8085477 3.6547632 3.2700908
3.7876642 2.805009 4.070914 3.0868547 3.2265275 4.232502 2.9107785 3.0874174
00000000: 8c1d 8b40 c328 5640 ccf8 7940 65c5 8540
00000010: 5b45 b83f 8055 5140 63b7 8440 bdb9 5e40
00000020: d7db 3740 0599 1d40 0cf3 4540 8fa5 8440
00000030: 9f2d 5b40 3fbf 7340 a4e7 6940 2b49 5140
00000040: 1769 7240 4485 3340 ed44 8240 078f 4540
00000050: 6d7f 4e40 a870 8740 324a 3a40 3f98 4540

spatial.conv1.conv.weight f4 [24, 1, 1, 1, 102]
0.07481966 0.038441155 0.031608127 0.021273656 0.04381942 0.032541793 0.026986334 0.015389308
0.029457983 0.016880793 0.05290806 0.023737993 0.0015266547 -0.02823177 0.021622662 0.0031422628
0.03366909 0.02000827 -0.017198786 0.019577822 -0.00411867 0.053542674 -0.05385019 -0.024861855
-0.077911936 -0.071314424 -0.019274648 -0.03941834 -0.08066204 -0.07344902 -0.036248866 -0.09459744
-0.06382737 -0.058286868 -0.026581442 -0.044051845 -0.005595219 0.0065198387 0.009966476 -0.019158373
0.019638333 0.016615968 -0.02219362 0.016268222 0.0011204596 0.012921471 0.021783093 0.013588331
0.024507679 0.013504899 -0.018712563 0.043923654 0.032131188 0.012737852 0.0027939535 0.00044041598
-0.011300674 0.024570918 -0.0016678628 -0.0035743762 0.015607278 -0.04054292 0.007001133 -0.0019313085
-0.043985296 -0.017289082 -0.018143576 -0.03753339 -0.009647929 -0.039743476 -0.049339045 0.015158178
-0.051098775 -7.388768e-05 -0.03150417 -0.0036670193 0.021622859 -0.023030514 -0.00085882464 0.015434633
0.034113195 0.005578196 0.0054767733 -0.005631584 0.009448095 0.013144171 -0.053306382 -0.00035827266
-0.010697647 -0.002253858 0.018017534 0.027441153 0.008403091 0.032326523 0.0061888173 0.009209096
-0.015590947 -0.008930353 -0.03472059 -0.008978667 -0.019638103 0.03653927 -0.017713463 -0.0060016303
0.0041453275 -0.014525145 -0.03531204 -0.011439426 -0.017297618 -0.021027358 0.024099678 -0.01445788
-0.006217545 -0.01881878 0.04093752 -0.005580146 -0.0073932954 0.0052739084 0.0120185595 0.028844919
-0.009295822 0.004831883 -0.022127796 0.03334592 0.032819804 -0.03172466 0.0141559085 0.0115708755
0.009676527 0.019466493 0.04460322 0.02695762 0.01153464 0.021539569 0.029696522 0.0043924954
0.011781984 0.043931954 0.011594211 0.0134636145 0.056837194 0.031572875 0.05879566 0.032128792
0.0017293397 -0.005519713 0.018671656 -0.025122624 -0.0057033314 0.009701016 -0.002341026 0.050321847
0.02233217 -0.010369148 0.0022015558 0.03148481 -0.016757892 0.0384094 -0.013237783 -0.02797081
0.005823042 -0.023665382 -0.0433583 -0.07441641 0.003780675 -0.0050404817 -0.004925147 -0.029920915
-0.028056843 -0.05475197 -0.009891442 -0.039728645 -0.022314588 -0.021653505 -0.023673236 -0.030167544
-0.032833207 -0.023083674 -0.038058355 -0.05226268 -0.012329812 -0.020338086 -0.009145586 -0.03897519
-0.041698385 -0.012496371 0.015465664 -0.006872155 -0.08239856 -0.017816365 0.015949761 0.033941675
0.01700263 -0.015071765 0.017351575 -0.010701764 -0.026840217 0.02382255 0.010410178 0.0053894483
0.03266529 0.008071896 0.020149738 -0.019073209 -0.026423767 0.005310596 0.03122997 -0.003799697
-0.02989576 -0.016913284 -0.0042203763 -0.018176647 -0.011472638 0.020435255 -0.0021299967 -0.019928304
-0.018877463 0.0021756915 -0.012633811 -0.02739292 0.01716402 0.008309164 -0.0149079515 -0.005161846
-0.019343663 0.018151412 0.029614741 0.0135955885 0.028011175 -0.0039937957 0.08614097 0.030378245
0.07677783 0.037840564 0.00888265 0.03787418 0.038570534 0.02101175 0.05103647 0.01839067
0.0154855 0.034565143 -0.0077730203 -0.019992676 0.06997023 -0.008036167 0.006026796 0.0153586995
0.029443458 -0.009231171 0.02281803 0.011458014 0.00016880482 -0.014509006 -0.017222397 -0.00091769587
00000000: 0d3b 993d 7974 1d3d 8677 013d 1746 ae3c
00000010: fe7b 333d 8b4a 053d 7212 dd3c 7023 7c3c
00000020: de51 f13c 9749 8a3c 1fb6 583d 2e76 c23c
00000030: 081a c83a 5046 e7bc 0222 b13c 6cee 4d3b
00000040: 9ae8 093d 62e8 a33c 78e4 8cbc ab61 a03c
00000050: e8f5 86bb 904f 5b3d 0492 5cbd 17ab cbbc
00000060: 4b90 9fbd 4c0d 92bd dee5 9dbc 2075 21bd
00000070: 2432 a5bd 716c 96bd b179 14bd 4dbc c1bd
00000080: edb7 82bd 36be 6ebd 53c1 d9bc b56f 34bd
00000090: 1958 b7bb 5fa4 d53b 6e4a 233c 05f2 9cbc
000000a0: 92e0 a03c 361e 883c 65cf b5bc ef44 853c
000000b0: 63dc 923a 94b4 533c 7572 b23c 97a1 5e3c
000000c0: 54c4 c83c a743 5d3c 174b 99bc 4ae9 333d
000000d0: fe9b 033d 6cb2 503c c31a 373b a2e7 e639
000000e0: 7626 39bc f348 c93c 309c daba 1540 6abb
000000f0: abb5 7f3c 5510 26bd c369 e53b f623 fdba
00000100: ed29 34bd d5a1 8dbc d6a1 94bc 9dbc 19bd
00000110: 5912 1ebc 0eca 22bd bd17 4abd 025a 783c
00000120: f34c 51bd 25f4 9ab8 840a 01bd 6052 70bb
00000130: 6c22 b13c 7daa bcbc bf22 61ba 8be1 7c3c
00000140: 47ba 0b3d 4dc9 b63b 8176 b33b 2789 b8bb
00000150: 2fcc 1a3c a65a 573c cb57 5abd 8bd6 bbb9
00000160: 2f45 2fbc 76b5 13bb 8299 933c 45cc e03c
00000170: 1ead 093c d168 043d 90cb ca3b c0e1 163c
00000180: 2c71 7fbc 9e50 12bc 2d37 0ebd 421b 13bc
00000190: 16e0 a0bc 34aa 153d d31b 91bc 53a9 c4bb
000001a0: 87d5 873b e0fa 6dbc 5ca3 10bd 6e6c 3bbc
000001b0: bcb3 8dbc 9141 acbc b06c c53c bee0 6cbc
000001c0: 8cbc cbbb d829 9abc 1aae 273d a8d9 b6bb
000001d0: 7543 f2bb c0d0 ac3b 7ee9 443c 2e4c ec3c
000001e0: 814d 18bc c654 9e3b 5a45 b5bc bb95 083d
000001f0: 0f6e 063d b8f1 01bd 2fee 673c c593 3d3c
00000200: 4c8a 1e3c 3278 9f3c deb1 363d 3ad6 dc3c
00000210: c9fb 3c3c c073 b03c 1f46 f33c ecee 8f3b
00000220: 3909 413c fef1 333d a5f5 3d3c 7e96 5c3c
00000230: 1ece 683d 8f52 013d b8d3 703d 7b99 033d
00000240: 03ab e23a b5de b4bb 4df5 983c f6cd cdbc
00000250: 03e3 babb 03f1 1e3c e66b 19bb 481e 4e3d
00000260: f4f1 b63c 5ce3 29bc fa47 103b 37f6 003d
00000270: d947 89bc 2d53 1d3d 49e3 58bc 0a23 e5bc
00000280: 37cf be3b e7dd c1bc 7998 31bd a167 98bd
00000290: 33c5 773b a02a a5bb 2163 a1bb b51c f5bc
000002a0: 77d7 e5bc 9a43 60bd b70f 22bc 81ba 22bd
000002b0: 15cd b6bc b162 b1bc 60ee c1bc ed21 f7bc
000002c0: 1d7c 06bd f919 bdbc 14e3 1bbd 6411 56bd
000002d0: fb02 4abc 0f9c a6bc 5ed7 15bc 73a4 1fbd
000002e0: edcb 2abd 94bd 4cbc b263 7d3c d02f e1bb
000002f0: 94c0 a8bd a0f3 91bc 13a9 823c 6d06 0b3d
00000300: 1949 8b3c 90ef 76bc e424 8e3c 7456 2fbc
00000310: 04e0 dbbc 8227 c33c 748f 2a3c f899 b03b
00000320: 0acc 053d fc3f 043c 1011 a53c 6b3f 9cbc
00000330: a876 d8bc 8204 ae3b fed5 ff3c 5604 79bb
00000340: f4e7 f4bc ba8d 8abc 154b 8abb 31e7 94bc
00000350: bbf7 3bbc d667 a73c 6a97 0bbb af40 a3bc
00000360: e9a4 9abc 0c96 0e3b 0bfe 4ebc 1e67 e0bc
00000370: 8f9b 8c3c 2923 083c 7b40 74bc b424 a9bb
00000380: 9a76 9ebc 45b2 943c 9d9a f23c 08c0 5e3c
00000390: b177 e53c 63de 82bb ad6a b03d ccdb f83c
000003a0: b23d 9d3d b5fe 1a3d 8988 113c f521 1b3d
000003b0: 23fc 1d3d d520 ac3c 9e0b 513d 08a8 963c
000003c0: e5b6 7d3c 2e94 0d3d d2b4 febb aec7 a3bc
000003d0: 8d4c 8f3d 21aa 03bc 6e7c c53b 0ea3 7b3c
000003e0: 6833 f13c 563e 17bc e1ec ba3c 65ba 3b3c
000003f0: 3301 3139 2fb7 6dbc fc15 8dbc 8791 70ba

spatial.conv1.conv.bias f4 [24]
0.056363307 0.06887989 0.034657847 -0.02862345 -0.050710637 0.048583817 -0.06629409 0.008552064
0.028733814 0.028547488 0.05970914 -0.052810792 -0.09686701 0.0072841053 0.0108529525 -0.080669604
-0.08960874 -0.05893937 -0.0049767555 0.02752637 -0.03482598 -0.02873115 -0.03481543 -0.043559875
00000000: 36dd 663d e610 8d3d 63f5 0d3d ba7b eabc
00000010: f5b5 4fbd d3ff 463d 32c5 87bd f51d 0c3c
00000020: 2d63 eb3c 6cdc e93c 9291 743d 2150 58bd
00000030: 3662 c6bd 81af ee3b 95d0 313c 1b36 a5bd
00000040: c984 b7bd 696a 71bd 0d14 a3bb fb7e e13c
00000050: b0a5 0ebd 975d ebbc a09a 0ebd d76b 32bd

spatial.conv1.bn.weight f4 [24]
1.0198647 1.0270013 1.0076141 0.987309 1.0418308 0.99129415 0.9796892 0.96479887
1.0121344 1.0200022 0.9864854 1.0063479 0.96557933 1.0118552 1.0317206 1.0288304
0.9851727 1.0138668 1.014158 0.9635134 1.0131322 1.0048525 1.0142733 1.0080843
00000000: ed8a 823f c774 833f 80f9 803f 48c0 7c3f
00000010: b65a 853f 74c5 7d3f e9cc 7a3f 0ffd 763f
00000020: 9f8d 813f 6f8f 823f 4f8a 7c3f 02d0 803f
00000030: 3530 773f 7984 813f 6c0f 843f b7b0 833f
00000040: 4734 7c3f 63c6 813f eecf 813f d0a8 763f
00000050: 51ae 813f 029f 803f b5d3 813f e808 813f

spatial.conv1.bn.bias f4 [24]
-0.0047251163 -0.013918519 0.0148381265 -0.016451513 0.018188763 -0.0005855538 0.019476816 0.018036189
0.022445707 -0.034379438 0.00063882885 -0.017411105 -0.059218347 0.036376517 0.013513274 0.030486839
0.010442525 0.02473086 -0.07620977 0.008340968 -0.03562891 -0.01589134 -0.0007967191 0.028097173
00000000: 26d5 9abb 800a 64bc 9d1b 733c 53c5 86bc
00000010: 9a00 953c da7f 19ba d88d 9f3c a1c0 933c
00000020: 0fe0 b73c 74d1 0cbd 1477 273a bca1 8ebc
00000030: f08e 72bd 8bff 143d c766 5d3c 89bf f93c
00000040: 2017 2b3c 5f98 ca3c de13 9cbd 8ea8 083c
00000050: 9fef 11bd 8e2e 82bc eada 50ba 0b2c e63c

spatial.conv1.bn.running_mean f4 [24]
-407.78146 -449.6769 -322.38425 -1701.164 432.2599 180.1349 361.40717 -196.4447
20.406612 671.049 330.68384 -284.31293 109.18909 -389.63794 -139.19145 331.76373
76.74434 262.34155 -1222.0155 1536.9067 -368.5576 192.70459 -1176.2987 880.88885
00000000: 07e4 cbc3 a5d6 e0c3 2f31 a1c3 3fa5 d4c4
00000010: 4421 d843 8922 3443 1eb4 b443 d871 44c3
00000020: be40 a341 23c3 2744 8857 a543 0e28 8ec3
00000030: d060 da42 a8d1 c2c3 0331 0bc3 c2e1 a543
00000040: 1a7d 9942 b82b 8343 7fc0 98c4 041d c044
00000050: 5f47 b8c3 60b4 4043 8f09 93c4 e338 5c44

spatial.conv1.bn.running_var f4 [24]
84067.73 149110.4 294644.9 1.3589259e+06 77096.05 73953.47 194330.53 422289.3
169063.9 308185.4 120444.82 243344.0 498044.34 70006.484 70087.266 56219.902
68568.33 58585.965 624900.75 869582.56 85126.53 84392.02 493995.7 211378.89
00000000: dd31 a447 9a9d 1148 9dde 8f48 6fe2 a549
00000010: 0694 9647 bc70 9047 a2c6 3d48 2a32 ce48
00000020: fa19 2548 2d7b 9648 693e eb47 00a4 6d48
00000030: 8b2f f348 3ebb 8847 a2e3 8847 e79b 5b47
00000040: 2aec 8547 f7d9 6447 4c90 1849 e94c 5449
00000050: 4443 a647 03d4 a447 7635 f148 b96c 4e48
