checkpoints/model_epoch199.pth (torch, 753015 bytes, 210 tensors)

spectral.conv1.conv.weight f4 [24, 1, 1, 1, 5]
0.020627039 0.008299782 -0.030500373 -0.013089249 -0.010677238 0.019741103 -0.031584207 -0.034662303
0.011581038 -0.010546802 -0.0148683265 -0.009026788 0.03612743 0.034937114 -0.016318396 -0.009229105
-0.00050795526 -0.04064544 0.033787046 -0.009301486 0.0047523472 0.003939277 -0.025878252 0.0077139097
-0.018059015 0.01878415 -0.009739413 -0.05939682 0.052435994 -0.00880417 -0.008718763 -0.043763798
0.023414249 0.015462999 -0.0046583777 -0.03245131 -0.0425881 0.050290283 0.037230354 -0.011631682
-0.013813232 -0.0035715015 0.0051416093 -0.046852205 -0.008573952 0.018961266 -0.004436311 -0.00090436125
-0.04598983 0.01075209 -0.010721615 -0.054295518 0.006949776 0.0064614527 0.021730714 0.020091461
0.029943584 -0.056620106 -0.010052269 -0.011473146 -0.0183934 -0.013700761 0.0129540535 -0.007216917
0.011266862 -0.039855942 0.005948917 -0.020735547 0.011487669 0.011865664 -0.018994188 -0.023410797
-0.017455492 0.05633168 -0.019793708 -0.039952118 -0.014490123 0.004819987 -0.014399309 0.039546862
-0.0039094375 0.031031853 -0.020007491 -0.019658053 -0.011408658 -0.027685495 -0.050798528 0.010256936
0.043234657 -0.01922802 -0.022562796 0.01054789 -0.008044313 -0.0029113004 -0.019789508 -0.019759437
0.026503064 -0.007335836 -0.06311325 -0.064831704 -0.019015621 -0.013656732 0.005885231 0.033212103
0.021403503 0.016496988 0.01808229 0.025401013 -0.038950544 -0.00831604 0.0049596806 -0.004363043
0.0019876105 0.016938323 -0.03456036 -0.076813295 -0.044655234 0.0009408315 0.035535842 -0.023695406
00000000: 09fa a83c cffb 073c ebdb f9bc 4a74 56bc
00000010: 95ef 2ebc 18b8 a13c 715e 01bd 0ffa 0dbd
00000020: 65be 3d3c 7ecc 2cbc 489a 73bc 18e5 13bc
00000030: 5bfa 133d 381a 0f3d 28ae 85bc ac35 17bc
00000040: 4d28 05ba d57b 26bd 4964 0a3d 4365 18bc
00000050: 94b9 9b3b 0d15 813b a1fe d3bc f7c4 fc3b
00000060: 80f0 93bc 38e1 993c 0f92 1fbc 144a 73bd
00000070: 20c7 563d 5e3f 10bc 24d9 0ebc ab41 33bd
00000080: 3dcf bf3c 8558 7d3c 4ea5 98bb aaeb 04bd
00000090: dc70 2ebd 2ffd 4d3d db7e 183d cf92 3ebc
000000a0: e550 62bc da0f 6abb f27a a83b 19e8 3fbd
000000b0: c379 0cbc a854 9b3c 795e 91bb a812 6dba
000000c0: d55f 3cbd 8929 303c b6a9 2fbc fa64 5ebd
000000d0: f2ba e33b 98ba d33b 9c04 b23c d996 a43c
000000e0: 3f4c f53c 7cea 67bd 46b2 24bc ddf9 3bbc
000000f0: c1ad 96bc 2879 60bc 3d3d 543c e37b ecbb
00000100: a598 383c fc3f 23bd 22ef c23b 98dd a9bc
00000110: c736 3c3c 3468 423c b399 9bbc 00c8 bfbc
00000120: d2fe 8ebc 0cbc 663d 6a26 a2bc d5a4 23bd
00000130: fb67 6dbc fbf0 9d3b 14eb 6bbc e4fb 213d
00000140: bd1a 80bb 8336 fe3c c0e6 a3bc ed09 a1bc
00000150: 61eb 3abc b1cc e2bc 1e12 50bd b50c 283c
00000160: d316 313d 1584 9dbc 9dd5 b8bc 0fd1 2c3c
00000170: 4bcc 03bc 84cb 3ebb 9b1d a2bc 8bde a1bc
00000180: f41c d93c 7461 f0bb 8541 81bd 7cc6 84bd
00000190: a6c6 9bbc 7cc0 5fbc e5d8 c03b 6a09 083d
000001a0: 6656 af3c b124 873c 5021 943c c915 d03c
000001b0: 9b8a 1fbd 0040 08bc d184 a23b dbf7 8ebb
000001c0: 9242 023b 3dc2 8a3c 2a8f 0dbd 4a50 9dbd
000001d0: 68e8 36bd 22a2 763a 088e 113d de1c c2bc

spectral.conv1.conv.bias f4 [24]
-0.23804449 -0.40973625 0.15935536 -0.34812757 -0.34683204 0.33091068 -0.02745161 -0.08106721
0.27140886 0.13919808 -0.207097 -0.18928494 0.24729036 0.29490215 0.09303197 -0.067890905
0.3780223 0.3119445 -0.32284382 -0.020875813 -0.31457233 0.24973029 0.20732011 0.045424625
00000000: efc1 73be f3c8 d1be 0d2e 233e c73d b2be
00000010: f893 b1be 206d a93e 33e2 e0bc 9106 a6bd
00000020: 1af6 8a3e f189 0e3e 3c11 54be e9d3 41be
00000030: af39 7d3e 6afd 963e 8c87 be3d 630a 8bbd
00000040: 248c c13e 31b7 9f3e c94b a5be c103 abbc
00000050: a00f a1be 4cb9 7f3e b94b 543e 2c0f 3a3d

spectral.conv1.bn.weight f4 [24]
0.96570134 0.94875073 0.9707339 0.9564231 0.9252865 0.8994731 0.99205154 1.050428
1.0055937 0.9847484 0.96452916 0.99415004 0.9773988 0.9805792 0.97245276 1.0031439
0.99693364 0.9851599 0.97998095 0.97571594 0.9930269 0.96782964 0.98022604 0.9653683
00000000: 3438 773f 54e1 723f 0482 783f 25d8 743f
00000010: 93df 6c3f de43 663f 17f7 7d3f 6d74 863f
00000020: 4bb7 803f 7918 7c3f 62eb 763f 9e80 7e3f
00000030: cf36 7a3f 3d07 7b3f aaf2 783f 0567 803f
00000040: 0b37 7f3f 7033 7c3f 08e0 7a3f 85c8 793f
00000050: 0337 7e3f afc3 773f 18f0 7a3f 6022 773f

spectral.conv1.bn.bias f4 [24]
-0.054605737 -0.035128094 -0.031689573 -0.050282765 -0.06566349 -0.050574105 0.0055474066 0.05957134
-0.02593155 0.022797568 -0.0033028654 -0.032857582 -0.0065928674 -0.034077015 -0.017568832 -0.0033027793
0.014740864 -0.043388385 0.0020057447 -0.024945514 0.014547602 -0.02641962 -0.02744379 -0.004661188
00000000: 44aa 5fbd 7ae2 0fbd edcc 01bd 4df5 4dbd
00000010: 947a 86bd cb26 4fbd 05c7 b53b 1401 743d
00000020: 676e d4bc f7c1 ba3c e374 58bb ac95 06bd
00000030: fb08 d8bb 5794 0bbd 83ec 8fbc 7173 58bb
00000040: aa83 713c 05b8 31bd d072 033b 895a ccbc
00000050: 1159 6e3c f56d d8bc cdd1 e0bc e1bc 98bb

spectral.conv1.bn.running_mean f4 [24]
-30.356083 -53.234985 35.26582 -30.127848 -31.737326 3.3755915 -20.576416 4.865559
-77.38577 -24.499039 -34.25604 -34.31372 -21.62798 -33.21566 -27.626411 -25.732481
-27.95823 -52.634735 -49.506844 -149.93791 35.203575 13.032671 -18.183228 -128.43845
00000000: 42d9 f2c1 a0f0 54c2 3310 0d42 d505 f1c1
00000010: 0be6 fdc1 b109 5840 809c a4c1 a9b2 9b40
00000020: 84c5 9ac2 08fe c3c1 2f06 09c2 4041 09c2
00000030: 1a06 adc1 d6dc 04c2 e402 ddc1 1fdc cdc1
00000040: 74aa dfc1 f889 52c2 0207 46c2 1bf0 15c3
00000050: 76d0 0c42 d285 5041 4077 91c1 3e70 00c3

spectral.conv1.bn.running_var f4 [24]
645.888 1938.285 870.71576 615.3205 684.2331 46.83899 299.437 61.057865
4153.936 433.02673 835.3099 834.88605 344.81717 796.18994 540.56384 504.31583
562.2613 1949.5178 1658.401 15500.526 903.58984 137.33759 236.37813 11390.96
00000000: d578 2144 1f49 f244 cfad 5944 83d4 1944
00000010: eb0e 2b44 205b 3b42 f0b7 9543 413b 7442
00000020: 7dcf 8145 6c83 d843 d5d3 5044 b5b8 5044
00000030: 9968 ac43 280c 4744 1624 0744 6d28 fc43
00000040: b990 0c44 92b0 f344 d54c cf44 1b32 7246
00000050: c0e5 6144 6c56 0943 cd60 6c43 d7fb 3146

spectral.conv2.conv.weight f4 [6, 6, 1, 1, 5]
-0.04954595 -0.027404906 0.00817574 -0.0014520002 -0.05887489 0.041488096 -0.019583171 0.01259451
0.046261445 0.030621488 0.009887124 -0.0059836293 0.008866786 0.022810979 0.016644526 -0.009379011
0.01384604 0.025958797 -0.05382716 -0.016021838 -0.0028314218 -0.008331091 -0.004264331 -0.028778233
0.019904906 -0.027008804 -0.0056138667 -0.0005472254 0.020334737 -0.015790027 -0.0559887 0.0075899777
0.040565003 0.031441 -0.026210746 -0.010415978 -0.008495236 0.033228848 0.028030261 0.028513184
0.046778657 0.047926746 0.030922651 0.015079239 0.016327782 0.020361308 0.007653464 -0.03311048
-0.033640172 0.00085731456 0.0030058469 -0.042398717 0.009506804 -0.00032775433 0.012551082 0.05382639
0.07219067 0.042586956 0.0025214632 -0.015852809 0.010141975 0.013980552 0.03647918 -0.010103786
0.0031337137 0.0012845418 0.038381368 0.01532337 -0.0011002208 -0.022241758 -0.022670846 -0.018982152
-0.02832923 0.023430647 -0.019480094 0.008245062 -0.015410974 -0.04988754 -0.021339444 0.013919575
0.025687924 -0.028581318 0.023376387 -0.001582583 0.0009911093 -0.03090506 0.0021628547 -0.0369964
-0.01934683 0.015154932 -0.0076617072 -0.0035169346 -0.030514088 0.040150594 -0.006168473 0.017844643
0.023862924 -0.032615405 0.047389876 -0.0019873322 0.007883264 0.00061917276 -0.029073063 -0.011050361
0.023461476 -0.035675116 -0.005899782 0.059289966 -0.03309321 -0.012680136 -0.011297174 -0.009714638
-0.008042415 0.017964002 -0.008141597 -0.03231353 -0.025591452 -0.007346624 -0.003344327 0.03609109
0.0015751972 -0.0068251593 -0.0028719988 0.013140263 -0.008362281 -0.03806272 0.04426668 0.0110472115
0.012268577 0.0024175816 0.0684685 0.028459696 0.04359908 -0.0012876187 -0.016789967 -0.017251082
0.008906408 -0.0052360445 0.008524584 -0.019075142 -0.017052677 0.0053233714 -0.003906788 0.048563857
0.011757757 0.020315675 0.02161137 0.024565088 -0.030944407 -0.011133478 0.038976613 -0.013431966
0.006554221 -0.011970371 -0.009043705 0.06943184 -0.021047225 -0.028030608 0.023718048 -0.036123525
0.0066008177 -0.012700744 -0.0088945 0.0055506187 -0.012590661 -0.023529418 -0.0017432591 0.031216897
-0.013305472 0.008223724 0.026108708 -0.0039241756 -0.0009847629 0.016402466 -0.015088826 -0.011606506
-0.016930252 0.014103246 -0.008354911 0.008775741
00000000: b2f0 4abd 4180 e0bc 8af3 053c 0b51 beba
00000010: cc26 71bd 6cef 293d e36c a0bc 3459 4e3c
00000020: a47c 3d3d ead9 fa3c 9bfd 213c 5212 c4bb
00000030: ff45 113c 17de ba3c 1a5a 883c 6caa 19bc
00000040: 80da 623c 8ba7 d43c de79 5cbd 3b40 83bc
00000050: 608f 39bb 217f 08bc cdbb 8bbb 54c0 ebbc
00000060: 9d0f a33c 9141 ddbc 87f4 b7bb ad73 0fba
00000070: 0995 a63c 165a 81bc 6854 65bd 59b5 f83b
00000080: 7d27 263d 47c8 003d ebb7 d6bc c7a7 2abc
00000090: 9a2f 0bbc f91a 083d b89f e53c 7b94 e93c
000000a0: fa9a 3f3d d64e 443d 8051 fd3c ea0e 773c
000000b0: d7c1 853c c2cc a63c e9c9 fa3b db9e 07bd
000000c0: 47ca 09bd 68bd 603a befd 443b 47aa 2dbd
000000d0: 6dc2 1b3c 71d6 abb9 0ea3 4d3c 1079 5c3d
000000e0: b4d8 933d a96f 2e3d 223f 253b c0dd 81bc
000000f0: 872a 263c af0e 653c 316b 153d 5a8a 25bc
00000100: fe5e 4d3b 125e a83a c835 1d3d df0e 7b3c
00000110: 4935 90ba 5934 b6bc 36b8 b9bc 7580 9bbc
00000120: b412 e8bc a1f1 bf3c b894 9fbc 4c16 073c
00000130: 4f7e 7cbc e156 4cbd 0fd0 aebc ee0e 643c
00000140: 7b6f d23c 5e23 eabc d67f bf3c ac6e cfba
00000150: 1ce8 813a 9c2c fdbc aebe 0d3b 8a89 17bd
00000160: 3e7d 9ebc 644c 783c 0f0f fbbb 5f7c 66bb
00000170: aef8 f9bc f374 243d e720 cabb ee2e 923c
00000180: 2e7c c33c bb97 05bd e31b 423d e73d 02bb
00000190: ce28 013c fb4f 223a a22a eebc 930c 35bc
000001a0: 4832 c03c 1220 12bd f552 c1bb 09da 723d
000001b0: bf8c 07bd 58c0 4fbc c817 39bc 252a 1fbc
000001c0: 55c4 03bc 3e29 933c 5564 05bc 315b 04bd
000001d0: 2aa5 d1bc f3bb f0bb 7f2c 5bbb 40d4 133d
000001e0: d976 ce3a 96a5 dfbb 2538 3cbb 424a 573c
000001f0: f301 09bc a8e7 1bbd fa50 353d 5dff 343c
00000200: 2402 493c 4a70 1e3b 3739 8c3d 4f24 e93c
00000210: f394 323d 50c5 a8ba 1d8b 89bc 2452 8dbc
00000220: 2fec 113c 2093 abbb b2aa 0b3c 7943 9cbc
00000230: 0eb2 8bbc ad6f ae3b 8304 80bb e5ea 463d
00000240: 9ba3 403c 0f6d a63c 540a b13c b93c c93c
00000250: 207f fdbc 3169 36bc f1a5 1f3d c011 5cbc
00000260: cac4 d63b 601f 44bc 0c2c 14bc 4832 8e3d
00000270: 3b6b acbc 72a0 e5bc 5a4c c23c 43f6 13bd
00000280: ac4b d83b c816 50bc 3dba 11bc f7e1 b53b
00000290: 0f49 4ebc c4c0 c0bc 127e e4ba 94ba ff3c
000002a0: 32ff 59bc ccbc 063c eee1 d53c 5f96 80bb
000002b0: 2913 81ba 775e 863c 2037 77bc 3729 3ebc
000002c0: 50b1 8abc 4d11 673c 09e3 08bc 20c8 0f3c

spectral.conv2.conv.bias f4 [6]
-0.098108344 -0.17386529 0.17878002 -0.07224465 0.0043228124 -0.012715652
00000000: 07ed c8bd be09 32be 1c12 373e 01f5 93bd
00000010: 61a6 8d3b 4f55 50bc

spectral.conv2.bn.weight f4 [6]
0.9651744 0.9873458 0.9864824 1.0456463 0.94490725 1.041793
00000000: ab15 773f b2c2 7c3f 1c8a 7c3f bdd7 853f
00000010: 71e5 713f 7959 853f

spectral.conv2.bn.bias f4 [6]
-0.05437174 -0.019100567 0.007962973 0.009930412 -0.052396018 0.03296589
00000000: e7b4 5ebd cb78 9cbc 2177 023c 2bb3 223c
00000010: 359d 56bd 3e07 073d

spectral.conv2.bn.running_mean f4 [6]
-0.12296224 -0.05272089 0.14398734 -0.07544682 0.07128074 -0.013658804
00000000: a0d3 fbbd dcf1 57bd 6b71 133e dd83 9abd
00000010: a3fb 913d 2dc9 5fbc

spectral.conv2.bn.running_var f4 [6]
0.013882138 0.01323886 0.005375245 0.0028138976 0.0044474094 0.0019656445
00000000: e871 633c cee7 583c d322 b03b 5e69 383b
00000010: 93bb 913b 0bd2 003b

spectral.conv3.conv.weight f4 [12, 12, 1, 1, 5]
-0.019188343 -0.030230658 -0.01189522 -0.04025024 0.006132192 -0.010270148 -0.03562511 -0.03633917
-0.03646571 -0.0064996667 -0.034549873 0.009065314 0.019974433 -0.018707423 0.018078458 0.0075792484
0.006655446 -0.009444889 0.035624072 0.00436718 -0.050951112 -0.018627418 -0.028961193 -0.007269199
-0.0018359981 0.0069590025 -0.03365874 0.008686947 -0.017031642 0.031515248 -0.011049297 0.0038993976
0.007884557 -0.0009486518 -0.017841125 0.018238641 -0.016436433 0.0389444 -0.025041979 0.009714657
0.025225867 -0.0069840793 0.037154064 -0.021369739 0.028330948 -0.029219888 0.019916626 0.01666203
0.025721954 -0.0039901724 -0.019876828 -0.012565987 0.020384513 -0.014557324 0.030386973 -0.035888877
-0.042063452 -0.0013638055 0.010288642 0.042926192 -0.014045712 -0.016849762 -0.0035068607 -0.031119712
0.009852336 -0.008866106 -0.011406969 0.026388949 0.009313806 0.017174847 0.028853877 0.01845547
-0.012487217 -0.020503145 -0.05938805 -0.0024965652 0.016981466 0.005618387 -0.020923259 0.062467642
-0.019246152 -0.0076449187 -0.01018774 -0.010706756 0.013726651 0.04347003 -0.02601466 0.023735916
-0.069053255 -0.0018518051 -0.0012464282 -0.010134074 0.02549194 0.01777048 -0.0076242923 0.002569036
0.011369628 -0.04483664 0.00902919 -0.017001968 -7.1726834e-05 0.016621312 -0.023147114 -0.014086957
-0.04343171 -0.040260434 -0.0137458155 -0.0068428703 -0.016756779 0.011277364 -0.007123351 0.03803627
0.043073375 -0.016798373 0.01648949 0.01576184 -0.02754861 0.008145984 -0.01911518 -0.015019218
0.0051753945 0.014710693 0.018126449 -0.029055728 -0.01346787 -0.016348049 -0.0047640586 -0.009497827
-0.0037042843 0.0037229215 0.0418777 0.015247477 -0.023378434 0.006811455 0.01999833 0.008557431
-0.050218843 0.05809442 -0.012540495 0.011926072 -0.0030021456 0.01133547 0.0077549797 -0.012682214
0.023699844 -0.002209653 -0.015549298 0.06465074 -0.021505525 0.0057286927 -0.01555089 0.038904123
-0.0073707555 0.03180396 -0.015507511 -0.0034171983 0.016268779 0.0069929967 0.008007951 0.025000378
0.010932946 0.021579916 0.0025601375 0.001244214 0.008008963 -0.028218547 0.0035238157 -0.041669514
0.007592851 0.022104593 -0.0358923 0.010745546 -0.0049548876 -0.0035223744 -0.028507015 0.018708723
-0.03328761 -0.006938822 -0.011802907 -0.009036763 0.0024777239 -0.020848513 0.020959787 -0.02297195
-0.008170233 -0.010812894 0.002400656 -0.004261744 -0.024250768 -0.008593412 -0.012827608 -0.015580651
-0.010001711 0.037598267 0.019339075 -0.023428407 -0.025537131 -0.025815265 0.012383888 0.007378238
-0.022424573 -0.023804722 -0.003104079 0.011684105 0.007619961 0.0046906145 -0.014066007 -0.049413636
-0.02801928 0.012696136 -0.0071242005 0.009841814 0.004614991 -0.038071148 -0.0014416248 -0.038416043
-0.008026553 0.0046407087 -0.028474165 0.026966231 0.007790577 -0.036910478 0.00045763006 0.0043387883
0.015318221 -0.0320372 -0.015613236 0.015095673 0.0041691214 -0.008831508 0.0057765455 -0.07539008
-0.007778262 -0.06705183 0.012126387 -0.028509814 -0.010087403 -0.047302246 0.015977936 0.018399525
-0.01893318 -0.00029356082 -0.002988219 0.037434336 0.0001916915 0.0015776458 -0.043324236 -0.0019058853
-0.015163053 0.026188709 -0.04850418 -0.015676066 -0.016556092 0.020148234 0.031417225 -0.025223278
00000000: df30 9dbc 49a6 f7bc 2be4 42bc 70dd 24bd
00000010: 8ef0 c83b 1f44 28bc a3eb 11bd 62d8 14bd
00000020: 115d 15bd 28fb d4bb 2b84 0dbd af86 143c
00000030: 6ca1 a33c 4f40 99bc 4619 943c 585b f83b
00000040: ed15 da3b bcbe 1abc 8cea 113d 901a 8f3b
00000050: 1db2 50bd 8798 98bc 0640 edbc 7632 eebb
00000060: e0a5 f0ba 5808 e43b bfdd 09bd b253 0e3c
00000070: f185 8bbc 2216 013d 1c08 35bc 098d 7f3b
00000080: 3b2e 013c f2ae 78ba 8d27 92bc 3469 953c
00000090: b3a5 86bc 2a84 1f3d d624 cdbc 3a2a 1f3c
000000a0: 7aa6 ce3c b4da e4bb dc2e 183d 970f afbc
000000b0: 4e16 e83c 8c5e efbc 3128 a33c cf7e 883c
000000c0: d9b6 d23c febf 82bb bbd4 a2bc 92e1 4dbc
000000d0: 6cfd a63c d881 6ebc 1aee f83c 3700 13bd
000000e0: ba4a 2cbd b8c1 b2ba b191 283c 60d3 2f3d
000000f0: fc1f 66bc 8308 8abc 5cd3 65bb c4ee febc
00000100: b16b 213c 2543 11bc 4ce4 3abc a32d d83c
00000110: ef98 183c 44b2 8c3c f75e ec3c ed2f 973c
00000120: 2f97 4cbc 36f6 a7bc e240 73bd 6a9d 23bb
00000130: b71c 8b3c 721a b83b 4167 abbc 12de 7f3d
00000140: 1baa 9dbc 3a82 fabb 7bea 26bc 646b 2fbc
00000150: bfe5 603c a10d 323d b21c d5bc d371 c23c
00000160: cb6b 8dbd 45b8 f2ba 315f a3ba 6309 26bc
00000170: 79d4 d03c 6693 913c 33d5 f9bb 465d 283b
00000180: ad47 3a3c a0a6 37bd 2bef 133c b647 8bbc
00000190: 0d6c 96b8 6b29 883c 049f bdbc fbcc 66bc
000001a0: 73e5 31bd 20e8 24bd 2136 61bc 283a e0bb
000001b0: 8345 89bc b1c4 383c 006b e9bb ebcb 1b3d
000001c0: b56d 303d be9c 89bc f814 873c f91e 813c
000001d0: 9fad e1bc bc76 053c 7097 9cbc 2b13 76bc
000001e0: 5b96 a93b 1e05 713c eb7d 943c 4706 eebc
000001f0: 57a8 5cbc 58ec 85bc d21b 9cbb c69c 1bbc
00000200: 94c3 72bb 42fc 733b f387 2b3d 8ed0 793c
00000210: 2184 bfbc a032 df3b 8ad3 a33c 7834 0c3c
00000220: 46b2 4dbd 6af4 6d3d a676 4dbc 9265 433c
00000230: a5bf 44bb 68b8 393c 7c1d fe3b 10c9 4fbc
00000240: 2d26 c23c d3cf 10bb 7cc2 7ebc 9b67 843d
00000250: 5b2c b0bc c2b7 bb3b 29c9 7ebc ee59 1f3d
00000260: 6186 f1bb df44 023d 3713 7ebc 13f3 5fbb
00000270: 1a46 853c 8225 e53b c833 033c 98cd cc3c
00000280: 1920 333c 5dc8 b03c fbc7 273b e514 a33a
00000290: 0738 033c 952a e7bc d1ef 663b a7ad 2abd
000002a0: 73cd f83b b114 b53c ce03 13bd 160e 303c
000002b0: 9c5c a2bb a3d7 66bb 8b87 e9bc 0943 993c
000002c0: 9758 08bd 0f5f e3bb fb60 41bc ee0e 14bc
000002d0: 4f61 223b 80ca aabc dcb3 ab3c ac2f bcbc
000002e0: 71dc 05bc 9128 31bc 5354 1d3b 1aa6 8bbb
000002f0: 8ca9 c6bc 62cb 0cbc e32a 52bc fd45 7fbc
00000300: 37de 23bc a400 1a3d fb6c 9e3c eeec bfbc
00000310: 3f33 d1bc 897a d3bc cae5 4a3c 25c5 f13b
00000320: bdb3 b7bc 1f02 c3bc ce6d 4bbb b06e 3f3c
00000330: deb0 f93b bab3 993b 1c75 66bc f465 4abd
00000340: b088 e5bc 7403 503c 2072 e9bb 8f3f 213c
00000350: 5a39 973b 7ef0 1bbd e7f4 bcba 245a 1dbd
00000360: ce81 03bc 1611 983b a742 e9bc 49e8 dc3c
00000370: 1948 ff3b 712f 17bd 11ee ef39 652c 8e3b
00000380: 47f9 7a3c 7039 03bd a9ce 7fbc d753 773c
00000390: 209d 883b 08b2 10bc 2d49 bd3b 1d66 9abd
000003a0: cae0 febb 7852 89bd c1ad 463c 6a8d e9bc
000003b0: a245 25bc 00c0 41bd 29e4 823c 9aba 963c
000003c0: c219 9bbc 11e9 99b9 ffd5 43bb bf54 193d
000003d0: cc00 4939 02c9 ce3a c174 31bd e6ce f9ba
000003e0: 746e 78bc b489 d63c 52ac 46bd 186b 80bc
000003f0: a4a0 87bc e90d a53c 59af 003d 0ca1 cebc

spectral.conv3.conv.bias f4 [12]
-0.0038903286 -0.005705265 -0.018494843 0.037576783 0.011395402 0.013406385 -0.104729675 -0.116124794
-0.011321958 0.104448296 -0.06794751 -0.07834436
00000000: e2f4 7ebb 3bf3 babb 7f82 97bc 1dea 193d
00000010: c8b3 3a3c 74a6 5b3c 837c d6bd d6d2 edbd
00000020: bc7f 39bc fde8 d53d 1028 8bbd 0273 a0bd

spectral.conv3.bn.weight f4 [12]
0.9825666 1.0050588 1.0041647 1.0072901 1.0778702 1.009164 1.0161537 1.0061069
1.029747 1.0104653 1.0458127 0.99132055
00000000: 7c89 7b3f c4a5 803f 7888 803f e2ee 803f
00000010: a7f7 893f 492c 813f 5311 823f 1cc8 803f
00000020: c0ce 833f ed56 813f 31dd 853f 2fc7 7d3f

spectral.conv3.bn.bias f4 [12]
-0.03370295 0.004277122 -0.0049231024 0.006052669 0.031442136 -0.03546458 -0.04666746 -0.025546184
0.0032704955 -0.00551604 0.014376212 0.0030443198
00000000: 1b0c 0abd 1a27 8c3b fa51 a1bb 7855 c63b
00000010: 78c9 003d 4f43 11bd 6126 3fbd 3b46 d1bc
00000020: cf55 563b e6bf b4bb 348a 6b3c 3683 473b

spectral.conv3.bn.running_mean f4 [12]
-0.08677108 -0.049039304 0.01916895 -0.15396404 -0.03611482 0.23788989 0.06596751 0.05780787
-0.0054139094 0.018597037 -0.091288686 0.03806799
00000000: 09b5 b1bd 70dd 48bd 3408 9d3c c0a8 1dbe
00000010: 22ed 13bd 6899 733e f919 873d f2c7 6c3d
00000020: 2a67 b1bb d058 983c 90f5 babd 2eed 1b3d

spectral.conv3.bn.running_var f4 [12]
0.015107735 0.010653242 0.00726277 0.02824724 0.009525287 0.044951193 0.048507463 0.03286876
0.014710412 0.015242625 0.00843991 0.016487636
00000000: 6f86 773c ef8a 2e3c 88fc ed3b c266 e73c
00000010: f30f 1c3c be1e 383d c3af 463d 65a1 063d
00000020: f103 713c 34bc 793c 8c47 0a3c 1411 873c

spectral.conv4.conv.weight f4 [12, 18, 1, 1, 5]
-0.008219436 0.024683883 0.023168713 -0.018096939 0.0032017808 0.017874982 -0.05913933 0.048625857
0.039495427 -0.022747645 0.014832119 -0.017556753 0.03695626 0.021250121 -0.025852567 -0.03275506
-0.042492926 0.013473177 -0.049035545 -0.021759402 -0.029210044 0.008330024 0.004824725 0.0038305782
0.017289935 -0.031255025 0.023452885 -0.014258833 -0.031464998 -0.0028909803 -0.015014121 -0.026128411
-0.004771628 0.045590483 -0.033476733 -0.0046388153 0.003918783 -0.013379601 -0.002726515 -0.0035108854
-0.030696543 0.004668069 0.04432287 -0.019534176 -0.032605764 0.030587701 -0.058589906 -0.025467563
-0.004418804 -0.040554654 0.017970568 -0.008675788 0.016554384 -0.017505227 -0.03383774 -0.00405909
0.0020191374 0.0016002562 -0.026645781 -0.02371744 0.00920266 0.029159313 0.07667395 0.023420636
0.03401758 -0.006493546 0.057298183 0.0014712114 0.012659384 0.009527255 -0.0058557666 -0.00014804634
0.00011114885 -0.023959447 -0.028163314 -0.022537 0.026343148 0.016032191 -0.019681312 0.0053117517
0.03283523 0.011624952 -0.011146229 0.011230789 0.005908932 0.011225411 -0.01805974 0.03532909
0.027944988 0.018252814 -0.053043675 0.0042385575 0.019879187 0.014946679 -0.004906955 -0.022573933
0.021589117 -0.0096550295 0.009170124 0.02410138 -0.019052625 0.009273067 -0.006255335 0.040901612
0.0069289636 0.015313157 0.038107358 0.015615645 0.029603664 0.043396696 -0.0047721947 0.0025761141
0.04607409 0.008432033 -0.0025401528 0.0055184322 0.051098403 0.0058997204 0.00758422 0.025194094
-0.007790139 -0.0046821823 0.0028370612 0.041472353 0.024438025 0.00220981 -0.019875258 0.009417636
0.038995072 0.003576239 -0.028380089 0.012803872 0.019126905 -0.008247785 -0.00035044996 0.026673257
0.027437843 0.014393271 0.0022701165 -0.0383327 0.010952749 -0.024688283 -0.0027047226 0.03404323
-0.015947472 0.030331913 0.026331564 0.008586956 0.018018128 -0.0056081233 0.0063822605 -0.01364811
0.023548098 4.91644e-05 0.02352159 -0.028432332 0.0054894164 -0.0095862625 -0.008460679 0.0027742432
-0.028225595 -0.018612396 0.019276684 -0.014517889 -0.004456498 0.0110199405 0.0004391853 -0.0039981427
0.0010916948 -0.0030487045 0.034873948 0.012991468 0.03874884 -0.015318735 0.025667572 0.031809438
-0.023861095 -0.0066810194 0.007392939 0.008810383 0.013044381 -0.0039258315 0.012208946 0.0022937395
0.023699641 -0.0058550523 0.0098131085 0.0015354346 0.019958798 -0.004601176 -0.005274056 0.043186456
-0.013336239 0.007584307 0.04916842 0.008942922 0.009751476 0.008995729 0.014933049 0.05961331
0.001327502 -0.003419862 -0.011179608 0.019568736 0.048797153 -0.018769024 0.0050620125 0.014068264
-0.005165213 -0.017519956 -0.008426309 -0.02783227 0.009842457 0.039799716 -0.0017062824 -0.001179214
0.0023948217 -0.01521962 0.029775755 0.012766273 0.046688724 0.04110036 -0.0014872223 0.016381385
0.031208599 0.0239272 0.044714697 0.021964554 -0.019115398 -0.030191744 0.03092563 0.023126077
0.034746427 -0.004255696 0.035452083 0.009983072 -0.026754629 0.0129627455 0.03176093 0.012727153
-0.0371839 0.039194416 -0.016648645 -0.009156638 -0.0030024298 -0.01485546 0.004207345 -0.01642856
-0.00033578294 0.016827364 0.00780678 0.00757951 0.0036381541 -0.039853007 -0.014406875 0.016033689
00000000: d0aa 06bc db35 ca3c 50cc bd3c 0840 94bc
00000010: f8d4 513b 8e6e 923c 153c 72bd e82b 473d
00000020: f5c5 213d 4559 babc 6b02 733c 2ed3 8fbc
00000030: 735f 173d bc14 ae3c c3c8 d3bc 2b2a 06bd
00000040: 100d 2ebd 9abe 5c3c 7fd9 48bd c640 b2bc
00000050: e749 efbc a77a 083c ba18 9e3b 700a 7b3b
00000060: 9fa3 8d3c 4505 00bd 4420 c03c e19d 69bc
00000070: 71e1 00bd 9a76 3dbb cafd 75bc 400b d6bc
00000080: 515b 9cbb 16bd 3a3d e61e 09bd 3401 98bb
00000090: 2269 803b 1d36 5bbc 55af 32bb e216 66bb
000000a0: 5177 fbbc 9af6 983b e68b 353d 2306 a0bc
000000b0: 9f8d 05bd 0f93 fa3c f8fb 6fbd 5aa1 d0bc
000000c0: 9dcb 90bb a31c 26bd 0337 933c e424 0ebc
000000d0: 0f9d 873c 1f67 8fbc 7199 0abd 1d02 85bb
000000e0: 8153 043b b0bf d13a 4148 dabc 144b c2bc
000000f0: c1c6 163c 83df ee3c 3b07 9d3d a2dc bf3c
00000100: 0556 0b3d d0c7 d4bb 80b1 6a3d aad5 c03a
00000110: 4e69 4f3c 3418 1c3c bbe1 bfbb e33c 1bb9
00000120: 9618 e938 9a46 c4bc c0b6 e6bc 849f b8bc
00000130: 96cd d73c f155 833c b43a a1bc 340e ae3b
00000140: 3c7e 063d 9576 3e3c ac9e 36bc 5801 383c
00000150: b79f c13b c9ea 373c 05f2 93bc 3cb5 103d
00000160: e3ec e43c ed86 953c 5344 59bd 99e3 8a3b
00000170: add9 a23c eae2 743c 86ca a0bb f8ec b8bc
00000180: a9db b03c 2130 1ebc 4a3e 163c 4270 c53c
00000190: 4014 9cbc 10ee 173c 8ef9 ccbb 7388 273d
000001a0: 5c0c e33b 09e4 7a3c 7616 1c3d c3d8 7f3c
000001b0: 6283 f23c bcc0 313d 1260 9cbb 06d4 283b
000001c0: 2fb8 3c3d 8226 0a3c b178 26bb f7d3 b43b
000001d0: 8f4c 513d 7152 c13b 0c85 f83b d863 ce3c
000001e0: 6c44 ffbb fe6c 99bb fded 393b eade 293d
000001f0: 4132 c83c 76d2 103b 70d1 a2bc 6e4c 1a3c
00000200: 4cb9 1f3d 565f 6a3b 5c7d e8bc 55c7 513c
00000210: 07b0 9c3c b821 07bc 99bc b7b9 e081 da3c
00000220: 54c5 e03c c1d1 6b3c 3cc6 143b c002 1dbd
00000230: 2973 333c 153f cabc b741 31bb ea70 0b3d
00000240: 46a4 82bc a27a f83c 4bb5 d73c 4eb0 0c3c
00000250: c19a 933c 59c4 b7bb 4822 d13b 539c 5fbc
00000260: f1e7 c03c df35 4e38 59b0 c03c ecea e8bc
00000270: 90e0 b33b b30f 1dbc a99e 0abc 14d0 353b
00000280: 5d39 e7bc 0679 98bc 23ea 9d3c 71dc 6dbc
00000290: d107 92bb fb8c 343c 7442 e639 da02 83bb
000002a0: 3317 8f3a c6cc 47bb fcd7 0e3d 2bda 543c
000002b0: 1bb7 1e3d 6efb 7abc cd44 d23c 9d4a 023d
000002c0: 5878 c3bc 74ec dabb 7840 f23b 6d59 103c
000002d0: 19b8 553c 43a4 80bb 0808 483c 9052 163b
000002e0: c025 c23c bddb bfbb 29c7 203c a340 c93a
000002f0: a280 a33c 76c5 96bb fdd1 acbb 48e4 303d
00000300: 3e80 5abc c785 f83b d364 493d 5585 123c
00000310: a8c4 1f3c d262 133c bfa9 743c 162d 743d
00000320: 93ff ad3a c31f 60bb ad2a 37bc 9d4e a03c
00000330: 86df 473d 7fc1 99bc 3ddf a53b 937e 663c
00000340: f240 a9bb 0386 8fbc 800e 0abc 8000 e4bc
00000350: 4242 213c 0705 233d 56a5 dfba db8f 9aba
00000360: 71f2 1c3b b75b 79bc 49ec f33c a129 513c
00000370: ad3c 3f3d da58 283d e6ee c2ba 4132 863c
00000380: 2da9 ff3c fa02 c43c c226 373d 02ef b33c
00000390: e597 9cbc ad54 f7bc bf57 fd3c e672 bd3c
000003a0: 4552 0e3d 5e73 8bbb 3436 113d 0a90 233c
000003b0: 862c dbbc b261 543c c017 023d 8c85 503c
000003c0: 254e 18bd 538a 203d bd62 88bc b905 16bc
000003d0: 6ac4 44bb 5164 73bc c5dd 893b 3095 86bc
000003e0: 060c b0b9 8ad9 893c 04d0 ff3b 8a5d f83b
000003f0: 196e 6e3b e83c 23bd d00a 6cbc 1559 833c

spectral.conv4.conv.bias f4 [12]
-0.08706348 -0.011136863 0.047903944 -0.011499945 -0.030836992 0.025265114 0.007760635 -0.056890853
0.015534337 -0.08807519 -0.11058229 0.07703247
00000000: 564e b2bd 6477 36bc ed36 443d 446a 3cbc
00000010: dc9d fcbc c9f8 ce3c ed4c fe3b 6206 69bd
00000020: bb83 7e3c c460 b4bd f878 e2bd 33c3 9d3d

spectral.conv4.bn.weight f4 [12]
0.9620361 1.0025972 1.0486739 1.0062644 1.058271 1.0479873 0.9804336 1.0306959
1.0224054 1.0262619 1.0930912 1.0134302
00000000: ff47 763f 1b55 803f f23a 863f 46cd 803f
00000010: 6d75 873f 7324 863f b2fd 7a3f d8ed 833f
00000020: 2ede 823f 8d5c 833f 6aea 8b3f 15b8 813f

spectral.conv4.bn.bias f4 [12]
-0.047093388 0.002600765 0.009951177 0.0048606843 0.057123266 0.0047680745 -0.0118442 0.012785399
-0.006656164 0.0177168 0.06124985 -0.0074491114
00000000: ffe4 40bd 9971 2a3b 430a 233c 6046 9f3b
00000010: 16fa 693d 823d 9c3b 2d0e 42bc da79 513c
00000020: f31b dabb d322 913c 1fe1 7a3d ad17 f4bb

spectral.conv4.bn.running_mean f4 [12]
-0.12995839 0.21405195 0.25472745 -0.22164659 -0.034223177 -0.12719864 -0.16715471 0.026724832
0.12798494 -0.09595571 -0.267221 0.43753037
00000000: d013 05be 6f30 5b3e a36b 823e 53f7 62be
00000010: 9a2d 0cbd 5c40 02be 9b2a 2bbe 09ee da3c
00000020: 7c0e 033e 6d84 c4bd 31d1 88be fb03 e03e

spectral.conv4.bn.running_var f4 [12]
0.05413642 0.032340046 0.030939752 0.06103171 0.011993645 0.029035706 0.066860124 0.036306772
0.019002272 0.037192296 0.04435009 0.050390746
00000000: 27be 5d3d ff76 043d 5d75 fd3c 63fc 793d
00000010: fe80 443c 4adc ed3c f6ed 883d 69b6 143d
00000020: a7aa 9b3c f356 183d 71a8 353d 8766 4e3d

spectral.conv5.conv.weight f4 [24, 36, 1, 1, 49]
-0.02454111 -0.013114768 0.04965904 -0.027079968 -0.039508265 0.011124901 -0.031745423 0.025515465
0.008486648 -0.00056116015 -0.019616177 0.022625955 0.018060366 0.024192005 0.01841051 0.0009819074
0.0100962175 0.02542271 0.026512062 -0.0052980073 0.012177287 -0.0061267135 -0.0056026033 0.002073432
0.019679531 0.011670393 0.01605506 -0.0024509141 -0.0042673755 0.011258941 -0.025256477 -0.010661395
-0.026621727 -0.033636928 0.0028717443 0.01363742 -0.014284507 -0.01636391 -0.006816318 -0.056591995
-0.008204486 -0.0017497508 -0.0052633327 -0.022357931 -0.038313545 -0.00030736302 0.010050838 0.004787388
0.0041793617 0.0011857048 0.03301156 0.01016503 -0.012598973 -0.012895279 0.0048542414 -0.006003445
0.028179485 -0.01418265 -0.0017602668 -0.01598147 -0.0137042925 -0.0089414725 -0.00018847821 -0.0018328944
-0.00089370145 -0.012753086 -0.030235171 -0.012564767 -0.031726755 -0.019119121 -0.039965507 0.011270497
-0.0017588387 -0.04443736 -0.02169671 -0.0077274097 -0.00062819454 0.0006743085 0.029251667 0.01787926
5.746907e-05 -0.020609984 0.019551272 -0.004169964 0.015906757 -0.007684781 0.016636502 -0.018382493
0.0027774388 -0.01595525 -0.04004645 0.0017941891 0.0046318583 0.057052188 -0.023525005 0.03663636
0.038788836 0.0025487049 0.028865652 -0.027142506 0.035416573 -0.04328902 -0.01286041 0.0030960045
0.00033327125 0.0034635148 0.022504227 -0.025283454 -0.02065297 0.01160058 0.020722456 0.018665854
-0.0032446426 -0.0066170716 -0.016578931 -0.002590344 0.0076184403 0.035042066 0.0044077295 0.0064163427
0.00040384394 -0.0035398721 -0.007645928 0.004497032 -0.043988112 -0.0007314248 -0.006505073 -0.026730377
-0.0030447256 -0.034455217 0.020670848 -0.03582423 0.004532424 -0.005663969 -0.032546174 -0.014806712
-0.05414569 -0.04441479 -0.03646201 0.023563903 -0.0033220896 0.010309103 -0.011395798 0.0038935374
-0.0069139847 -0.013714927 -0.04098244 -0.02158719 0.019463388 -0.033987347 0.015536865 0.014924726
-0.0008480728 -0.0056268713 -0.010111586 -0.0010457534 -0.007294603 0.007689095 0.0067785652 -0.001094013
0.022628604 -0.037438337 0.029947624 -0.009146605 -0.029552653 -0.003908137 -0.040544722 -0.018641869
0.014737058 0.004229251 -0.01784623 0.0017432722 0.012568947 0.0019493251 -0.020562146 -0.006338598
0.002146051 -0.013115401 0.032036223 -0.0119134495 0.023238743 -0.00718973 -0.054582525 -0.011967607
0.034472186 0.0064525683 -0.024018357 0.0151852025 -0.030366577 0.019510353 0.016738158 -0.01342153
0.010744092 -0.016879257 0.0072438847 -0.021225354 0.010091475 -0.008873745 -0.034672447 -0.010800036
-0.017567316 0.02234921 -0.015316967 -0.011074764 -0.01368188 -0.013562201 -0.026673272 0.005185641
0.020321019 0.006672517 -0.018029926 0.008239178 0.004034331 -0.02446134 -0.008222907 0.012469512
0.0010952452 0.0006552049 0.013677362 0.010028229 0.012165043 0.022277433 0.012478211 0.006377696
0.0009935241 -0.00792518 -0.012006859 -0.040818337 0.020499768 0.020139424 -0.028820265 0.029403068
-0.005367127 -0.015275567 0.029861242 -0.021926533 -0.008431743 -0.054487105 -0.009865246 0.030176986
-0.0057103885 0.024752937 0.005157545 -0.00026864972 -0.008782609 -0.02630392 -0.027573545 -0.03133969
-0.022094004 0.001140707 -0.009872258 -0.02103072 -0.042206403 -0.0034187583 0.00065511797 0.037373725
00000000: 700a c9bc 53df 56bc 4767 4b3d cfd6 ddbc
00000010: 6bd3 21bd 3745 363c 7d07 02bd cf05 d13c
00000020: 950b 0b3c d21a 13ba 1bb2 a0bc 115a b93c
00000030: 55f3 933c 502e c63c a3d1 963c 58b3 803a
00000040: 9b6a 253c 4a43 d03c d32f d93c e89a adbb
00000050: 3e83 473c 99c2 c8bb 0b96 b7bb 6be2 073b
00000060: f836 a13c 2d35 3f3c e785 833c 849f 20bb
00000070: 57d5 8bbb 6c77 383c ace6 cebc 22ad 2ebc
00000080: cf15 dabc e0c6 09bd e033 3c3b 7c6f 5f3c
00000090: 9109 6abc 9b0d 86bc 6b5b dfbb 02cd 67bd
000000a0: 1c6c 06bc e557 e5ba 0978 acbb fb27 b7bc
000000b0: aaee 1cbd 9125 a1b9 45ac 243c 85df 9c3b
000000c0: 07f3 883b a769 9b3a 2137 073d 3a8b 263c
000000d0: ec6b 4ebc b846 53bc 5410 9f3b 8cb8 c4bb
000000e0: aad8 e63c 585e 68bc c1b8 e6ba 92eb 82bc
000000f0: f887 60bc 417f 12bc 3ca2 45b9 bb3d f0ba
00000100: 4a47 6aba 52f2 50bc c0af f7bc 74dc 4dbc
00000110: eaf3 01bd b49f 9cbc dfb2 23bd e4a7 383c
00000120: d588 e6ba f303 36bd 4cbd b1bc 3636 fdbb
00000130: 6cad 24ba 14c4 303a 31a1 ef3c 8777 923c
00000140: f20a 7138 45d6 a8bc fd29 a03c 32a4 88bb
00000150: e34e 823c 9ed0 fbbb 4649 883c e296 96bc
00000160: b105 363b 96b4 82bc bf07 24bd ff2a eb3a
00000170: d8c6 973b 8eaf 693d 83b7 c0bc 0210 163d
00000180: 0be1 1e3d 2c08 273b a977 ec3c f659 debc
00000190: f810 113d d44f 31bd 78b4 52bc 56e6 4a3b
000001a0: e9ba ae39 23fc 623b c95a b83c 3f1f cfbc
000001b0: 6b30 a9bc 5c10 3e3c 24c2 a93c 22e9 983c
000001c0: 12a4 54bb 05d4 d8bb 8ad0 87bc c3c2 29bb
000001d0: 1ca4 f93b 4588 0f3d b76e 903b 2f40 d23b
000001e0: 04bb d339 33fd 67bb b18a fabb d75b 933b
000001f0: e12c 34bd 16bd 3fba 8228 d5bb aaf9 dabc
00000200: 058a 47bb ea20 0dbd e955 a93c 6ebc 12bd
00000210: ba84 943b d198 b9bb 234f 05bd da97 72bc
00000220: dfc7 5dbd 48ec 35bd 3059 15bd 1609 c13c
00000230: 6ab7 59bb 83e7 283c 71b5 3abc b82a 7f3b
00000240: b58e e2bb 93b4 60bc 34dd 27bd 9ed7 b0bc
00000250: af71 9f3c 5136 0bbd 568e 7e3c d786 743c
00000260: 3451 5eba 9e61 b8bb 11ab 25bc a911 89ba
00000270: 9107 efbb cef4 fb3b ba1e de3b fc64 8fba
00000280: 9f5f b93c f158 19bd b854 f53c a4db 15bc
00000290: 6818 f2bc d40f 80bb 3912 26bd d5b6 98bc
000002a0: b473 713c 8795 8a3b 4232 92bc 827e e43a
000002b0: fced 4d3c 7f80 ff3a f271 a8bc 04b4 cfbb
000002c0: c3a4 0c3b fbe1 56bc 6a38 033d a130 43bc
000002d0: 2d5f be3c d497 ebbb ed91 5fbd c813 44bc
000002e0: b532 0d3d 1170 d33b 25c2 c4bc 5bcb 783c
000002f0: 54c3 f8bc 2dd4 9f3c 761e 893c fae5 5bbc
00000300: fd07 303c 5e46 8abc 1c5e ed3b cbe0 adbc
00000310: b756 253c 2f63 11bc b204 0ebd a2f2 30bc
00000320: 55e9 8fbc b115 b73c 04f4 7abc ed72 35bc
00000330: f729 60bc fe33 5ebc e881 dabc 4fec a93b
00000340: 4478 a63c 21a5 da3b 7fb3 93bc 9efd 063c
00000350: 6c32 843b 2663 c8bc 5fb9 06bc ed4c 4c3c
00000360: 558e 8f3a 0ec2 2b3a 0417 603c 714d 243c
00000370: e34f 473c 2a7f b63c 6971 4c3c fefb d03b
00000380: 2339 823a 9dd8 01bc 6bb8 44bc 2131 27bd
00000390: 21ef a73c 6ffb a43c 7a18 ecbc b4de f03c
000003a0: b9de afbb 5f46 7abc 909f f43c 469f b3bc
000003b0: 4b25 0abc df2d 5fbd d7a1 21bc ba35 f73c
000003c0: 361e bbbb acc6 ca3c a000 a93b 8ed9 8cb9
000003d0: efe4 0fbc 527b d7bc eae1 e1bc 0c5e 00bd
000003e0: 7cfe b4bc c783 953a 40bf 21bc 9e48 acbc
000003f0: 9fe0 2cbd 3f0d 60bb 39bc 2b3a 3115 193d

spectral.conv5.conv.bias f4 [24]
0.018689932 -0.025576228 0.011934171 -0.005704558 -0.010695428 -0.009258814 -0.025099872 -0.0056109885
0.020642083 0.018591445 0.0048853746 -0.009072479 -0.020498406 0.0020825013 0.007569043 0.0025508415
0.011236467 -0.014601066 -0.024249982 -0.020300297 0.022581225 0.013480537 0.019703023 -0.014400974
00000000: a11b 993c 3d85 d1bc 8b87 433c 4ded babb
00000010: e03b 2fbc 48b2 17bc 3f9e cdbc 62dc b7bb
00000020: 9619 a93c 164d 983c 7e15 a03b bca4 14bc
00000030: 46ec a7bc 937a 083b bc05 f83b 052c 273b
00000040: 2919 383c 4f39 6fbc e6a7 c6bc cf4c a6bc
00000050: 43fc b83c 78dd 5c3c 3c68 a13c 10f2 6bbc

spectral.conv5.bn.weight f4 [24]
0.84781873 0.89557517 1.0022995 1.0357119 1.0031588 0.96610504 0.9994917 0.9161879
0.8392435 0.9136855 0.9521206 0.9444117 0.85536116 0.9611122 0.946893 0.8584465
0.9079438 0.8955747 0.790239 0.9624795 0.94653463 0.99296224 0.9293148 0.9717497
00000000: a60a 593f 6a44 653f 5a4b 803f 3592 843f
00000010: 8267 803f a952 773f b0de 7f3f 4a8b 6a3f
00000020: a9d8 563f 4be7 693f 2dbe 733f f7c4 713f
00000030: f3f8 5a3f 730b 763f 9467 723f 26c3 5b3f
00000040: 016f 683f 6244 653f 1a4d 4a3f 0e65 763f
00000050: 1850 723f c632 7e3f 93e7 6d3f 97c4 783f

spectral.conv5.bn.bias f4 [24]
-0.111370124 -0.04420611 -0.01845151 -0.039151933 -0.06913666 -0.0064767217 0.012303481 -0.06296567
-0.070059195 -0.035115115 -0.06273023 -0.06752829 -0.09699017 -0.025652861 -0.039261173 -0.09419308
-0.07051292 -0.05493771 -0.13426365 -0.03402499 -0.042089496 -0.030441483 -0.024570629 -0.024076847
00000000: 0516 e4bd 7711 35bd 9f27 97bc c75d 20bd
00000010: 8597 8dbd ae3a d4bb 8a94 493c 25f4 80bd
00000020: 327b 8fbd ded4 0fbd b578 80bd 464c 8abd
00000030: c8a2 c6bd f325 d2bc 53d0 20bd 4de8 c0bd
00000040: 1469 90bd 5d06 61bd 697c 09be ca5d 0bbd
00000050: 0966 2cbd 6b60 f9bc 5848 c9bc cf3c c5bc

spectral.conv5.bn.running_mean f4 [24]
-2.535399 -1.1785657 -2.5342155 -2.1650229 3.4041114 -0.708228 -0.7365862 -3.2062726
0.07696287 -1.8883859 -0.79397583 -3.2204847 -1.9700488 -2.4147298 -2.4009855 -2.2691877
-1.8514599 -1.6223489 -2.1845868 -0.5077844 -0.7890477 -1.1836185 -3.033142 -3.8685155
00000000: fa43 22c0 3edb 96bf 9630 22c0 bc8f 0ac0
00000010: f6dc 5940 6e4e 35bf ea90 3cbf 9233 4dc0
00000020: b69e 9d3d a1b6 f1bf 0042 4bbf 6c1c 4ec0
00000030: 8f2a fcbf ef8a 1ac0 bfa9 19c0 5f3a 11c0
00000040: a3fc ecbf 21a9 cfbf 45d0 0bc0 29fe 01bf
00000050: 08ff 49bf d080 97bf 001f 42c0 c295 77c0

spectral.conv5.bn.running_var f4 [24]
5.1062174 4.8030906 4.7757797 1.9364377 7.913165 3.7022314 4.9129553 13.628773
7.9483166 8.586903 2.534406 8.057326 9.045276 4.778419 2.369285 4.215765
5.970001 5.120306 2.9905603 2.1805775 2.9315774 5.5714417 4.1626635 6.63297
00000000: 2266 a340 ebb2 9940 30d3 9840 31dd f73f
00000010: a638 fd40 5cf1 6c40 ee36 9d40 740f 5a41
00000020: 9c58 fe40 f463 0941 b533 2240 cfea 0041
00000030: 73b9 1041 cfe8 9840 5ea2 1740 8ce7 8640
00000040: 400a bf40 8cd9 a340 5765 3f40 958e 0b40
00000050: f79e 3b40 4049 b240 8a34 8540 4a41 d440

spectral.bn.weight f4 [24]
1.1379281 1.0551772 1.084535 1.0689448 1.1249746 1.1476425 1.071626 1.1481577
1.0943837 1.0476177 1.0829829 1.0815922 1.138 1.0622073 1.0491654 1.1884258
1.1618015 1.0524027 1.1811291 1.0835556 1.0702466 1.0634848 1.0716369 1.1106058
00000000: a1a7 913f 0c10 873f 0bd2 8a3f 2fd3 883f
00000010: 2bff 8f3f f3e5 923f 0a2b 893f d5f6 923f
00000020: c414 8c3f 5618 863f 2f9f 8a3f 9d71 8a3f
00000030: fca9 913f 69f6 873f 0d4b 863f 561e 983f
00000040: e9b5 943f 22b5 863f 3d2f 973f f3b1 8a3f
00000050: d7fd 883f 4520 883f 662b 893f 5528 8e3f

spectral.bn.bias f4 [24]
0.11703447 0.12262734 0.21850821 0.16261102 0.22784822 0.22859615 0.18011972 0.22269161
0.14469123 0.0828181 0.16104646 0.19479921 0.24188985 0.19093467 0.19201162 0.21878499
0.19738354 0.13886128 0.24480787 0.15368408 0.17513351 0.19460225 0.10598369 0.21719806
00000000: c5af ef3d 0b24 fb3d 9ec0 5f3e 8183 263e
00000010: 0b51 693e 1c15 6a3e 4e71 383e 4509 643e
00000020: f029 143e 899c a93d 5de9 243e 7279 473e
00000030: f9b1 773e 6184 433e b29e 443e 2c09 603e
00000040: e91e 4a3e a731 0e3e eaae 7a3e 5c5f 1d3e
00000050: 3356 333e d045 473e fa0d d93d 2b69 5e3e

spectral.bn.running_mean f4 [24]
0.92478746 1.0315766 1.0907755 1.1110376 0.92274237 1.0318863 1.0434341 0.9948577
0.9887872 1.0651008 1.0276158 0.9923979 0.87975806 1.0675348 1.0576301 0.90636545
0.94423646 1.0105804 0.8403222 1.0125284 1.0858178 1.0517724 1.046242 1.0450104
00000000: dfbe 6c3f b40a 843f 889e 8b3f 7b36 8e3f
00000010: d838 6c3f da14 843f 408f 853f ffae 7e3f
00000020: 2821 7d3f 3955 883f ea88 833f ca0d 7e3f
00000030: d337 613f fba4 883f 6c60 873f 9107 683f
00000040: 7bb9 713f b35a 813f 5b1f 573f 889a 813f
00000050: 14fc 8a3f 7aa0 863f 42eb 853f e7c2 853f

spectral.bn.running_var f4 [24]
1.9845008 3.401646 3.1880476 3.9331424 2.2631326 2.980774 2.3122187 2.2189686
2.6823194 2.2576625 3.3142471 2.3374739 1.9753956 3.1890109 3.181188 2.2117245
3.6477234 3.323282 2.4556906 3.0365899 3.4850554 3.2183325 2.9143932 3.3113687
00000000: 1f04 fe3f 91b4 5940 f908 4c40 9bb8 7b40
00000010: 2ad7 1040 00c5 3e40 64fb 1340 9503 0e40
00000020: 1fab 2b40 8b7d 1040 a01c 5440 2c99 1540
00000030: c3d9 fc3f c118 4c40 9698 4b40 e58c 0d40
00000040: 4d74 6940 a7b0 5440 092a 1d40 7d57 4240
00000050: 260b 5f40 29f9 4d40 6b85 3a40 77ed 5340

spatial.conv1.conv.weight f4 [24, 1, 1, 1, 102]
0.080719315 0.040593978 0.03121146 0.023300968 0.048151664 0.036247846 0.02813436 0.015894478
0.030297246 0.017302686 0.053812962 0.02550424 0.0025937671 -0.028248657 0.021494374 0.0027030564
0.03314229 0.01929175 -0.01781051 0.018944034 -0.005119698 0.051900033 -0.056925815 -0.02973414
-0.08390528 -0.077952236 -0.025821205 -0.045829576 -0.0876059 -0.08085319 -0.043568544 -0.101487026
-0.07057431 -0.06478252 -0.03218797 -0.048139293 -0.008410961 0.004425322 0.008360076 -0.019882623
0.01953356 0.016799575 -0.021696666 0.01753386 0.0029949122 0.0149860885 0.023760518 0.015535411
0.026666876 0.015596346 -0.016550373 0.046452872 0.035331972 0.01611851 0.0060187457 0.0037335006
-0.0080848485 0.027861346 0.0018833876 -8.5317224e-05 0.01897687 -0.037226666 0.010193877 0.0012156472
-0.040898696 -0.014481606 -0.01613201 -0.03677847 -0.010452181 -0.041940298 -0.051355865 0.013799095
-0.05221346 -0.0005967056 -0.031530667 -0.0032928714 0.022536233 -0.021671485 0.0006652339 0.01715999
0.035964362 0.0075446297 0.0072749224 -0.0044954126 0.010479134 0.014515408 -0.05176219 0.0011821185
-0.0091225775 -0.0007464808 0.019389909 0.028694222 0.009515353 0.03329096 0.007095392 0.009913959
-0.015175913 -0.008844329 -0.034822326 -0.00901605 -0.018849745 0.037987668 -0.01899162 -0.006195762
0.004942357 -0.015111391 -0.03629799 -0.012116234 -0.018347735 -0.022066018 0.023671629 -0.0149373645
-0.0071385494 -0.020000733 0.039754547 -0.0065014013 -0.008158592 0.004236908 0.0109062 0.028025674
-0.010077981 0.0038786074 -0.023108035 0.03264798 0.03236432 -0.032197773 0.013532287 0.010783907
0.008868643 0.018762764 0.04387093 0.026286202 0.0110255 0.021208122 0.029411176 0.004162392
0.011659419 0.043959755 0.011710079 0.0136998175 0.057103477 0.03190432 0.059151597 0.032313082
0.0018358167 -0.0054540583 0.018623115 -0.025413835 -0.006178037 0.009169607 -0.002965598 0.04959883
0.021481998 -0.011404426 0.0009863372 0.030123819 -0.018360173 0.03655437 -0.015367394 -0.030440973
0.0030931376 -0.02660086 -0.0464468 -0.07765828 0.0003870552 -0.008369913 -0.008320025 -0.033181265
-0.031101406 -0.057807803 -0.012918099 -0.042643458 -0.025116535 -0.024312254 -0.02628422 -0.03298981
-0.03570284 -0.025920704 -0.040560875 -0.054466434 -0.014221829 -0.021843301 -0.010145621 -0.039340507
-0.04129764 -0.01139397 0.016500846 -0.005796945 -0.08114354 -0.01631199 0.01776022 0.0360243
0.019492626 -0.0120470645 0.020846084 -0.0068076593 -0.022640081 0.02824701 0.015089081 0.010403858
0.037900805 0.012793726 0.023526458 -0.015918972 -0.026313879 0.005620428 0.03129914 -0.0042883614
-0.031419232 -0.018996287 -0.0060430705 -0.019019408 -0.011602685 0.020287083 -0.002495071 -0.020233044
-0.018920086 0.0021043508 -0.012943113 -0.027875118 0.016922873 0.008441535 -0.014705453 -0.004776012
-0.018649682 0.018765567 0.030091465 0.014195478 0.02889725 -0.0029252367 0.08716762 0.031436555
0.07784555 0.038944103 0.010114501 0.03931064 0.04021408 0.022706484 0.05254632 0.019737717
0.016754989 0.03567249 -0.006752421 -0.018997138 0.07072602 -0.007679882 0.006096578 0.015190407
0.029092463 -0.009765574 0.022173705 0.01076279 -0.0006036016 -0.01538902 -0.018130166 -0.0017985193
00000000: 2b50 a53d df45 263d 2daf ff3c ace1 be3c
00000010: ae3a 453d 9f78 143d 087a e63c 2335 823c
00000020: ee31 f83c 5dbe 8d3c fb6a 5c3d 45ee d03c
00000030: 31fc 293b ba69 e7bc f814 b03c c325 313b
00000040: 36c0 073d bb09 9e3c 59e7 91bc 8530 9b3c
00000050: 24c3 a7bb 2195 543d 0b2b 69bd 0395 f3bc
00000060: 88d6 abbd 6ca5 9fbd fe86 d3bc cbb7 3bbd
00000070: b96a b3bd 5b96 a5bd ee74 32bd 6ed8 cfbd
00000080: 4489 90bd b3ac 84bd 88d7 03bd b52d 45bd
00000090: 21ce 09bc 4b02 913b b3f8 083c e2e0 a2bc
000000a0: d804 a03c 439f 893c 35bd b1bc 2ba3 8f3c
000000b0: 4a46 443b 3688 753c 6ba5 c23c 3d88 7e3c
000000c0: 7e74 da3c d187 7f3c a694 87bc 5e45 3e3d
000000d0: 42b8 103d f70a 843c e638 c53b bfad 743b
000000e0: 5076 04bc 7a3d e43c 00dc f63a 56ec b2b8
000000f0: 6275 9b3c fd7a 18bd 3804 273c 5a56 9f3a
00000100: 6485 27bd 4244 6dbc 4727 84bc 05a5 16bd
00000110: a03f 2bbc 97c9 2bbd 875a 52bd 9915 623c
00000120: c8dd 55bd 3c6c 1cba 4d26 01bd 37cd 57bb
00000130: e89d b83c 6688 b1bc 1763 2e3a 1b93 8c3c
00000140: 5e4f 133d f138 f73b 7962 ee3b 414e 93bb
00000150: acb0 2b3c 09d2 6d3c 9704 54bd 51f1 9a3a
00000160: dd76 15bc 7aaf 43ba 96d7 9e3c 2510 eb3c
00000170: 48e6 1b3c 1a5c 083d 7680 e83b 286e 223c
00000180: 65a4 78bc cee7 10bc dba1 0ebd 0eb8 13bc
00000190: c86a 9abc f598 1b3d 5094 9bbc d205 cbbb
000001a0: 7ff3 a13b c595 77bc 33ad 14bd 2b83 46bc
000001b0: fd4d 96bc cbc3 b4bc 01eb c13c d9bb 74bc
000001c0: 7eea e9bb 94d8 a3bc aad5 223d b509 d5bb
000001d0: 9dab 05bc c3d5 8a3b ebaf 323c 1996 e53c
000001e0: 1e1e 25bc 3c30 7e3b 104d bdbc e3b9 053d
000001f0: 7390 043d d0e1 03bd 87b6 5d3c fcae 303c
00000200: c94d 113c 5eb4 993c 01b2 333d 2956 d73c
00000210: 4ca4 343c a8bc ad3c b5ef f03c ad64 883b
00000220: 2607 3f3c 250f 343d a2db 3f3c 3375 603c
00000230: 56e5 693d 1bae 023d f248 723d b95a 043d
00000240: c99f f03a f5b7 b2bb 818f 983c ad30 d0bc
00000250: 2171 cabb 1f3c 163c 7a5a 42bb 2528 4b3d
00000260: 04fb af3c a1d9 3abc fc47 813a 3ac6 f63c
00000270: 1368 96bc 09ba 153d 86c7 7bbc 595f f9bc
00000280: 3db6 4a3b 0cea d9bc 003f 3ebd 4e0b 9fbd
00000290: abed ca39 f621 09bc b750 08bc 14e9 07bd
000002a0: 60c8 febc e0c7 6cbd 6fa6 53bc e8aa 2ebd
000002b0: 31c1 cdbc 7e2a c7bc 0152 d7bc 5320 07bd
000002c0: 243d 12bd a857 d4bc 2923 26bd 3218 5fbd
000002d0: ad02 69bc b9f0 b2bc d239 26bc 8323 21bd
000002e0: b727 29bd c6ad 3abc c82c 873c 4df4 bdbb
000002f0: 962e a6bd b9a0 85bc e27d 913c 378e 133d
00000300: 00af 9f3c 0d61 45bc 68c5 aa3c c912 dfbb
00000310: b177 b9bc 4666 e73c 3138 773c f174 2a3c
00000320: e03d 1b3d c79c 513c 8fba c03c 8168 82bc
00000330: 3490 d7bc 912b b83b 8733 003d 6285 8cbb
00000340: 74b1 00bd 1a9e 9bbc f304 c6bb 97ce 9bbc
00000350: 3019 3ebc 1931 a63c 5884 23bb c5bf a5bc
00000360: 4cfe 9abc 26e9 093b 5a0f 54bc 5c5a e4bc
00000370: d6a1 8a3c 5d4e 0a3c 24ef 70bc 1880 9cbb
00000380: 38c7 98bc 3fba 993c 6082 f63c 2694 683c
00000390: edb9 ec3c 54b5 3fbb f084 b23d 9ec3 003d
000003a0: 7d6d 9f3d da83 1f3d 4bb7 253c 3204 213d
000003b0: 85b7 243d f302 ba3c cf3a 573d feb0 a13c
000003c0: c241 893c 511d 123d 6a43 ddbb e39f 9bbc
000003d0: ced8 903d 85a7 fbbb cec5 c73b 2fe1 783c
000003e0: 5153 ee3c c9ff 1fbc a1a5 b53c 6a56 303c
000003f0: 053b 1eba 3a22 7cbc b785 94bc 4bbc ebba

spatial.conv1.conv.bias f4 [24]
0.05635722 0.068884775 0.034656767 -0.02862337 -0.05070919 0.04858325 -0.06629532 0.008552311
0.028735371 0.028548224 0.059710786 -0.052810937 -0.09686626 0.007277948 0.01085161 -0.0806695
-0.089608766 -0.058936276 -0.004976593 0.027526261 -0.03482451 -0.028730378 -0.034813248 -0.043559313
00000000: d4d6 663d 7613 8d3d 41f4 0d3d 8f7b eabc
00000010: 71b4 4fbd 3bff 463d d7c5 87bd fe1e 0c3c
00000020: 7166 eb3c f7dd e93c 4c93 743d 4850 58bd
00000030: d161 c6bd da7b ee3b f4ca 313c 0d36 a5bd
00000040: cd84 b7bd 2a67 71bd b012 a3bb c17e e13c
00000050: 25a4 0ebd f85b ebbc 5698 0ebd 406b 32bd

spatial.conv1.bn.weight f4 [24]
1.0195115 1.0311432 1.0092393 0.9883067 1.0459654 0.99192 0.9777912 0.96575713
1.0161691 1.0204551 0.98526853 1.0051562 0.9618512 1.0121073 1.0319556 1.0328631
0.9837444 1.0148753 1.020648 0.96047294 1.0156943 0.99787384 1.0161082 1.0117719
00000000: 5a7f 823f 80fc 833f c12e 813f ab01 7d3f
00000010: 32e2 853f 78ee 7d3f 8650 7a3f dc3b 773f
00000020: d411 823f 469e 823f 8f3a 7c3f f5a8 803f
00000030: e13b 763f bb8c 813f 1f17 843f dc34 843f
00000040: acd6 7b3f 6fe7 813f 98a4 823f 8ee1 753f
00000050: 4502 823f a974 7f3f d50f 823f be81 813f

spatial.conv1.bn.bias f4 [24]
-0.008625156 -0.009935793 0.016659651 -0.015513057 0.01742272 7.6975026e-05 0.02104642 0.01620164
0.024396002 -0.041079998 -0.002298546 -0.013411689 -0.062585965 0.04059043 0.014523743 0.029107999
0.014266952 0.022598399 -0.07519967 0.008886054 -0.03305621 -0.01829558 0.0059208767 0.030301915
00000000: 8750 0dbc bcc9 22bc d279 883c 7a2a 7ebc
00000010: 18ba 8e3c a76d a138 8b69 ac3c 4db9 843c
00000020: 20da c73c 8043 28bd 34a3 16bb b3bc 5bbc
00000030: 122d 80bd 2742 263d fef4 6d3c e673 ee3c
00000040: efbf 693c 4720 b93c 4902 9abd d096 113c
00000050: f365 07bd 9de0 95bc ea03 c23b b93b f83c

spatial.conv1.bn.running_mean f4 [24]
-381.63107 -435.4726 -373.02194 -1993.8885 635.2799 359.55185 146.6988 -198.37482
48.416107 1090.105 334.1803 7.8950124 28.310595 -234.39688 -187.2719 450.68912
-46.915585 456.19022 -1347.433 1614.6648 -328.90808 199.62708 -1115.4984 899.6526
00000000: c7d0 bec3 7ebc d9c3 cf82 bac3 6f3c f9c4
00000010: ead1 1e44 a3c6 b343 e5b2 1243 f45f 46c3
00000020: 18aa 4142 5c43 8844 1417 a743 f1a3 fc40
00000030: 197c e241 9a65 6ac3 9b45 3bc3 3558 e143
00000040: 8fa9 3bc2 5918 e443 db6d a8c4 46d5 c944
00000050: 3c74 a4c3 88a0 4743 f36f 8bc4 c4e9 6044

spatial.conv1.bn.running_var f4 [24]
84853.85 120993.4 331782.44 1.8567949e+06 126180.35 103888.62 209762.66 475649.94
180037.22 532391.4 156705.97 180331.02 532157.9 46856.746 66707.28 87648.92
63524.25 105672.34 813244.0 831206.9 87076.15 134205.55 469293.47 229365.42
00000000: edba a547 b350 ec47 ce00 a248 d7a8 e249
00000010: 2d72 f647 4fe8 ca47 aad8 4c48 3e40 e848
00000020: 4ed1 2f48 76fa 0149 7e08 1948 c11a 3048
00000030: deeb 0149 bf08 3747 a449 8247 7630 ab47
00000040: 4024 7847 2c64 ce47 c08b 4649 6eee 4a49
00000050: 1312 aa47 630f 0348 af25 e548 5bfd 5f48
