checkpoints/model_epoch189.pth (torch, 752887 bytes, 210 tensors)

spectral.conv1.conv.weight f4 [24, 1, 1, 1, 5]
0	0x3ca7acec	0.020468198
1	0x3c05b528	0.008160867
2	0xbcfa3be6	-0.03054614
3	0xbc575693	-0.0131431995
4	0xbc30d7bf	-0.010793625
5	0x3cac64f3	0.02104423
6	0xbcfe0d8f	-0.031012325
7	0xbd09bc02	-0.033626564
8	0x3c43825e	0.011932937
9	0xbc31e1b4	-0.0108570345
10	0xbc4d9c6b	-0.0125495
11	0xbbd28ce1	-0.0064254855
12	0x3d1ad665	0.03780212
13	0x3d0e6a36	0.03476926
14	0xbc87091c	-0.016483836
15	0xbbc7de91	-0.00609953
16	0x3b263fba	0.0025367574
17	0xbd1da973	-0.038491677
18	0x3d101de0	0.03518474
19	0xbc0306ad	-0.007997197
20	0x3bd34a01	0.006448031
21	0x3bae2a84	0.005315127
22	0xbccd8186	-0.025086176
23	0x3c037f16	0.008025905
24	0xbc943a50	-0.018094212
25	0x3ccef389	0.025262611
26	0xbb4911d0	-0.0030680783
27	0xbd5804ef	-0.05273908
28	0x3d6c7c41	0.057735685
29	0xbb88fb1a	-0.0041803243
30	0xbc0a131f	-0.00842741
31	0xbd310cbe	-0.043225043
32	0x3cc5f5c7	0.024165047
33	0x3c83edc2	0.016104583
34	0xbb8277c3	-0.003981562
35	0xbcf2ee21	-0.029654564
36	0xbd24a4de	-0.040196292
37	0x3d544b82	0.051829822
38	0x3d1d6564	0.03842677
39	0xbc27076a	-0.010194639
40	0xbc3e83d4	-0.01162811
41	0x39f10001	0.00045967105
42	0x3c1c9203	0.009556296
43	0xbd3bd995	-0.0458618
44	0xbc52fe4d	-0.012878013
45	0x3c9e265e	0.019305404
46	0xbb89b7cc	-0.0042028185
47	0xba51e3ea	-0.0008006679
48	0xbd3b3397	-0.045703497
49	0x3c398b33	0.011324692
50	0xbc24e7f0	-0.010065064
51	0xbd5addc0	-0.053434134
52	0x3c033561	0.008008332
53	0x3bfa8b75	0.007646019
54	0x3cbdeeb2	0.023185108
55	0x3c9fdbe6	0.019514035
56	0x3cf962ab	0.030442556
57	0xbd636369	-0.055514727
58	0xbc083f36	-0.008315852
59	0xbc18d73f	-0.009328662
60	0xbc8a405f	-0.016876398
61	0xbc5d03c7	-0.01348967
62	0x3c3ba854	0.011453707
63	0xbc39c2cd	-0.011337948
64	0x3bbb4f6e	0.005716256
65	0xbd22ff2b	-0.03979413
66	0x3bc61b91	0.0060457666
67	0xbca987df	-0.020694671
68	0x3c3adf3d	0.011405763
69	0x3c3fac91	0.011698858
70	0xbc9d36ca	-0.019191165
71	0xbcc32dbc	-0.023825519
72	0xbc947fb7	-0.018127305
73	0x3d62c535	0.055363853
74	0xbcacbf37	-0.021087272
75	0xbd1a09bf	-0.03760695
76	0xbc4d65cb	-0.012536476
77	0x3be4b07a	0.0069790455
78	0xbc4e2584	-0.012582187
79	0x3d28f770	0.0412516
80	0xbb795f36	-0.0038051135
81	0x3cff8410	0.031190902
82	0xbca1fa3f	-0.019772647
83	0xbca03859	-0.019558119
84	0xbc3daa26	-0.011576211
85	0xbce32e85	-0.027732143
86	0xbd531371	-0.051532213
87	0x3c10d949	0.008840867
88	0x3d2891ab	0.041154545
89	0xbcb2a430	-0.021806806
90	0xbc8e17e8	-0.017345384
91	0x3c718b00	0.014742613
92	0xbbc1e62c	-0.005917331
93	0xbb931a7b	-0.0044892407
94	0xbcc1a7be	-0.023639556
95	0xbc8ddf72	-0.017318461
96	0x3ceb8ba3	0.028753107
97	0xbbaf1586	-0.005343142
98	0xbd80013f	-0.06250238
99	0xbd86e01f	-0.065857165
100	0xbca24afa	-0.019811142
101	0xbc7a2cfe	-0.015269516
102	0x3b89497d	0.0041896687
103	0x3d013d11	0.031552378
104	0x3ca826b4	0.020526268
105	0x3c431fce	0.011909438
106	0x3c600845	0.013673847
107	0x3cb19b42	0.021680478
108	0xbd2b2774	-0.041785672
109	0xbc2d3437	-0.010571531
110	0x3b5c5ebc	0.0033625802
111	0xbbbb9728	-0.0057248063
112	0x3a7d009f	0.00096512766
113	0x3c85cb2c	0.016332231
114	0xbd0eb39c	-0.034839258
115	0xbd919a28	-0.07109481
116	0xbd3c3755	-0.045951206
117	0xbb1e6b13	-0.0024172708
118	0x3cf558da	0.029949594
119	0xbcfabf08	-0.030608669

spectral.conv1.conv.bias f4 [24]
0	0xbe73c50d	-0.23805638
1	0xbed1c921	-0.40973762
2	0x3e232eb2	0.15935782
3	0xbeb240ec	-0.34815156
4	0xbeb19416	-0.34683293
5	0x3ea96f0a	0.3309253
6	0xbce1dc2f	-0.027570812
7	0xbda61eea	-0.08111365
8	0x3e8af789	0.2714198
9	0x3e0e6f00	0.1390953
10	0xbe5412b7	-0.20710264
11	0xbe41ec72	-0.18937853
12	0x3e7d3ded	0.24730654
13	0x3e97003c	0.29492366
14	0x3dbe7bbe	0.09300946
15	0xbd8aed95	-0.067835964
16	0x3ec19399	0.3780792
17	0x3e9fb985	0.31196228
18	0xbea54b5c	-0.32284057
19	0xbcab039a	-0.02087574
20	0xbea1123f	-0.31459233
21	0x3e7fc096	0.2497581
22	0x3e5449cd	0.20731278
23	0x3d3a1292	0.045427866

spectral.conv1.bn.weight f4 [24]
0	0x3f77c5cb	0.96786183
1	0x3f734215	0.9502271
2	0x3f79a6be	0.97520053
3	0x3f74503a	0.95434916
4	0x3f6d4841	0.92688376
5	0x3f67ff7c	0.90624213
6	0x3f7f4e3e	0.99728763
7	0x3f85689f	1.0422553
8	0x3f8114f2	1.0084517
9	0x3f7d6772	0.9898597
10	0x3f781647	0.9690899
11	0x3f7eca08	0.99527025
12	0x3f7a8743	0.97862643
13	0x3f7bcab6	0.9835619
14	0x3f7a7bf6	0.978454
15	0x3f7fe15a	0.99953234
16	0x3f7f86f1	0.9981528
17	0x3f7d4831	0.9893828
18	0x3f7a626a	0.9780642
19	0x3f796e59	0.97434
20	0x3f7ea6e9	0.99473435
21	0x3f7727ed	0.96545297
22	0x3f7b8552	0.98250306
23	0x3f775852	0.9661914

spectral.conv1.bn.bias f4 [24]
0	0xbd63f737	-0.055655684
1	0xbd126c1a	-0.035747625
2	0xbce225a6	-0.027605843
3	0xbd559d53	-0.05215199
4	0xbd808a91	-0.062764294
5	0xbd366f3c	-0.044539675
6	0x3adebe37	0.0016993944
7	0x3d5a2f3c	0.053267702
8	0xbcb854c0	-0.02250135
9	0x3cc3d097	0.023903174
10	0xbc0cbd3e	-0.008590041
11	0xbcfa8c89	-0.03058459
12	0xbc0c44c8	-0.008561321
13	0xbcfb033a	-0.030641187
14	0xbc69e531	-0.014275835
15	0xbbcf518b	-0.0063268594
16	0x3c7e6b14	0.015528459
17	0xbd2859b8	-0.041101187
18	0x3bbce169	0.0057641757
19	0xbccba212	-0.024857555
20	0x3c99c0a4	0.018768616
21	0xbcd85bbc	-0.02641093
22	0xbccd9819	-0.02509694
23	0xba2bef3d	-0.00065587816

spectral.conv1.bn.running_mean f4 [24]
0	0xc1fe21fd	-31.766596
1	0xc24c780f	-51.117245
2	0x4231535d	44.33141
3	0xc1926237	-18.297956
4	0xc1e56908	-28.676285
5	0x41de6b1f	27.802305
6	0xc1902e22	-18.022526
7	0x4154220b	13.258311
8	0xc2905236	-72.16057
9	0xc1c2b417	-24.337934
10	0xc1e1a429	-28.205156
11	0xc1ea8590	-29.315216
12	0xc1e44569	-28.533892
13	0xc20dffe6	-35.4999
14	0xc1f82bc2	-31.021366
15	0xc18d19cb	-17.637594
16	0xc1e2362b	-28.27645
17	0xc26de80f	-59.47662
18	0xc230997b	-44.149883
19	0xc312f440	-146.9541
20	0x41ce6d04	25.80323
21	0xc0b6cc95	-5.7124734
22	0xc1bdf2cc	-23.743553
23	0xc30cc289	-140.7599

spectral.conv1.bn.running_var f4 [24]
0	0x442d1884	692.38306
1	0x44db378a	1753.7356
2	0x44a79ae5	1340.8405
3	0x435d4861	221.28273
4	0x4408d888	547.3833
5	0x43fd422c	506.51697
6	0x4364c7e4	228.78082
7	0x4321775f	161.4663
8	0x455d8a63	3544.6492
9	0x43d13718	418.43042
10	0x440e5ba5	569.43195
11	0x441647a6	601.1195
12	0x440ce8ec	563.6394
13	0x445e6aa5	889.6663
14	0x442660ad	665.51056
15	0x4381a586	259.29315
16	0x440cf42f	563.81537
17	0x45180aa9	2432.6663
18	0x44a19ad4	1292.8384
19	0x4664534e	14612.826
20	0x43f78278	495.0193
21	0x42397fde	46.37487
22	0x43c2af55	389.36978
23	0x46519e05	13415.505

spectral.conv2.conv.weight f4 [6, 6, 1, 1, 5]
0	0xbd539f2a	-0.051665463
1	0xbced08c2	-0.02893484
2	0x3bf41604	0.0074489135
3	0xbb253e62	-0.0025214185
4	0xbd744fff	-0.059646603
5	0x3d2a3f05	0.041564006
6	0xbcabd077	-0.020973427
7	0x3c368c7f	0.011141895
8	0x3d2fdc41	0.04293466
9	0x3ce64423	0.028108662
10	0x3c1b9a09	0.009497174
11	0xbbcb4a52	-0.006203928
12	0x3c0b9048	0.008518286
13	0x3cba524b	0.022744318
14	0x3c872560	0.016497314
15	0xbc1614a0	-0.009160191
16	0x3c633b7a	0.013869161
17	0x3cd02717	0.025409264
18	0xbd5cf442	-0.05394388
19	0xbc854586	-0.016268503
20	0xbb9d4aa3	-0.004800157
21	0xbc21cf08	-0.00987602
22	0xbbacba1f	-0.005271211
23	0xbcf57ef9	-0.029967772
24	0x3c9d1239	0.019173728
25	0xbcda33d6	-0.026636045
26	0xbbc9872e	-0.006150148
27	0xba4d1adf	-0.00078241335
28	0x3ca75fd1	0.020431431
29	0xbc810ff3	-0.015754675
30	0xbd6dc2dd	-0.058047164
31	0x3ba9e730	0.0051850304
32	0x3d20b47b	0.03923462
33	0x3cfa4a61	0.030553045
34	0xbce22415	-0.027605096
35	0xbc16f7c9	-0.00921435
36	0xbbfb2432	-0.007664227
37	0x3d06988a	0.032860316
38	0x3ce4a1d5	0.027909199
39	0x3ce576e9	0.028010802
40	0x3d3a45b9	0.04547665
41	0x3d433e09	0.047666583
42	0x3cfeabb7	0.03108774
43	0x3c829b9b	0.01594334
44	0x3c87c9e1	0.016575756
45	0x3c980426	0.018556666
46	0x3beea072	0.00728231
47	0xbd06f36a	-0.03294698
48	0xbd057485	-0.032581825
49	0x3ab196cb	0.0013548968
50	0x3980d7ee	0.00024574943
51	0xbd3a485d	-0.045479167
52	0x3bf8040c	0.007568842
53	0xbab5db62	-0.0013874585
54	0x3c31e0c1	0.010856808
55	0x3d57796c	0.05260603
56	0x3d93976f	0.07206618
57	0x3d30c3e7	0.043155577
58	0x3b80953f	0.0039240415
59	0xbc7684e6	-0.015046334
60	0x3c235054	0.009967882
61	0x3c6171fb	0.013760085
62	0x3d15fb82	0.03661681
63	0xbc1ec8c1	-0.009691418
64	0x3b74a04c	0.003732699
65	0x3a123b82	0.00055783254
66	0x3d18ca8c	0.03730254
67	0x3c8b3912	0.016994987
68	0x3b36da35	0.0027901058
69	0xbc92c105	-0.017914305
70	0xbcbf160e	-0.023325946
71	0xbc9ccd43	-0.019140845
72	0xbce8f2b7	-0.028436048
73	0x3cbe95ad	0.02326473
74	0xbca14e8b	-0.019690773
75	0x3c032125	0.008003508
76	0xbc7c089e	-0.015382914
77	0xbd4ec38a	-0.05047945
78	0xbcb5cbd3	-0.022191918
79	0x3c4ba43c	0.012429293
80	0x3cd1134c	0.025521897
81	0xbceb6a75	-0.028737286
82	0x3cc0a9fd	0.023518557
83	0xba730939	-0.00092710886
84	0x3af30c7d	0.001854315
85	0xbcf5e443	-0.03001607
86	0x3b53ef81	0.00323388
87	0xbd16c61f	-0.036810037
88	0xbc9f7785	-0.019466171
89	0x3c6d56ef	0.014486059
90	0xbb598305	-0.0033189666
91	0x39b96d17	0.00035367228
92	0xbcd207f4	-0.025638558
93	0x3d3ce538	0.046117038
94	0xba900824	-0.0010988754
95	0x3c5f6abd	0.013636288
96	0x3c8d5398	0.017251775
97	0xbd171d9b	-0.03689347
98	0x3d1f051e	0.03882324
99	0xbbeb6f08	-0.007184867
100	0x3c51f2dd	0.012814251
101	0x3bc2e205	0.005947354
102	0xbcbe731c	-0.023248248
103	0xbbb00082	-0.0053711543
104	0x3cee6a9e	0.029103573
105	0xbcfdeff7	-0.030998213
106	0xb9cc942f	-0.00039020317
107	0x3d85f85f	0.06541514
108	0xbce5d8b7	-0.02805744
109	0xbbe4d434	-0.0069833044
110	0xbbe80b5d	-0.0070814327
111	0xbbb8ed5f	-0.005643531
112	0xbb21cfda	-0.002469054
113	0x3cc34e39	0.02384101
114	0xbb458a7b	-0.0030142355
115	0xbce34fa6	-0.02774794
116	0xbca55268	-0.020180896
117	0xbac5b817	-0.001508477
118	0x3aaeef93	0.0013346545
119	0x3d2b7cd7	0.041867103
120	0x3acfff7f	0.001586899
121	0xbbecee57	-0.0072305608
122	0xbb8372ac	-0.0040114727
123	0x3c4a5cd7	0.012351236
124	0xbbfc8ebb	-0.0077074445
125	0xbd1703ef	-0.036868986
126	0x3d341752	0.043967552
127	0x3c49d8f6	0.012319794
128	0x3c673ce1	0.014113636
129	0x3b441470	0.0029919408
130	0x3d89f0db	0.06735393
131	0x3ce5e40a	0.028062839
132	0x3d326774	0.04355569
133	0xba2a0063	-0.0006485043
134	0xbc711e23	-0.014716658
135	0xbc972fa2	-0.01845533
136	0x3c0a9296	0.0084578
137	0xbba81887	-0.005129877
138	0x3c1d901b	0.009616877
139	0xbc8a64d8	-0.01689379
140	0xbc8daf14	-0.017295398
141	0x3b9fc4b1	0.0048757424
142	0xbba5d75e	-0.005061074
143	0x3d4425ff	0.0478878
144	0x3c467b7a	0.0121144
145	0x3c9c2c12	0.019063983
146	0x3cadd74a	0.021220822
147	0x3ccd4acd	0.025060082
148	0xbcf1bdde	-0.029509481
149	0xbc1290aa	-0.008945623
150	0x3d15e103	0.03659154
151	0xbc7ecf55	-0.0155523615
152	0x3bbe2e62	0.005803869
153	0xbc45f557	-0.012082419
154	0xbc08f900	-0.0083601475
155	0x3d873701	0.06602288
156	0xbcb5a424	-0.022172995
157	0xbcf2548d	-0.029581333
158	0x3ca9ee15	0.02074341
159	0xbd222179	-0.039582703
160	0x3b8b8f29	0.0042590094
161	0xbc71e95a	-0.014765108
162	0xbc14a6cf	-0.009072973
163	0x3bc1724c	0.005903518
164	0xbc44550f	-0.01198317
165	0xbcd4276e	-0.025897708
166	0xbb87a71e	-0.004139795
167	0x3cf69f2b	0.030105194
168	0xbc6587a0	-0.014009386
169	0x3bfd0756	0.007721822
170	0x3cc6e340	0.024278283
171	0xbbba24e5	-0.0056806677
172	0xbac50373	-0.0015030935
173	0x3c8768dd	0.016529495
174	0xbc6cf069	-0.014461615
175	0xbc56a537	-0.013100914
176	0xbc975bc6	-0.018476378
177	0x3c62917a	0.01382863
178	0xbc0bf5ff	-0.008542537
179	0x3c104fc1	0.008808077

spectral.conv2.conv.bias f4 [6]
0	0xbdbc5d01	-0.091974266
1	0xbe33ece6	-0.17570838
2	0x3e3c5e16	0.18395266
3	0xbd9354f6	-0.071939394
4	0x3b8ff901	0.0043936973
5	0xbbe726a2	-0.007054166

spectral.conv2.bn.weight f4 [6]
0	0x3f79022f	0.97268957
1	0x3f7d697b	0.98989075
2	0x3f7d21d4	0.9887974
3	0x3f856ad1	1.0423223
4	0x3f710854	0.9415333
5	0x3f849ad4	1.035975

spectral.conv2.bn.bias f4 [6]
0	0xbd484ac3	-0.048899423
1	0xbca3091f	-0.01990181
2	0x3bff1c06	0.007785323
3	0x3c81c5aa	0.015841324
4	0xbd662e57	-0.056196537
5	0x3d020ccf	0.031750496

spectral.conv2.bn.running_mean f4 [6]
0	0xbdf3f64f	-0.11912214
1	0xbd6c5dbb	-0.057706576
2	0x3e1a1a11	0.15049006
3	0xbd420922	-0.04737199
4	0x3da74e6f	0.08169257
5	0xbc9332e2	-0.017968599

spectral.conv2.bn.running_var f4 [6]
0	0x3c79e08e	0.015251292
1	0x3c0ddf6a	0.008659223
2	0x3bcd6a31	0.0062687625
3	0x3a59a62c	0.00083026546
4	0x3b8c8c12	0.0042891586
5	0x3a6bab12	0.000899003

spectral.conv3.conv.weight f4 [12, 12, 1, 1, 5]
0	0xbc898e50	-0.016791493
1	0xbcf09c88	-0.029371515
2	0xbc5012dd	-0.01269981
3	0xbd19f65c	-0.037588462
4	0x3c13272a	0.008981505
5	0xbbf9a320	-0.007618323
6	0xbd0468b9	-0.032326434
7	0xbd050e9c	-0.032484636
8	0xbd082337	-0.03323671
9	0xbb572e04	-0.0032833824
10	0xbd07d461	-0.033161525
11	0x3c1e8f34	0.009677697
12	0x3cacb387	0.021081699
13	0xbc999b1a	-0.018750716
14	0x3c9232cb	0.017846486
15	0x3c55e52d	0.013055128
16	0x3beb81f4	0.0071871225
17	0xbc0a6c04	-0.0084486045
18	0x3d1e1f81	0.038604263
19	0x3c100cd0	0.008792117
20	0xbd4d4393	-0.050113272
21	0xbc94031c	-0.018067889
22	0xbcde64ab	-0.027147612
23	0xbbbd58f1	-0.005778425
24	0xb75d7896	-1.3200703e-05
25	0x3c1e67e6	0.009668326
26	0xbd08a917	-0.03336438
27	0x3b935829	0.0044965935
28	0xbc8068b3	-0.015674924
29	0x3d033f70	0.03204292
30	0xbc2f8640	-0.01071316
31	0x3ba2a403	0.0049633994
32	0x3c17d3c3	0.0092667965
33	0x393564a5	0.00017298998
34	0xbc8777c7	-0.016536606
35	0x3c9ac0ea	0.018890817
36	0xbc7e925c	-0.0155378245
37	0x3d225304	0.03962995
38	0xbcc5bd80	-0.024138212
39	0x3c33335b	0.010937537
40	0x3cd39b73	0.02583096
41	0xbbcef00d	-0.0063152374
42	0x3d1a15eb	0.03761856
43	0xbca5a067	-0.020218087
44	0x3cf0c588	0.029391065
45	0xbcf127f6	-0.029438
46	0x3caa8cf6	0.020819169
47	0x3c919249	0.01776995
48	0x3cda068d	0.026614452
49	0xbb449eb0	-0.0030001812
50	0xbc936753	-0.017993605
51	0xbc357e0d	-0.011077416
52	0x3cb0cb6a	0.02158137
53	0xbc5502bf	-0.013001143
54	0x3d04ce76	0.03242346
55	0xbd1054d6	-0.035237156
56	0xbd291fdb	-0.041290145
57	0xba47598e	-0.0007604592
58	0x3c3c5127	0.011493958
59	0x3d35009c	0.044190034
60	0xbc889c48	-0.016676083
61	0xbc8c86d9	-0.017154144
62	0xbbc54e3e	-0.00602129
63	0xbd0f2a0b	-0.034952205
64	0x3b64b8b8	0.003490014
65	0xbbdcb02b	-0.006734868
66	0xbc167ec7	-0.0091854995
67	0x3cee39cf	0.0290803
68	0x3c450f9c	0.012027647
69	0x3c9ef5ba	0.01940428
70	0x3cd24ba1	0.025670828
71	0x3c86e229	0.016465263
72	0xbc635e35	-0.013877441
73	0xbcab46dd	-0.020907814
74	0xbd812f97	-0.06307905
75	0xbb9aa366	-0.0047191856
76	0x3c82f52d	0.01598605
77	0x3b9c5ae1	0.004771576
78	0xbca0f277	-0.019646866
79	0x3d750bec	0.059825823
80	0xbc98d32a	-0.018655378
81	0xbbe6f0d4	-0.007047752
82	0xbc02b12c	-0.007976811
83	0xbc032a32	-0.008005666
84	0x3c6c827e	0.014435409
85	0x3d14316d	0.03617995
86	0xbce4894a	-0.027897496
87	0x3c8002d5	0.01562635
88	0xbd8c9af4	-0.068654925
89	0xbb1d7df1	-0.0024031366
90	0x3b013ffb	0.0019721973
91	0xbbd42ea0	-0.0064752847
92	0x3ceed995	0.029156486
93	0x3cb3cc1b	0.021947911
94	0xbb8a090a	-0.0042125033
95	0x3bcd0a47	0.0062573287
96	0x3c789c3d	0.015173969
97	0xbd27691e	-0.040871732
98	0x3c55a94f	0.013040855
99	0xbc644642	-0.013932766
100	0x3b4db99d	0.0031391152
101	0x3ca7a04d	0.02046218
102	0xbc9cc621	-0.019137444
103	0xbc275254	-0.0102125
104	0xbd244af8	-0.04011056
105	0xbd1852ac	-0.037188217
106	0xbc2c91cb	-0.010532807
107	0xbb84d85b	-0.004054112
108	0xbc5b831a	-0.013397956
109	0x3c571cb6	0.013129404
110	0xbb8d92f2	-0.0043204958
111	0x3d26c137	0.040711608
112	0x3d3de0b7	0.046356883
113	0xbc596c45	-0.013270442
114	0x3c9e12ff	0.019296167
115	0x3c9c00db	0.019043377
116	0xbcc23c9f	-0.023710547
117	0x3c4630be	0.012096582
118	0xbc779bd1	-0.015112833
119	0xbc3db364	-0.011578415
120	0x3a4c0e0d	0.0007784076
121	0x3c39f4b3	0.011349845
122	0x3c6123a6	0.013741409
123	0xbd0da2c4	-0.034579054
124	0xbc978e4f	-0.018500475
125	0xbc3c6f3a	-0.011501128
126	0xb97a2fcc	-0.00023859664
127	0xbb6e4cb0	-0.0036361627
128	0x3b18978d	0.002328369
129	0x3c1093e6	0.008824324
130	0x3d1db110	0.038498938
131	0x3c39e764	0.011346672
132	0xbcdbcd83	-0.026831394
133	0x3b43d695	0.002988254
134	0x3c76d4b0	0.015065357
135	0x3bc17a11	0.005904444
136	0xbd4b3e9b	-0.049620252
137	0x3d5d608f	0.054047164
138	0xbc8b00ab	-0.016968092
139	0x3c2a286d	0.010385615
140	0xbaad2494	-0.0013209754
141	0x3c28bebc	0.010299381
142	0x3c0c0e93	0.008548397
143	0xbc564db8	-0.013080053
144	0x3ca579f0	0.020199746
145	0xbbf93687	-0.007605377
146	0xbc6aa1bc	-0.014320787
147	0x3d7947ec	0.060859606
148	0xbce631a5	-0.028099844
149	0x3b8173a6	0.003950554
150	0xbc2a7c5e	-0.010405628
151	0x3d35764c	0.04430227
152	0xba9b5084	-0.0011849557
153	0x3d1b11b2	0.037858672
154	0xbc2332df	-0.009960859
155	0x3acc9937	0.0015609626
156	0x3cadcd6b	0.021216115
157	0x3c502a0e	0.012705339
158	0x3c610133	0.013733196
159	0x3cf80d5d	0.03027981
160	0x3c815537	0.015787704
161	0x3cd5875b	0.02606552
162	0x3c05a0b2	0.0081559885
163	0x3be334c4	0.0069337804
164	0x3c5db917	0.013532898
165	0xbcc95736	-0.024577718
166	0x3be5ecaf	0.0070167403
167	0xbd16140c	-0.036640212
168	0x3c447704	0.011991266
169	0x3ccc0bea	0.024908025
170	0xbcfa85b6	-0.030581336
171	0x3c8a83e7	0.016908599
172	0x3a7c10a4	0.0009615517
173	0x3b36f839	0.0027918948
174	0xbcb2d271	-0.021828862
175	0x3cc0bfe2	0.023528997
176	0xbcea6f69	-0.028617578
177	0xbabbda9c	-0.0014332118
178	0xbbc8fd20	-0.0061336905
179	0xbb613193	-0.0034361824
180	0x38d8e742	0.00010342758
181	0xbcba1dcd	-0.022719288
182	0x3ca091a4	0.019600697
183	0xbcb68213	-0.022278821
184	0xbbfcf596	-0.007719706
185	0xbc296147	-0.010338134
186	0x3b653b78	0.0034978073
187	0xbb2886d4	-0.002571513
188	0xbcbf21bb	-0.023331514
189	0xbbf760c6	-0.007549378
190	0xbc7042ff	-0.014664411
191	0xbc907aa2	-0.0176366
192	0xbc3b79f3	-0.011442649
193	0x3d11c64e	0.03558951
194	0x3c9d9bb5	0.019239286
195	0xbccf9d49	-0.025343554
196	0xbcfcb839	-0.030849563
197	0xbcdc6ab4	-0.026906349
198	0x3c1749c6	0.009233898
199	0x3c0cf7bb	0.008603985
200	0xbcb7fdcc	-0.022459887
201	0xbcc6bda9	-0.024260359
202	0xbb08a764	-0.0020851726
203	0x3c4d6c2e	0.012537999
204	0x3c11df9e	0.008903412
205	0x3af61be7	0.0018776626
206	0xbc8b976e	-0.01703998
207	0xbd6031e1	-0.05473507
208	0xbd00951a	-0.031392194
209	0x3c129507	0.008946664
210	0x39b781cd	0.0003500119
211	0x3c82ddf7	0.015974982
212	0x3c1fb887	0.009748585
213	0xbd088dc7	-0.033338334
214	0x3b5e2b0c	0.003390017
215	0xbcfec137	-0.031097991
216	0xbafc5361	-0.0019250923
217	0x3c1cce31	0.009570644
218	0xbcc08b57	-0.023503942
219	0x3d0211be	0.0317552
220	0x3c6a0798	0.014284037
221	0xbd0329a5	-0.032022137
222	0x3ba0f874	0.0049124304
223	0x3c0a6acd	0.008448315
224	0x3c9d3f3b	0.01919519
225	0xbcca5fec	-0.024703942
226	0xbc11a484	-0.008889321
227	0x3cb16e5e	0.021659072
228	0x3c319932	0.010839747
229	0xbb25fe17	-0.0025328451
230	0x3c257f48	0.010101147
231	0xbd92c0b0	-0.071656585
232	0xbbaa6381	-0.00519985
233	0xbd8347fa	-0.06410213
234	0x3c77413f	0.0150912395
235	0xbcb6cba5	-0.022313902
236	0xbbafa2ca	-0.005359982
237	0xbd308752	-0.0430978
238	0x3ca32e18	0.01991944
239	0x3cb5d9ac	0.02219852
240	0xbc82f5de	-0.01598638
241	0x3aea3f3e	0.0017871631
242	0xba80680b	-0.0009796632
243	0x3d244613	0.04010589
244	0x3ab98155	0.0014152924
245	0xbb0b0864	-0.0021214718
246	0xbd3dbc68	-0.046322256
247	0xbb99b3f7	-0.004690643
248	0xbc91518e	-0.017739084
249	0x3cbbf55a	0.022944141
250	0xbd3586a5	-0.04431786
251	0xbc49599b	-0.01228943
252	0xbc6fcdcb	-0.014636467
253	0x3ca4705f	0.020073114
254	0x3d015296	0.0315729
255	0xbcb2b0ac	-0.02181276

spectral.conv3.conv.bias f4 [12]
0	0xbb84bd51	-0.0040508886
1	0xbbc7c21d	-0.006096138
2	0xbc9930cd	-0.018700028
3	0x3d1450dd	0.03620993
4	0x3c4e8c6d	0.012606722
5	0x3c63edcb	0.013911675
6	0xbdd742e0	-0.10510802
7	0xbdefc5df	-0.11707663
8	0xbc566a16	-0.013086816
9	0x3dd85319	0.105627246
10	0xbd82fe2a	-0.06396134
11	0xbda18935	-0.07887498

spectral.conv3.bn.weight f4 [12]
0	0x3f7b4d55	0.98164874
1	0x3f80c292	1.0059378
2	0x3f808202	1.0039675
3	0x3f80747a	1.0035546
4	0x3f8a1a9a	1.0789368
5	0x3f815b41	1.0105973
6	0x3f820f5e	1.016094
7	0x3f8121d7	1.0088452
8	0x3f834efd	1.025848
9	0x3f8150d1	1.0102788
10	0x3f853cc7	1.0409173
11	0x3f7f5007	0.9973149

spectral.conv3.bn.bias f4 [12]
0	0xbd11487e	-0.035469525
1	0x3bcbd9f0	0.0062210485
2	0x3a1941ed	0.00058463105
3	0x3b846bd5	0.004041175
4	0x3d08dd41	0.03341413
5	0xbd0deb5d	-0.034648288
6	0xbd373bdf	-0.044734832
7	0xbcc76330	-0.024339288
8	0x3c2c4d9c	0.01051655
9	0xbb4b77f9	-0.003104685
10	0x3c300712	0.010743873
11	0x3c4b7e81	0.012420298

spectral.conv3.bn.running_mean f4 [12]
0	0xbd81c745	-0.06336836
1	0xbd2d0c76	-0.04224821
2	0x3d67cf80	0.05659437
3	0xbde9f4ac	-0.114236206
4	0xbd4f2c89	-0.05057958
5	0x3e595649	0.21224321
6	0x3d80afc6	0.06283526
7	0x3d989ddb	0.074519835
8	0xbb4a2d60	-0.00308498
9	0x3d4c7061	0.04991186
10	0xbd95dc6d	-0.073174335
11	0x3d03eecc	0.032210156

spectral.conv3.bn.running_var f4 [12]
0	0x3c0b4026	0.008499181
1	0x3c672ad6	0.014109334
2	0x3c25ce3f	0.010119974
3	0x3c708518	0.0146801695
4	0x3ba70386	0.0050968556
5	0x3cf0ce51	0.029395254
6	0x3d06cb61	0.0329088
7	0x3d2400a8	0.04003969
8	0x3c2f5c63	0.010703179
9	0x3bfb6d7f	0.007672965
10	0x3bcd13e4	0.0062584747
11	0x3c8cbe9b	0.017180732

spectral.conv4.conv.weight f4 [12, 18, 1, 1, 5]
0	0xbb4d5c7e	-0.0031335647
1	0x3ce50f32	0.027961347
2	0x3ce03531	0.027369114
3	0xbc6521e4	-0.013985131
4	0x3bd2d7df	0.0064344252
5	0x3c67e8ab	0.014154593
6	0xbd79f0e2	-0.06102074
7	0x3d4c0aa6	0.049814843
8	0x3d22f361	0.039782885
9	0xbcb119c6	-0.021618735
10	0x3c1bb4d2	0.00950356
11	0xbc9d5da0	-0.019209683
12	0x3d170350	0.036868393
13	0x3c964fcc	0.018348597
14	0xbcd6409f	-0.02615386
15	0xbcd79965	-0.026318261
16	0xbd1e160f	-0.038595255
17	0x3c8a72a4	0.016900368
18	0xbd3ab188	-0.045579463
19	0xbc94331c	-0.018090777
20	0xbce9a000	-0.028518677
21	0x3c1cf99e	0.009580998
22	0x3c0b430d	0.008499873
23	0x3bd4f5a3	0.0064990087
24	0x3c9fa204	0.019486435
25	0xbd12efe0	-0.035873294
26	0x3c9327bb	0.01796328
27	0xbc9909f6	-0.018681508
28	0xbd10101b	-0.03517161
29	0xbbd7b636	-0.0065830005
30	0xbc9d1966	-0.01917715
31	0xbcf8d86f	-0.030376641
32	0xbc15c8cf	-0.009142115
33	0x3d2a3c86	0.041561626
34	0xbd16cf99	-0.036819074
35	0xbbff3aa4	-0.007788973
36	0x39908857	0.000275674
37	0xbc942e10	-0.01808837
38	0xbbc5cfd0	-0.006036736
39	0xbbe079ff	-0.0068504806
40	0xbd0efbd5	-0.034908134
41	0x3c1b5db0	0.009482786
42	0x3d3c5d81	0.04598761
43	0xbca5bd9f	-0.02023202
44	0xbcddeb95	-0.027089873
45	0x3d0e3eb9	0.034727786
46	0xbd666375	-0.056247193
47	0xbc90aff8	-0.017662033
48	0x3a478387	0.00076108467
49	0xbd1121d3	-0.035432648
50	0x3ca28048	0.01983656
51	0xbbae092c	-0.005311152
52	0x3cc73f37	0.024322135
53	0xbc617ed2	-0.0137631465
54	0xbcf7c361	-0.030244531
55	0xbc14ccc4	-0.009082023
56	0xbae53bf9	-0.0017489187
57	0xbb7c2b5e	-0.0038477997
58	0xbcf8646b	-0.03032132
59	0xbcd0b89f	-0.02547866
60	0x3ad0fe34	0.0015944899
61	0x3cb3bc3a	0.02194034
62	0x3d8f3ecd	0.069944
63	0x3c8c6775	0.017139176
64	0x3ce436ef	0.027858226
65	0xbc6bd841	-0.014394821
66	0x3d4ceeeb	0.050032537
67	0xbbaf3547	-0.0053469273
68	0x3bcc3c51	0.006232776
69	0x3b5c7e1d	0.0033644505
70	0xbc293a54	-0.010328848
71	0xbba20f66	-0.0049456833
72	0xbb8b2ded	-0.004247418
73	0xbcdda3eb	-0.027055701
74	0xbcff2241	-0.031144263
75	0xbcd49585	-0.025950203
76	0x3cc6c0da	0.02426188
77	0x3c5a584e	0.013326718
78	0xbc9d899a	-0.019230653
79	0x3bc9e0ed	0.0061608464
80	0x3ccbc13e	0.024872418
81	0x3b8bd136	0.0042668832
82	0xbc92883e	-0.017887231
83	0x3ba9e6d0	0.0051849857
84	0xb9be1d95	-0.00036261664
85	0x3b77d607	0.003781678
86	0xbcd184b5	-0.025575975
87	0x3cea69ef	0.028614966
88	0x3caf1943	0.02137435
89	0x3c3f0beb	0.011660556
90	0xbd4d53e8	-0.050128847
91	0x3bd571c8	0.006513808
92	0x3ca89dac	0.020582996
93	0x3c7a68e5	0.015283798
94	0xbb9a6957	-0.0047122645
95	0xbca9af81	-0.02071357
96	0x3cc566ce	0.024096873
97	0xbb8fa1dc	-0.004383309
98	0x3c6eabae	0.014567299
99	0x3cf0c669	0.029391484
100	0xbcacdebd	-0.021102304
101	0x3c26f9eb	0.010191421
102	0xbc1643d5	-0.009171446
103	0x3d2364ac	0.03989093
104	0x3c1398ed	0.009008628
105	0x3c3eeb05	0.011652713
106	0x3d093493	0.033497404
107	0x3c2fde20	0.010734111
108	0x3cc92cb3	0.024557447
109	0x3d1dcd1c	0.038525686
110	0xbba4032e	-0.005005262
111	0x3b11e6dc	0.0022262847
112	0x3d38e698	0.045141786
113	0x3bd56293	0.006511995
114	0xbbbf1f70	-0.005832605
115	0x3b8a569e	0.0042217514
116	0x3d4df615	0.05028351
117	0x3bc6e70d	0.006070024
118	0x3bff091b	0.007783068
119	0x3ccf717e	0.025322672
120	0xbc22b775	-0.009931435
121	0xbbd895a5	-0.006609636
122	0x3a9345e0	0.0011236034
123	0x3d2302b6	0.039797507
124	0x3cbdecf5	0.023184279
125	0x39ecb647	0.00045149235
126	0xbcb377d9	-0.021907734
127	0x3c01619c	0.007896807
128	0x3d1cac4a	0.038250245
129	0x3b18ae93	0.0023297414
130	0xbce0dd5a	-0.027449299
131	0x3c83ccf7	0.016088946
132	0x3c9a3564	0.018824287
133	0xbc015238	-0.007893138
134	0xb779d09b	-1.4890126e-05
135	0x3cbc4573	0.022982335
136	0x3cb7787d	0.02239632
137	0x3c544bd5	0.012957533
138	0xbb0bf534	-0.002135587
139	0xbd2801e5	-0.04101743
140	0x3c0e5a8d	0.008688581
141	0xbcb2bf76	-0.021819811
142	0xbb0126f5	-0.0019707058
143	0x3d0856ae	0.03328579
144	0xbc853c98	-0.016264245
145	0x3cfd004b	0.030883929
146	0x3ce1f0d0	0.027580649
147	0x3c1e7bd7	0.00967308
148	0x3ca18254	0.019715466
149	0xbbb8b3c1	-0.0056366627
150	0x3c08dce6	0.008353448
151	0xbc2f9c60	-0.010718435
152	0x3cdde5d5	0.027087132
153	0x3b87541f	0.004129901
154	0x3ce5f6ed	0.028071845
155	0xbcd827e3	-0.026386207
156	0x3c0cd80b	0.0085964305
157	0xbbbf51ef	-0.0058386247
158	0xbb8a390a	-0.0042182254
159	0x3bf18a59	0.0073712287
160	0xbcf3a615	-0.02974228
161	0xbca64804	-0.020298012
162	0x3c90055d	0.017580682
163	0xbc89171b	-0.01673465
164	0xbbeb51b4	-0.0071813706
165	0x3c13aa73	0.009012806
166	0xba6f6493	-0.0009132113
167	0xbbb47047	-0.0055065486
168	0xb9945ba2	-0.00028297032
169	0xbb91cede	-0.0044497093
170	0x3d189270	0.03724903
171	0x3c87df93	0.0165861
172	0x3d2f9210	0.042863905
173	0xbc30f02a	-0.010799447
174	0x3cf7f23b	0.030266872
175	0x3d0853f7	0.0332832
176	0xbcaf6f01	-0.021415235
177	0xbb7dc59d	-0.0038722523
178	0x3c32ff78	0.010925166
179	0x3c549169	0.012974122
180	0x3c4607f8	0.012086861
181	0xbbe6c0e3	-0.007042037
182	0x3c21d5a9	0.009877601
183	0x39dcd50e	0.00042120408
184	0x3c9fb0f0	0.01949355
185	0xba22e285	-0.00062135636
186	0x3c07fdc6	0.00830025
187	0x3ba20f74	0.00494569
188	0x3cbc950d	0.023020292
189	0xbaaef763	-0.0013348873
190	0x3a254c21	0.00063055946
191	0x3d2aa946	0.041665338
192	0xbc0265f7	-0.007958881
193	0x3c10fdad	0.0088495435
194	0x3d438062	0.047729857
195	0x3b0b813d	0.0021286749
196	0x3b1cf8c5	0.002395199
197	0x39debd30	0.00042484095
198	0x3be13e5a	0.006873888
199	0x3d5142fa	0.051089264
200	0x39e07dde	0.00042818388
201	0xbba9c240	-0.005180627
202	0xbc90260f	-0.017596273
203	0x3c3ddc8e	0.011588229
204	0x3d24ef5a	0.040267326
205	0xbc2532a7	-0.010082877
206	0x3c71df71	0.014762745
207	0x3cb82222	0.022477213
208	0x3b81601b	0.0039482242
209	0xbc150a5d	-0.009096709
210	0xbae82882	-0.0017712268
211	0xbca7bc04	-0.020475395
212	0x3c917287	0.017754806
213	0x3d4520fb	0.048127156
214	0x3bc438c2	0.0059882114
215	0x3aeff970	0.0018308591
216	0x3bd516aa	0.006502946
217	0xbc378a2c	-0.011202376
218	0x3d0757fc	0.033042893
219	0x3c9f41b7	0.019440515
220	0x3d465dea	0.048429407
221	0x3d183119	0.0371562
222	0xba530e28	-0.00080511207
223	0x3c38b81b	0.011274363
224	0x3cf0cff2	0.029396031
225	0x3c668198	0.0140689835
226	0x3d1e37bf	0.038627382
227	0x3c5aa088	0.013343938
228	0xbcc0e1a7	-0.0235451
229	0xbd116d2c	-0.035504505
230	0x3cd85a25	0.026410172
231	0x3c979e5e	0.018508133
232	0x3ce8d274	0.028420664
233	0xbc0bab30	-0.008524701
234	0x3cd43a75	0.02590678
235	0x3ca70233	0.02038679
236	0xbc88732f	-0.016656486
237	0x3cb72ff2	0.02236173
238	0x3d1e95fe	0.038717262
239	0x3cb47ad0	0.022031218
240	0xbce14da8	-0.02750285
241	0x3d468435	0.048465926
242	0xbc03d31c	-0.008045938
243	0xba5c43ce	-0.00084024377
244	0x3b9dc993	0.0048152893
245	0xbbad62eb	-0.005291333
246	0x3c59e6e8	0.013299681
247	0xbc032a82	-0.00800574
248	0x3c00ee0d	0.007869256
249	0x3cc8a80c	0.024494193
250	0x3be294ee	0.0069147265
251	0x3bd6350d	0.006537086
252	0x3b0aad58	0.002116045
253	0xbd287040	-0.041122675
254	0xbc84ff4b	-0.016235014
255	0x3c91758e	0.01775625

spectral.conv4.conv.bias f4 [12]
0	0xbdb1ae2b	-0.08675798
1	0xbc31e6d7	-0.010858259
2	0x3d3b415a	0.04571662
3	0xbc2c36ea	-0.010511139
4	0xbced3124	-0.028954096
5	0x3cda4328	0.02664335
6	0x3c0e0fc2	0.008670749
7	0xbd674678	-0.05646369
8	0x3c8e170b	0.017344972
9	0xbdb59165	-0.088656224
10	0xbddc5411	-0.10758222
11	0x3d9cb1d2	0.07651104

spectral.conv4.bn.weight f4 [12]
0	0x3f75dbd0	0.9603853
1	0x3f8008e6	1.0002716
2	0x3f8576a8	1.0426836
3	0x3f80574c	1.0026641
4	0x3f86ebef	1.0540751
5	0x3f859382	1.0435641
6	0x3f7b199f	0.9808597
7	0x3f843492	1.0328543
8	0x3f82e322	1.0225565
9	0x3f82a8ab	1.0207723
10	0x3f8b9fcb	1.090814
11	0x3f8166f6	1.0109546

spectral.conv4.bn.bias f4 [12]
0	0xbd3be2ba	-0.04587052
1	0x3af49b20	0.0018661954
2	0x3b48bbbf	0.0030629484
3	0x392ebb6a	0.0001666375
4	0x3d604d55	0.05476125
5	0x3b8b4c78	0.004251059
6	0xbc27b86c	-0.010236841
7	0x3c7bfca7	0.015380061
8	0xbb8a977f	-0.0042294855
9	0x3c8b61cc	0.017014407
10	0x3d69d018	0.05708322
11	0xbbc99dec	-0.006152859

spectral.conv4.bn.running_mean f4 [12]
0	0xbe2eb0e8	-0.17059672
1	0x3e6c117b	0.23053543
2	0x3ea784f2	0.32718617
3	0xbe417029	-0.18890442
4	0xbd0fe3da	-0.035129406
5	0xbdc00822	-0.09376551
6	0xbe1018ec	-0.14072007
7	0x3d3d9819	0.04628763
8	0x3e229d21	0.15880252
9	0xbd390520	-0.045170903
10	0xbe85e927	-0.26154444
11	0x3ee41646	0.44548243

spectral.conv4.bn.running_var f4 [12]
0	0x3d12e0ca	0.035858907
1	0x3d4d5068	0.05012551
2	0x3d5792c0	0.052630186
3	0x3cdd3087	0.027000679
4	0x3c6712a1	0.014103563
5	0x3cbc3d39	0.022978412
6	0x3d31d896	0.043419443
7	0x3d7fb1f8	0.062425584
8	0x3c6dbc48	0.014510222
9	0x3d086e54	0.033308342
10	0x3cd86314	0.026414432
11	0x3d984742	0.07435466

spectral.conv5.conv.weight f4 [24, 36, 1, 1, 49]
0	0xbcccd342	-0.02500308
1	0xbc4b6fe7	-0.012416816
2	0x3d4a0956	0.04932531
3	0xbcda99f1	-0.026684733
4	0xbd2075c0	-0.039174795
5	0x3c49b22d	0.012310547
6	0xbcffa531	-0.0312067
7	0x3cd72f95	0.026267806
8	0x3c20ae84	0.009807233
9	0x3a2c3427	0.00065690506
10	0xbc999ff1	-0.018753024
11	0x3cc1f193	0.023674762
12	0x3c9d4019	0.019195603
13	0x3cce8e34	0.025214292
14	0x3c9f3ce2	0.01943821
15	0x3b02d78a	0.0019964897
16	0x3c302cdf	0.010752886
17	0x3cd3fc5b	0.025877168
18	0x3cde0f69	0.027106958
19	0xbba8ddfb	-0.0051534153
20	0x3c41b7f3	0.011823642
21	0xbbcef9c9	-0.006316398
22	0xbbc45d95	-0.005992601
23	0x3ad3af58	0.0016150279
24	0x3c995be6	0.018720578
25	0x3c2b305c	0.0104485415
26	0x3c6fe72b	0.014642517
27	0xbb961377	-0.004579957
28	0xbbda241b	-0.006657136
29	0x3c15058d	0.009095562
30	0xbce0004e	-0.027343895
31	0xbc4d33ab	-0.012524526
32	0xbcf14c73	-0.0294554
33	0xbd1684da	-0.03674779
34	0x3a4d11e5	0.0007822796
35	0x3c39cd9c	0.011340525
36	0xbc9325ac	-0.0179623
37	0xbca1c3c4	-0.019746669
38	0xbc1e5511	-0.009663836
39	0xbd6f2294	-0.058382586
40	0xbc1b9840	-0.009496748
41	0xbbb45021	-0.005502716
42	0xbbee8516	-0.0072790487
43	0xbcc6a7b8	-0.024249896
44	0xbd25921d	-0.040422548
45	0xbb0d8930	-0.0021596663
46	0x3c0e9cef	0.008704408
47	0x3b759c89	0.0037477335
48	0x3b15ea1d	0.0022875138
49	0x395c6f62	0.00021022328
50	0x3d05811d	0.032593835
51	0x3c26b5ec	0.0101752095
52	0xbc516cb7	-0.012782267
53	0xbc52692b	-0.012842457
54	0x3bb03761	0.0053776954
55	0xbba154de	-0.004923447
56	0x3ce9c81c	0.028537802
57	0xbc53eba7	-0.012934602
58	0xba40324d	-0.0007331714
59	0xbc71f19e	-0.014767079
60	0xbc4e2050	-0.012580946
61	0xbbff14d1	-0.007784464
62	0x3a998961	0.0011713916
63	0xba1fd023	-0.00060963834
64	0x39b6e3be	0.00034883426
65	0xbc3d6c21	-0.0115614245
66	0xbcf0dc9b	-0.029402068
67	0xbc43e52e	-0.011956496
68	0xbcfe2102	-0.031021599
69	0xbc9d8d98	-0.019232556
70	0xbd241885	-0.040062446
71	0x3c325202	0.01088381
72	0xbb0f2010	-0.002183918
73	0xbd394f07	-0.045241382
74	0xbcbcc380	-0.02304244
75	0xbc175492	-0.009236472
76	0xbb31a339	-0.0027105345
77	0xbb0a6b1a	-0.0021120966
78	0x3cd8c561	0.026461305
79	0x3c744b94	0.014910597
80	0xbb2edafe	-0.0026680822
81	0xbcc37c6a	-0.023863036
82	0x3c80b0a7	0.015709234
83	0xbc067a34	-0.008207846
84	0x3c4e8d40	0.012606919
85	0xbc47ee86	-0.0122028645
86	0x3c3f6149	0.011680909
87	0xbcbfb584	-0.023401983
88	0xbadcfb71	-0.0016859603
89	0xbc9f3c33	-0.019437885
90	0xbd383783	-0.044974815
91	0xbb416530	-0.0029509775
92	0x3a0920ba	0.0005231012
93	0x3d58c11b	0.052918535
94	0xbce22e31	-0.027609916
95	0x3d075be8	0.033046633
96	0x3d13e5eb	0.03610794
97	0xba2b87e8	-0.0006543384
98	0x3cf830e8	0.030296758
99	0xbcd430b5	-0.025902132
100	0x3d12f2eb	0.035876196
101	0xbd2e14e5	-0.042500395
102	0xbc480bd4	-0.012209851
103	0x3b813e6b	0.0039442084
104	0x3a50b0b2	0.00079609
105	0x3b810d6d	0.003938368
106	0x3cbc568a	0.022990484
107	0xbccb201a	-0.02479558
108	0xbcabb8a2	-0.020962063
109	0x3c3de927	0.011591232
110	0x3ca85717	0.02054934
111	0x3c971d9b	0.018446734
112	0xbb7149c5	-0.0036817652
113	0xbbe90c91	-0.0071120937
114	0xbc8d1e19	-0.017226266
115	0xbb5db42e	-0.003382932
116	0x3bde2c6c	0.006780198
117	0x3d0bd8b8	0.034142226
118	0x3b57309b	0.0032835368
119	0x3bb15b3c	0.0054124873
120	0xba33fa26	-0.0006865583
121	0xbb9a45b6	-0.004708017
122	0xbc113f87	-0.008865244
123	0x3b5a5ffa	0.0033321367
124	0xbd38ee54	-0.045149162
125	0xbb043791	-0.0020174722
126	0xbbfd1949	-0.0077239615
127	0xbce40533	-0.02783451
128	0xbb8951a1	-0.004190639
129	0xbd121208	-0.035661727
130	0x3c9d0c16	0.019170802
131	0xbd196123	-0.037446152
132	0x3b431ef6	0.0029773093
133	0xbbea8c39	-0.007157829
134	0xbd0ce40b	-0.034397166
135	0xbc894ba9	-0.01675971
136	0xbd654c84	-0.055981174
137	0xbd3d4c67	-0.04621544
138	0xbd1a7d6b	-0.037717264
139	0x3caa75c9	0.020808117
140	0xbbadce50	-0.0053041354
141	0x3c089f3b	0.008338745
142	0xbc5c1b76	-0.013434282
143	0x3ae1441c	0.0017186436
144	0xbc147571	-0.009061203
145	0xbc810c6c	-0.015752994
146	0xbd31c411	-0.043399874
147	0xbcbb9166	-0.02289648
148	0x3c95be07	0.018279089
149	0xbd0aa88c	-0.033852145
150	0x3c80e4a1	0.015734019
151	0x3c73b7f6	0.014875403
152	0xba965195	-0.0011468405
153	0xbb87d18b	-0.0041448525
154	0xbc207938	-0.009794526
155	0x394187e4	0.00018456538
156	0xbbcbdb58	-0.006221216
157	0x3c116e18	0.008876346
158	0x3c05b53f	0.008160888
159	0xb79ef9de	-1.8951421e-05
160	0x3cc4b04f	0.024009852
161	0xbd1318f0	-0.035912454
162	0x3d00133a	0.031268336
163	0xbbfa9a25	-0.00764777
164	0xbce85fcd	-0.028365994
165	0xbb65cee6	-0.0035065948
166	0xbd22c698	-0.039740175
167	0xbc97d457	-0.018533869
168	0x3c6e82be	0.014557539
169	0x3b6a7537	0.0035775432
170	0xbc970c9f	-0.018438635
171	0x3a98c5d1	0.0011655634
172	0x3c36ef6a	0.011165479
173	0x39b76777	0.00034981567
174	0xbcb89832	-0.02253351
175	0xbc18bf94	-0.00932302
176	0xba91c9e1	-0.0011122787
177	0xbc89a764	-0.01680345
178	0x3cea17f1	0.02857587
179	0xbc81a600	-0.015826225
180	0x3c99d574	0.01877854
181	0xbc4f1b0b	-0.012640725
182	0xbd70ff20	-0.058837056
183	0xbc89f146	-0.016838681
184	0x3ced81c1	0.028992536
185	0x39909a41	0.00027580748
186	0xbcf6f787	-0.030147327
187	0x3c2c0342	0.010498824
188	0xbd134be9	-0.035961065
189	0x3c59d255	0.013294776
190	0x3c3660e5	0.0111315
191	0xbc987f62	-0.018615428
192	0x3bad1430	0.0052819476
193	0xbcb7d2eb	-0.02243944
194	0x3b55544a	0.003255146
195	0xbccf27b2	-0.025287483
196	0x3c18e9b3	0.009333062
197	0xbc13c6cf	-0.009019568
198	0xbd0e5317	-0.03474721
199	0xbc2cd295	-0.010548254
200	0xbc8cad51	-0.017172487
201	0x3cbdc51a	0.023165274
202	0xbc6e306b	-0.014537911
203	0xbc28fe5a	-0.010314548
204	0xbc4c02ef	-0.012451871
205	0xbc4c7239	-0.012478405
206	0xbcd24ebf	-0.025672315
207	0x3bcd8125	0.0062714987
208	0x3caf47a5	0.021396467
209	0x3bfecd7e	0.0077759614
210	0xbc8af5ce	-0.016962912
211	0x3c16f371	0.009213314
212	0x3b9a9164	0.004717039
213	0xbcc44806	-0.023960125
214	0xbbff74f9	-0.0077959266
215	0x3c4f9cd3	0.012671667
216	0x3a76e56d	0.00094183424
217	0x39e0aca0	0.00042853225
218	0x3c59761b	0.013272787
219	0x3c1b9b4d	0.009497476
220	0x3c38c782	0.011278035
221	0x3caca36f	0.021074025
222	0x3c339a80	0.010962129
223	0x3b8d2ad6	0.004308085
224	0xbab1bf38	-0.0013561016
225	0xbc283f8c	-0.010269057
226	0xbc6aef47	-0.014339275
227	0xbd30a6ae	-0.043127708
228	0x3c8f756d	0.017512048
229	0x3c8b72e3	0.017022556
230	0xbd00f06d	-0.031479288
231	0x3cda41c6	0.026642691
232	0xbc127464	-0.0089388825
233	0xbc99a46b	-0.018755158
234	0x3cdaaf1d	0.026694829
235	0xbcc5eea0	-0.024161637
236	0xbc33890c	-0.0109579675
237	0xbd6ebf66	-0.058288
238	0xbc4c4416	-0.012467405
239	0x3ce325db	0.027728012
240	0xbc06485e	-0.008195965
241	0x3cb802ca	0.022462267
242	0x3b58582b	0.0033011537
243	0xbaf2bf82	-0.0018520209
244	0xbc33aae7	-0.010966039
245	0xbcc73fd9	-0.024322437
246	0xbcdb7721	-0.026790204
247	0xbcf2e434	-0.029649831
248	0xbcb04153	-0.021515524
249	0x3afdb906	0.001935751
250	0xbc14f832	-0.0090923775
251	0xbca5369d	-0.020167643
252	0xbd2af26d	-0.0417351
253	0xbb1dff45	-0.0024108451
254	0x3a38de66	0.0007052183
255	0x3d1b22d2	0.037875004

spectral.conv5.conv.bias f4 [24]
0	0x3c9aa9dd	0.018879825
1	0xbcd084af	-0.025453893
2	0x3c47801c	0.01217654
3	0xbbc041d5	-0.005867223
4	0xbc31ff92	-0.010864155
5	0xbc15e51b	-0.009148861
6	0xbcccfd1f	-0.025023041
7	0xbbb49db8	-0.0055119656
8	0x3ca7d551	0.02048746
9	0x3c96be4a	0.018401284
10	0x3ba17f1d	0.004928483
11	0xbc14cc56	-0.009081921
12	0xbca2f593	-0.01989249
13	0x3b06cebc	0.002057
14	0x3bfc08af	0.007691465
15	0x3b15ba5f	0.0022846682
16	0x3c3808e3	0.0112325875
17	0xbc70af48	-0.014690228
18	0xbcc6524d	-0.024209166
19	0xbca6cd4e	-0.020361569
20	0x3cb8bdd7	0.02255146
21	0x3c5c46cc	0.013444614
22	0x3ca1e4a2	0.019762341
23	0xbc6ce504	-0.014458898

spectral.conv5.bn.weight f4 [24]
0	0x3f5a67fb	0.8531491
1	0x3f66050c	0.8985145
2	0x3f811fe0	1.0087852
3	0x3f848b17	1.0354947
4	0x3f8066e8	1.0031404
5	0x3f76205b	0.9614312
6	0x3f802771	1.0012037
7	0x3f6a9188	0.91628313
8	0x3f56fb04	0.8397677
9	0x3f6cf0fb	0.92555207
10	0x3f739788	0.95153093
11	0x3f723ced	0.94624215
12	0x3f5d251e	0.8638476
13	0x3f780cb3	0.9689438
14	0x3f71ec88	0.94501543
15	0x3f5c239b	0.8599183
16	0x3f6a1d31	0.9145079
17	0x3f66ca3f	0.90152353
18	0x3f4c1e2c	0.7973354
19	0x3f7626bc	0.96152854
20	0x3f73008e	0.9492272
21	0x3f7de984	0.9918444
22	0x3f6f6d3b	0.9352605
23	0x3f797dae	0.97457397

spectral.conv5.bn.bias f4 [24]
0	0xbddffea5	-0.109372415
1	0xbd2a3d38	-0.04156229
2	0xbc82a91d	-0.01594978
3	0xbd37ced7	-0.044874992
4	0xbd924233	-0.07141533
5	0xbc56e342	-0.013115706
6	0x3c703dd3	0.014663178
7	0xbd78c8c2	-0.060738333
8	0xbd8973d1	-0.06711543
9	0xbcfb4842	-0.030674104
10	0xbd7cb723	-0.06169809
11	0xbd8fb2ac	-0.07016501
12	0xbdbab25f	-0.09116053
13	0xbcc9e697	-0.024646087
14	0xbd1b58ec	-0.0379266
15	0xbdba7bab	-0.09105619
16	0xbd8e752c	-0.069559425
17	0xbd4f2865	-0.050575633
18	0xbdfdecd9	-0.12398691
19	0xbd1e1340	-0.038592577
20	0xbd1e81b1	-0.038697902
21	0xbd081126	-0.03321948
22	0xbc9bdb7f	-0.019025562
23	0xbcbe97b1	-0.023265691

spectral.conv5.bn.running_mean f4 [24]
0	0xc02602e3	-2.5939262
1	0xbfaa6398	-1.3311644
2	0xc01cdc8e	-2.4509616
3	0xc004b29d	-2.0734017
4	0x4025b87e	2.5893855
5	0xbe5c08da	-0.21487752
6	0xbe7dcd6b	-0.24785392
7	0xc02a5fd4	-2.662099
8	0x3eadf492	0.33975655
9	0xc0145c77	-2.3181436
10	0xbec8a079	-0.3918493
11	0xc02183d7	-2.5236719
12	0xbfd91143	-1.6958393
13	0xc0289b06	-2.6344619
14	0xc02fe3dd	-2.7482827
15	0xc011d106	-2.2783828
16	0xbfa4816c	-1.2851996
17	0xbfee9bd2	-1.8641303
18	0xc02f7c16	-2.7419486
19	0xbf30a6fa	-0.69004786
20	0xbf8e80e9	-1.113309
21	0xbfef1c1f	-1.8680457
22	0xc0750f00	-3.8290405
23	0xc0801d3f	-4.00357

spectral.conv5.bn.running_var f4 [24]
0	0x40981a38	4.7532005
1	0x408260cb	4.0743155
2	0x40d29a1a	6.581311
3	0x40ab523d	5.353789
4	0x41312357	11.071128
5	0x40c706e2	6.21959
6	0x40bcaef1	5.896355
7	0x4158a94f	13.541335
8	0x407d974f	3.9623601
9	0x411d0381	9.813355
10	0x40567841	3.3510897
11	0x40b17d8a	5.5465746
12	0x40a8ce33	5.275171
13	0x40acd73d	5.401274
14	0x40bddc19	5.9331174
15	0x4045f823	3.09327
16	0x406b74ee	3.6790118
17	0x40c170c3	6.045015
18	0x40918e23	4.5486007
19	0x408a79f0	4.327385
20	0x407b1991	3.9234354
21	0x412e6516	10.899679
22	0x41290dea	10.565897
23	0x41443e1a	12.2651615

spectral.bn.weight f4 [24]
0	0x3f9132cb	1.1343626
1	0x3f870b29	1.0550281
2	0x3f8afe97	1.0858945
3	0x3f8992c0	1.074791
4	0x3f901d48	1.1258936
5	0x3f92d088	1.1469889
6	0x3f88dadc	1.069179
7	0x3f9294ab	1.145162
8	0x3f8c47aa	1.095937
9	0x3f8608af	1.04714
10	0x3f8a4811	1.0803243
11	0x3f8ad855	1.0847269
12	0x3f91b5d5	1.1383616
13	0x3f8811bb	1.0630411
14	0x3f86c547	1.0528954
15	0x3f9751a8	1.1821795
16	0x3f93ea48	1.1555872
17	0x3f864dfb	1.0492548
18	0x3f972b20	1.1810036
19	0x3f8a9dc5	1.0829397
20	0x3f89526b	1.0728277
21	0x3f885ed9	1.0653945
22	0x3f891d60	1.071209
23	0x3f8dcf07	1.1078805

spectral.bn.bias f4 [24]
0	0x3dee8535	0.11646501
1	0x3df76a2f	0.120808
2	0x3e5dd1c4	0.2166205
3	0x3e28f537	0.16499792
4	0x3e6664f8	0.22499454
5	0x3e6acd89	0.22929968
6	0x3e3303fa	0.17481986
7	0x3e6286a8	0.2212168
8	0x3e13aa7f	0.14420508
9	0x3da91ee4	0.08257845
10	0x3e2443a7	0.16041432
11	0x3e439373	0.19099216
12	0x3e72cbac	0.23710507
13	0x3e42ef09	0.19036497
14	0x3e425dcf	0.18981098
15	0x3e586632	0.21132734
16	0x3e42052e	0.18947288
17	0x3e0bd801	0.13656618
18	0x3e73fd6a	0.23827139
19	0x3e1fdd3c	0.15611738
20	0x3e349a64	0.1763702
21	0x3e451e42	0.19249824
22	0x3dd9ce71	0.10635079
23	0x3e5c8e90	0.21538758

spectral.bn.running_mean f4 [24]
0	0x3f7c7fee	0.98632705
1	0x3f863e63	1.0487789
2	0x3f8f08b4	1.1174531
3	0x3f8eaf15	1.1147181
4	0x3f661511	0.89875895
5	0x3f69a5ca	0.912686
6	0x3f909b69	1.1297427
7	0x3f8cf105	1.1011053
8	0x3f842321	1.032322
9	0x3f916779	1.1359702
10	0x3f82410d	1.0176102
11	0x3f8a0fac	1.0786033
12	0x3f7b3bae	0.9813794
13	0x3f8cfb7e	1.1014249
14	0x3f88c8d5	1.0686289
15	0x3f80a9e4	1.0051847
16	0x3f7e6bfe	0.99383533
17	0x3f85f341	1.046486
18	0x3f6a1e13	0.9145214
19	0x3f863cbe	1.0487287
20	0x3f8ab138	1.0835333
21	0x3f8d8863	1.1057247
22	0x3f8fcab5	1.1233736
23	0x3f912807	1.134034

spectral.bn.running_var f4 [24]
0	0x402830a9	2.62797
1	0x4025e605	2.5921643
2	0x4069c0f6	3.6524024
3	0x406ccb46	3.6999068
4	0x3fe5a984	1.7942357
5	0x401cad67	2.4480836
6	0x401e1372	2.4699368
7	0x4015f28e	2.3429294
8	0x4049567a	3.145903
9	0x40179425	2.368417
10	0x400394a8	2.0559483
11	0x404a5dca	3.1619744
12	0x405abbe1	3.4177172
13	0x405cffca	3.4531121
14	0x40411b90	3.0173073
15	0x40598e7f	3.3993223
16	0x408df9e8	4.436756
17	0x4043a843	3.0571449
18	0x405480da	3.3203645
19	0x404a5a42	3.161759
20	0x4050a50f	3.2600744
21	0x4044c042	3.0742345
22	0x40142686	2.3148513
23	0x4012e0cd	2.2949708

spatial.conv1.conv.weight f4 [24, 1, 1, 1, 102]
0	0x3daa47b7	0.0831446
1	0x3d2e8695	0.042608816
2	0x3d072110	0.032990515
3	0x3cc5568b	0.024089118
4	0x3d46d576	0.048543416
5	0x3d1527ee	0.036415033
6	0x3cea1285	0.028573284
7	0x3c882f60	0.016624153
8	0x3cfd9220	0.030953467
9	0x3c916f5b	0.017753294
10	0x3d5d98fd	0.05410098
11	0x3cd2a5fe	0.025713917
12	0x3b465018	0.0030260142
13	0xbce2478b	-0.027622005
14	0x3cb4a42b	0.022050938
15	0x3b5014c6	0.0031750663
16	0x3d09834d	0.033572484
17	0x3ca1b050	0.019737393
18	0xbc8dbd86	-0.017302286
19	0x3c9fd43f	0.019510387
20	0xbb965825	-0.0045881444
21	0x3d56e065	0.052460093
22	0xbd659f87	-0.05606034
23	0xbce9eb5a	-0.028554607
24	0xbda94b28	-0.08266288
25	0xbd9d0d90	-0.076686025
26	0xbcca51a3	-0.02469713
27	0xbd379882	-0.044823177
28	0xbdb0ea7b	-0.086384736
29	0xbda29ddd	-0.07940266
30	0xbd2d00dd	-0.04223715
31	0xbdcd6467	-0.10028916
32	0xbd8ddaea	-0.0692652
33	0xbd81f85b	-0.06346198
34	0xbcfe5161	-0.031044664
35	0xbd4163ae	-0.047214203
36	0xbbf9976a	-0.007616927
37	0x3ba94c0a	0.0051665353
38	0x3c145807	0.0090541905
39	0xbc9df0a6	-0.01927979
40	0x3ca4d3c7	0.020120515
41	0x3c8efccd	0.01745453
42	0xbcac6b51	-0.021047266
43	0x3c939ca9	0.018019037
44	0x3b608c86	0.0034263446
45	0x3c7d6d55	0.015467961
46	0x3cc74b40	0.024327874
47	0x3c843e72	0.016143057
48	0x3cdf47c2	0.027255896
49	0x3c853ab5	0.016263345
50	0xbc815273	-0.015786385
51	0x3d414c13	0.04719169
52	0x3d12ebc9	0.035869393
53	0x3c882a00	0.01662159
54	0x3bd8b5b1	0.006613456
55	0x3b901f7f	0.004398286
56	0xbbf16434	-0.0073666815
57	0x3cea0ff0	0.028572053
58	0x3b26c7dc	0.0025448715
59	0x3a1b4c19	0.000592412
60	0x3ca1ac45	0.019735465
61	0xbd1505bc	-0.03638242
62	0x3c351e34	0.011054564
63	0x3b084bdd	0.0020797171
64	0xbd23c8a0	-0.039986253
65	0xbc5cd125	-0.013477598
66	0xbc7663c5	-0.015038435
67	0xbd117258	-0.035509437
68	0xbc13db0a	-0.009024391
69	0xbd26daa0	-0.04073584
70	0xbd5092a8	-0.050921112
71	0x3c5d6082	0.013511779
72	0xbd588216	-0.052858435
73	0xbacfa1b5	-0.0015841039
74	0xbd06299a	-0.032754518
75	0xbb9a1082	-0.004701675
76	0x3cab89ad	0.020939672
77	0xbcbfcc69	-0.0234129
78	0xba9709d6	-0.0011523317
79	0x3c7b1851	0.015325622
80	0x3d0bc914	0.03412731
81	0x3bb9ad0c	0.0056663807
82	0x3bb2b23b	0.0054533756
83	0xbbc502ee	-0.006012312
84	0x3c145ef0	0.009055838
85	0x3c53bab6	0.012922933
86	0xbd5b0ce3	-0.053479087
87	0xba16c2e6	-0.0005751088
88	0xbc329975	-0.010900845
89	0xbb24c950	-0.0025144406
90	0x3c90867a	0.017642248
91	0x3cdcdc47	0.026960505
92	0x3bff5fb4	0.007793391
93	0x3d016da2	0.031598695
94	0x3bb1efb1	0.005430185
95	0x3c0839f2	0.0083145965
96	0xbc88e0a2	-0.016708676
97	0xbc280923	-0.010256085
98	0xbd141fe5	-0.03616323
99	0xbc2afa9c	-0.0104357265
100	0xbca80af6	-0.02051304
101	0x3d141bd7	0.036159363
102	0xbc9b805e	-0.018982109
103	0xbbc50805	-0.006012919
104	0x3ba7a7d7	0.0051164436
105	0xbc66c205	-0.014084344
106	0xbd0f44e1	-0.034977797
107	0xbc367908	-0.011137255
108	0xbc8d3dd6	-0.0172414
109	0xbcaa176b	-0.02076312
110	0x3ccba7e3	0.024860328
111	0xbc5f9165	-0.013645505
112	0xbbb7a8e0	-0.0056048483
113	0xbc95eab4	-0.018300392
114	0x3d29f247	0.04149082
115	0xbb9d5267	-0.004801083
116	0xbbd2ea56	-0.0064366264
117	0x3bc786b4	0.006089056
118	0x3c51deae	0.012809439
119	0x3cf496f7	0.029857142
120	0xbc06ce92	-0.008227961
121	0x3bbfcca1	0.005853251
122	0xbcad1211	-0.021126779
123	0x3d0d09f6	0.034433328
124	0x3d0b5068	0.03401223
125	0xbcf9e5c9	-0.030505078
126	0x3c7b68cc	0.01534481
127	0x3c4f1509	0.0126392925
128	0x3c2f74f8	0.01070904
129	0x3ca87b57	0.020566626
130	0x3d3b4283	0.045717727
131	0x3ce6649c	0.028124146
132	0x3c51ff90	0.0128172785
133	0x3cbbec32	0.022939775
134	0x3cfed990	0.031109601
135	0x3bbdf673	0.0057972013
136	0x3c58dee5	0.013236736
137	0x3d3a565f	0.045492526
138	0x3c5877d8	0.013212167
139	0x3c78215e	0.015144674
140	0x3d6f7bc1	0.05846763
141	0x3d07dab7	0.033167567
142	0x3d771fa6	0.060332917
143	0x3d094489	0.033512626
144	0x3b44e6a6	0.0030044704
145	0xbb8dd1c5	-0.004327985
146	0x3ca198e0	0.019726217
147	0xbcc69521	-0.024241032
148	0xbba29747	-0.0049618813
149	0x3c299afe	0.010351894
150	0xbae954dc	-0.0017801779
151	0x3d505da5	0.050870556
152	0x3cbb49c9	0.022862332
153	0xbc233f2c	-0.009963792
154	0x3b236169	0.0024929887
155	0x3d01b48f	0.031666335
156	0xbc896c31	-0.016775222
157	0x3d1ca083	0.038239013
158	0xbc5e1d4c	-0.01355679
159	0xbce98933	-0.028507804
160	0x3ba723c6	0.0051007
161	0xbcc9265c	-0.024554424
162	0xbd35a09d	-0.044342626
163	0xbd9a8ae5	-0.07546023
164	0x3b2c1eb5	0.002626342
165	0xbbcc1bc8	-0.0062288977
166	0xbbcbd311	-0.0062202294
167	0xbcfee27d	-0.031113857
168	0xbcedec61	-0.029043378
169	0xbd6436c5	-0.055716295
170	0xbc3182c2	-0.010834398
171	0xbd26619f	-0.040620442
172	0xbcbdd46b	-0.023172578
173	0xbcb88b33	-0.022527313
174	0xbcc92e24	-0.024558134
175	0xbcfe5047	-0.031044139
176	0xbd09a87a	-0.033607937
177	0xbcc31f76	-0.023818713
178	0xbd1e995f	-0.038720485
179	0xbd58271a	-0.052771665
180	0xbc501956	-0.012701353
181	0xbca87801	-0.020565035
182	0xbc16402a	-0.009170571
183	0xbd1eefe1	-0.038802985
184	0xbd28f751	-0.041251484
185	0xbc3cde61	-0.011527629
186	0x3c891ead	0.01673826
187	0xbbb6048d	-0.0055547417
188	0xbda60ba9	-0.08107693
189	0xbc8638b5	-0.016384462
190	0x3c9009a5	0.017582724
191	0x3d12bf6b	0.03582708
192	0x3c9c7afb	0.01910161
193	0xbc4ef033	-0.01263051
194	0x3ca5515c	0.020180397
195	0xbbf9dbec	-0.0076250937
196	0xbcc1e2c4	-0.0236677
197	0x3cdd4568	0.027010635
198	0x3c6025b8	0.013680868
199	0x3c125dde	0.0089335125
200	0x3d1540e8	0.036438853
201	0x3c3c6531	0.011498735
202	0x3cb97376	0.022638064
203	0xbc888b99	-0.016668128
204	0xbcd22402	-0.025651935
205	0x3bd8f3cb	0.0066208593
206	0x3d04cba4	0.03242077
207	0xbb4ffbc9	-0.003173577
208	0xbcf89c21	-0.030347886
209	0xbc914502	-0.0177331
210	0xbb9a7c19	-0.0047145006
211	0xbc93398d	-0.017971778
212	0xbc2ff2c6	-0.010739034
213	0x3caf3ed0	0.021392256
214	0xba92b3dd	-0.001119252
215	0xbc9b2e05	-0.018942842
216	0xbc91b681	-0.01778722
217	0x3b5ac6ce	0.0033382657
218	0xbc3d8234	-0.011566687
219	0xbcd8da93	-0.026471412
220	0x3c94e506	0.018175613
221	0x3c1d7001	0.009609223
222	0xbc5c87d9	-0.013460123
223	0xbb6bcb77	-0.0035979429
224	0xbc907f03	-0.017638689
225	0x3ca252d2	0.019814882
226	0x3d002f3e	0.031295054
227	0x3c7c9716	0.015416881
228	0x3cf5c7a5	0.030002424
229	0xbafa3c75	-0.0019091504
230	0x3db4a179	0.08819861
231	0x3d050e92	0.0324846
232	0x3da1b4d4	0.07895818
233	0x3d243f92	0.040099688
234	0x3c37ed22	0.01122597
235	0x3d2534cd	0.040333558
236	0x3d28b2af	0.04118603
237	0x3cc1368f	0.023585586
238	0x3d5ae0c1	0.053437
239	0x3ca98f2f	0.020698158
240	0x3c914781	0.017734291
241	0x3d164744	0.036689058
242	0xbbbc8832	-0.0057535404
243	0xbc943ca3	-0.01809532
244	0x3d92ad90	0.07162011
245	0xbbda23c9	-0.006657098
246	0x3beafc73	0.0071712076
247	0x3c858bd5	0.016302029
248	0x3cf7ba71	0.03024027
249	0xbc0c0319	-0.00854566
250	0x3cbfe1f1	0.023423167
251	0x3c4411cc	0.011967134
252	0x3a187ea2	0.00058172096
253	0xbc683160	-0.014171928
254	0xbc8a8874	-0.016910769
255	0xba214f16	-0.00061534473

spatial.conv1.conv.bias f4 [24]
0	0x3d66d67c	0.056356892
1	0x3d8d1317	0.06888407
2	0x3d0df471	0.034656946
3	0xbcea7bcd	-0.028623486
4	0xbd4fb36f	-0.05070823
5	0x3d46ff88	0.048583537
6	0xbd87c5d9	-0.06629533
7	0x3c0c1e9b	0.008552219
8	0x3ceb68fd	0.028736586
9	0x3ce9dc86	0.028547537
10	0x3d74924e	0.05970984
11	0xbd584fe8	-0.05281058
12	0xbdc661ff	-0.0968666
13	0x3bee9a96	0.0072816117
14	0x3c31f10e	0.010860695
15	0xbda53420	-0.08066583
16	0xbdb783d7	-0.08960693
17	0xbd71688f	-0.058937605
18	0xbba30c05	-0.004975798
19	0x3ce17e86	0.027526151
20	0xbd0ea42c	-0.034824535
21	0xbceb5cc2	-0.028730754
22	0xbd0e994d	-0.034814168
23	0xbd326b34	-0.043559268

spatial.conv1.bn.weight f4 [24]
0	0x3f82c820	1.0217323
1	0x3f83d0b2	1.0298064
2	0x3f81398e	1.0095689
3	0x3f7cff18	0.9882674
4	0x3f85d0af	1.045431
5	0x3f7d3b2d	0.9891842
6	0x3f7a825e	0.97855175
7	0x3f76e173	0.9643776
8	0x3f81c4b0	1.0138149
9	0x3f82ad9d	1.0209233
10	0x3f7c5a5c	0.9857538
11	0x3f80c039	1.0058662
12	0x3f7630c5	0.96168166
13	0x3f815bde	1.0106161
14	0x3f844697	1.0334042
15	0x3f846815	1.0344263
16	0x3f7b86dc	0.98252654
17	0x3f817668	1.011426
18	0x3f82798f	1.0193347
19	0x3f75173c	0.9573858
20	0x3f81c817	1.0139188
21	0x3f7f63df	0.99761766
22	0x3f820390	1.0157337
23	0x3f8167b9	1.0109779

spatial.conv1.bn.bias f4 [24]
0	0xbbd7b2d7	-0.0065825987
1	0xbc2a0acf	-0.0103785535
2	0x3c7be037	0.015373281
3	0xbc84b6b9	-0.01620041
4	0x3c9786fa	0.018496979
5	0xbb06f3a9	-0.002059201
6	0x3ca61a56	0.02027623
7	0x3c948e69	0.018134313
8	0x3cbbd0f7	0.02292679
9	0xbd124eb9	-0.035719607
10	0xbb9c02d6	-0.0047610803
11	0xbc7aef9f	-0.015315919
12	0xbd781b2d	-0.06057279
13	0x3d1df530	0.038563907
14	0x3c65b85c	0.0140210055
15	0x3d014571	0.031560365
16	0x3c467bc9	0.012114474
17	0x3cc8ec7f	0.024526833
18	0xbd9d8374	-0.07691088
19	0x3bb636aa	0.0055607157
20	0xbd0c7e5d	-0.034300197
21	0xbc9c4fac	-0.01908096
22	0x3b2800e5	0.0025635299
23	0x3cfdda4b	0.03098788
