checkpoints/model_epoch179.pth (torch, 752823 bytes, 210 tensors)

spectral.conv1.conv.weight f4 [24, 1, 1, 1, 5]
0.020743918 0.0082963975 -0.030422108 -0.013001937 -0.01068834 0.024806136 -0.02821747 -0.03202232
0.01263716 -0.011452293 -0.012411633 -0.006592818 0.037559137 0.034694493 -0.016638918 -0.0057903053
0.0019259059 -0.039833896 0.03336658 -0.009747524 0.0065678335 0.0056564733 -0.024969209 0.007850551
-0.018135233 0.026135057 -0.0020527118 -0.051701725 0.05836381 -0.0036914179 -0.008702266 -0.043467958
0.023798196 0.015678667 -0.0043894714 -0.030434512 -0.04120319 0.050620466 0.03714907 -0.01115613
-0.013699639 -0.00070316123 0.010337183 -0.0441747 -0.011918042 0.019816015 -0.0039570276 -0.0006480247
-0.045358025 0.011843384 -0.010247944 -0.05373661 0.007538911 0.0071680206 0.022664528 0.017944572
0.029068349 -0.056586582 -0.008636369 -0.008837085 -0.016906168 -0.012373262 0.01246377 -0.011936484
0.0039892774 -0.039348383 0.0064616343 -0.020122148 0.01209387 0.01235675 -0.01910241 -0.023722872
-0.01798541 0.055582248 -0.02083332 -0.038731072 -0.0136135 0.005813209 -0.014035068 0.03968748
-0.004378647 0.030684855 -0.020130714 -0.019794568 -0.011675581 -0.027419548 -0.051027063 0.009688788
0.04239712 -0.020495538 -0.019132042 0.013137961 -0.0064144908 -0.004399595 -0.02243402 -0.018721359
0.028523033 -0.004033137 -0.06130417 -0.06447777 -0.018623454 -0.014282556 0.0049018725 0.032310825
0.021032808 0.010364662 0.0120233605 0.02017149 -0.042985864 -0.011544195 0.003401687 -0.005513631
0.0010050556 0.01635715 -0.03482418 -0.06994187 -0.04788555 -0.004041279 0.028964363 -0.031013861
00000000: 26ef a93c 9ded 073c c937 f9bc 1406 55bc
00000010: 261e 2fbc 3d36 cb3c 5328 e7bc d629 03bd
00000020: 170c 4f3c 66a2 3bbc 295a 4bbc 9108 d8bb
00000030: 9cd7 193d d01b 0e3d 574e 88bc 9abc bdbb
00000040: ae6e fc3a de28 23bd 65ab 083d 14b4 1fbc
00000050: fb36 d73b f059 b93b 3a8c ccbc 999f 003c
00000060: 5790 94bc 3019 d63c ca86 06bb 30c5 53bd
00000070: e40e 6f3d b7eb 71bb f393 0ebc 750b 32bd
00000080: 6ff4 c23c 8c70 803c 8ed5 8fbb cc51 f9bc
00000090: adc4 28bd 6857 4f3d a029 183d 33c8 36bc
000000a0: 7374 60bc 5a54 38ba 4a5d 293c 88f0 34bd
000000b0: e443 43bc 3255 a23c f4a9 81bb 34e0 29ba
000000c0: 56c9 39bd c10a 423c fee6 27bc eb1a 5cbd
000000d0: f808 f73b b7e1 ea3b f6aa b93c 7f00 933c
000000e0: bf20 ee3c 55c7 67bd 8f7f 0dbc 6cc9 10bc
000000f0: ce7e 8abc 39b9 4abc d734 4c3c 3e91 43bc
00000100: 7cb8 823b c52b 21bd 1ebc d33b 34d7 a4bc
00000110: 5e25 463c f773 4a3c a87c 9cbc 7856 c2bc
00000120: 2356 93bc 36aa 633d a4aa aabc 79a4 1ebd
00000130: 280b 5fbc bb7c be3b 58f3 65bc 578f 223d
00000140: c17a 8fbb ce5e fb3c 2be9 a4bc 3828 a2bc
00000150: f04a 3fbc f69e e0bc c101 51bd b9bd 1e3c
00000160: 9aa8 2d3d 42e6 a7bc cdba 9cbc 9a40 573c
00000170: a630 d2bb 7a2a 90bb 8dc7 b7bc 895d 99bc
00000180: 23a9 e93c 6828 84bb 151a 7bbd ec0c 84bd
00000190: 3790 98bc 6201 6abc e39f a03b 5b58 043d
000001a0: ff4c ac3c 8bd0 293c a1fd 443c ae3e a53c
000001b0: f211 30bd dd23 3dbc d6ee 5e3b b0ab b4bb
000001c0: 12bc 833a 6eff 853c cda3 0ebd af3d 8fbd
000001d0: a323 44bd b56c 84bb ac46 ed3c c810 febc

spectral.conv1.conv.bias f4 [24]
-0.23804896 -0.40972993 0.15937364 -0.3481551 -0.3468304 0.33093032 -0.027515657 -0.08093066
0.2714137 0.13899851 -0.2071228 -0.18934907 0.2472936 0.29491535 0.09299772 -0.06781035
0.37809265 0.31197473 -0.32283452 -0.020873308 -0.314594 0.2497472 0.20731467 0.045427576
00000000: 1bc3 73be 1fc8 d1be d832 233e 6341 b2be
00000010: c193 b1be b36f a93e 8468 e1bc f9be a5bd
00000020: bdf6 8a3e a055 0e3e 0018 54be b9e4 41be
00000030: 893a 7d3e 25ff 963e 9775 be3d 27e0 8abd
00000040: 5c95 c13e 27bb 9f3e 914a a5be 80fe aabc
00000050: 7712 a1be bbbd 7f3e 4c4a 543e 4412 3a3d

spectral.conv1.bn.weight f4 [24]
0.96961886 0.9511022 0.9756647 0.9564275 0.9275757 0.907845 0.997945 1.0404141
1.0094572 0.9923369 0.9698986 0.9948445 0.98080343 0.9848628 0.9782104 0.9997548
0.99847406 0.9886415 0.9793 0.9745642 0.9958353 0.96406186 0.9821313 0.96873087
00000000: f138 783f 6f7b 733f 29c5 793f 6fd8 743f
00000010: 9a75 6d3f 8868 683f 5379 7f3f 4a2c 853f
00000020: e535 813f cb09 7e3f 464b 783f 21ae 7e3f
00000030: ef15 7b3f f81f 7c3f ff6b 7a3f eeef 7f3f
00000040: ff9b 7f3f 9c17 7d3f 68b3 7a3f 0a7d 793f
00000050: 10ef 7e3f c2cc 763f f56c 7b3f bffe 773f

spectral.conv1.bn.bias f4 [24]
-0.0516487 -0.03229078 -0.029860614 -0.045695234 -0.059474017 -0.046122495 -6.9955895e-05 0.045170512
-0.020625383 0.023770044 -0.008219233 -0.028774245 -0.00742519 -0.026496572 -0.015256849 -0.00845067
0.013876642 -0.040119834 0.00317785 -0.024681108 0.017230025 -0.027715454 -0.023647076 -0.0029696184
00000000: 968d 53bd 5643 04bd 3f9e f4bc ed2a 3bbd
00000010: 079b 73bd f1ea 3cbd 49b5 92b8 b704 393d
00000020: 90f6 a8bc 65b9 c23c f6a9 06bc f7b7 ebbc
00000030: 024f f3bb 570f d9bc ddf7 79bc ae74 0abc
00000040: db5a 633c b254 24bd 7a43 503b 0930 cabc
00000050: fb25 8d3c 850b e3bc 83b7 c1bc ee9d 42bb

spectral.conv1.bn.running_mean f4 [24]
-31.480305 -41.045452 45.051857 -24.411552 -28.906641 33.534836 -19.808298 9.128313
-72.37082 -22.7802 -30.832348 -32.45566 -29.231667 -31.854704 -30.554955 -24.011534
-30.903175 -54.636234 -48.156284 -146.44563 32.160522 -15.306124 -24.036366 -148.5556
00000000: aad7 fbc1 8b2e 24c2 1a35 3442 dc4a c3c1
00000010: cd40 e7c1 ac23 0642 6577 9ec1 920d 1241
00000020: dcbd 90c2 d93d b6c1 a6a8 f6c1 99d2 01c2
00000030: 74da e9c1 6fd6 fec1 8c70 f4c1 9f17 c0c1
00000040: b439 f7c1 818b 5ac2 09a0 40c2 1572 12c3
00000050: 60a4 0042 e2e5 74c1 7a4a c0c1 3c8e 14c3

spectral.conv1.bn.running_var f4 [24]
664.0996 1104.7489 1350.0393 385.4203 542.1669 720.66644 268.75357 96.833466
3473.1309 359.68936 661.8649 715.7835 575.57153 708.60376 631.5932 432.93283
653.1069 2012.2362 1499.498 14133.783 726.9538 179.65779 388.45395 14566.342
00000000: 6006 2644 f717 8a44 42c1 a844 ccb5 c043
00000010: ae8a 0744 a72a 3444 7560 8643 bcaa c142
00000020: 1812 5945 3dd8 b343 5b77 2544 25f2 3244
00000030: 94e4 0f44 a426 3144 f7e5 1d44 6777 d843
00000040: d746 2344 8f87 fb44 f06f bb44 22d7 5c46
00000050: 0bbd 3544 65a8 3343 1b3a c243 5e99 6346

spectral.conv2.conv.weight f4 [6, 6, 1, 1, 5]
-0.051148828 -0.028647603 0.008056029 -0.0017053641 -0.058603555 0.042289943 -0.021187749 0.012079574
0.04239212 0.028989295 0.010570143 -0.0048422012 0.009864722 0.024370478 0.018044285 -0.008480367
0.015152319 0.026659343 -0.052301187 -0.0145015335 -0.0046909666 -0.009878205 -0.0048326985 -0.029379068
0.020027854 -0.025922429 -0.0048485165 0.0005369854 0.021887824 -0.014270544 -0.057037532 0.0055257115
0.038987536 0.029780699 -0.02804915 -0.008661634 -0.006868631 0.033778492 0.028381184 0.028317029
0.045748007 0.047367 0.030589608 0.015507084 0.016580222 0.018332137 0.006769064 -0.03358988
-0.033000987 0.0015904303 0.0014893961 -0.045024 0.0071718567 -0.0023534056 0.010248168 0.052299336
0.07170311 0.04272531 0.0035794808 -0.0149104055 0.011801314 0.016472107 0.039199676 -0.006718513
0.0064306785 0.002512211 0.041471798 0.0190512 0.006424069 -0.015135325 -0.019490255 -0.015340243
-0.024710558 0.027133523 -0.01573687 0.0114736045 -0.012034825 -0.046326555 -0.017638799 0.0165739
0.02754814 -0.025815014 0.02648647 0.0027918576 0.005556077 -0.027607402 0.0055182707 -0.034169167
-0.016373072 0.017455058 -0.0017979206 0.0009255707 -0.024872199 0.046631757 -0.0008569545 0.01301894
0.017916445 -0.033455677 0.03689786 -0.0060125287 0.013188706 0.0063215382 -0.02282643 -0.0053721205
0.028794812 -0.03131652 0.0001712307 0.06577252 -0.028366184 -0.0074276812 -0.00552825 -0.0048139626
-0.0012940861 0.024618033 -0.0027499506 -0.028197905 -0.019894829 -0.0012315419 0.00093209516 0.04129296
0.001550148 -0.0077908817 -0.0040642424 0.01210032 -0.007911372 -0.036211025 0.043485012 0.01253928
0.013447338 0.0026705894 0.06743666 0.02780776 0.043540165 -0.0004893459 -0.014938702 -0.018306209
0.008205268 -0.0053963563 0.009774333 -0.017223857 -0.01744593 0.004570446 -0.005356363 0.047700908
0.011901212 0.019199258 0.021028895 0.024820568 -0.02935467 -0.009287772 0.032879323 -0.019436372
0.0031416211 -0.013369911 -0.010104174 0.066162825 -0.02143226 -0.028728405 0.02004911 -0.037712134
-0.00044537903 -0.018090418 -0.012035761 0.0028703376 -0.015183549 -0.029227609 -0.0053345566 0.029371113
-0.01645557 0.005330591 0.020600703 -0.009312475 -0.0035992814 0.0153524745 -0.015996698 -0.016121807
-0.019534085 0.01302607 -0.010725954 0.006626317
00000000: 6f81 51bd 61ae eabc 6ffd 033c 8686 dfba
00000010: 480a 70bd 3838 2d3d ee91 adbc 68e9 453c
00000020: 5ca3 2d3d f57a ed3c 652e 2d3c 54ab 9ebb
00000030: a59f 213c 99a4 c73c 9cd1 933c 3df1 0abc
00000040: 6f41 783c b264 da3c c539 56bd d797 6dbc
00000050: aeb6 99bb 32d8 21bc 9d5b 9ebb 5fac f0bc
00000060: 7411 a43c 465b d4bc 4ee0 9ebb 7bc4 0c3a
00000070: 184e b33c 00cf 69bc 30a0 69bd 0711 b53b
00000080: 65b1 1f3d a7f6 f33c 55c7 e5bc 87e9 0dbc
00000090: 4112 e1bb 515b 0a3d a87f e83c 1df9 e73c
000000a0: 4362 3b3d e603 423d 0f97 fa3c 6d11 7e3c
000000b0: 3fd3 873c 472d 963c 06cf dd3b 8b95 09bd
000000c0: 0b2c 07bd fc75 d03a d737 c33a 166b 38bd
000000d0: e501 eb3b 983b 1abb efe7 273c d437 563d
000000e0: 15d9 923d bc00 2f3d b995 6a3b c64a 74bc
000000f0: 4c5a 413c 83f0 863c d78f 203d f926 dcbb
00000100: 71b8 d23b e8a3 243b 55de 293d 4311 9c3c
00000110: ff80 d23b 27fa 77bc 07aa 9fbc a455 7bbc
00000120: cc6d cabc 1f47 de3c 9cea 80bc c9fb 3b3c
00000130: b72d 45bc eac0 3dbd 3e7f 90bc fdc5 873c
00000140: a3ac e13c 027a d3bc 27fa d83c 99f7 363b
00000150: c10f b63b eb28 e2bc 9cd2 b43b f8f4 0bbd
00000160: d220 86bc e9fd 8e3c 34a8 ebba 00a2 723a
00000170: c8c0 cbbc f100 3f3d 3ea5 60ba 644d 553c
00000180: 82c5 923c d208 09bd 3622 173d bf04 c5bb
00000190: 7115 583c e824 cf3b 7efe babc 9d08 b0bb
000001a0: 19e3 eb3c c045 00bd 648c 3339 beb3 863d
000001b0: 3360 e8bc e863 f3bb 5226 b5bb 72be 9dbb
000001c0: 539e a9ba c2ab c93c 8438 34bb 4bff e6bc
000001d0: 7bfa a2bc b06b a1ba d957 743a cf22 293d
000001e0: 562e cb3a a74a ffbb 562d 85bb 6c40 463c
000001f0: b39e 01bc 0352 14bd 571d 323d 8d71 4d3c
00000200: 3952 5c3c 0e05 2f3b 3b1c 8a3d 19cd e33c
00000210: 2c57 323d 7347 00ba 75c1 74bc e7f6 95bc
00000220: 636f 063c ebd3 b0bb 8624 203c 0c19 8dbc
00000230: c4ea 8ebc aec3 953b 6e84 afbb 0762 433d
00000240: 4dfd 423c c347 9d3c ca44 ac3c 8154 cb3c
00000250: 3479 f0bc bd2b 18bc 78ac 063d 0739 9fbc
00000260: a8e3 4d3b 790d 5bbc fa8b 25bc 6080 873d
00000270: b592 afbc d557 ebbc 083e a43c 0a78 1abd
00000280: c381 e9b9 5b32 94bc a431 45bc 461c 3c3b
00000290: 6cc4 78bc bd6e efbc 81cd aebb b09b f03c
000002a0: d5cd 86bc 3dac ae3b cec2 a83c 5a93 18bc
000002b0: ece1 6bbb f288 7b3c 820b 83bc e111 84bc
000002c0: f205 a0bc 4c6b 553c e9bb 2fbc 9321 d93b

spectral.conv2.conv.bias f4 [6]
-0.0916707 -0.17346725 0.18244135 -0.073256016 0.004722777 -0.0050948253
00000000: d9bd bbbd 66a1 31be e8d1 3a3e 4007 96bd
00000010: 86c1 9a3b 7ef2 a6bb

spectral.conv2.bn.weight f4 [6]
0.97401303 0.9883605 0.9890101 1.0433872 0.94322145 1.0316762
00000000: eb58 793f 3205 7d3f c42f 7d3f b68d 853f
00000010: f676 713f f70d 843f

spectral.conv2.bn.bias f4 [6]
-0.049424518 -0.016506903 0.0029066086 0.013963264 -0.055057265 0.030796468
00000000: 5d71 4abd 7c39 87bc cd7c 3e3b 2dc6 643c
00000010: ba83 61bd e048 fc3c

spectral.conv2.bn.running_mean f4 [6]
-0.11033362 -0.05700683 0.18368877 -0.04584349 0.08103577 -0.038822003
00000000: 98f6 e1bd fe7f 69bd e918 3c3e 62c6 3bbd
00000010: 15f6 a53d d203 1fbd

spectral.conv2.bn.running_var f4 [6]
0.012590861 0.009156089 0.0037107333 0.0009968204 0.004753295 0.0026836444
00000000: e649 4e3c 6c03 163c c62f 733b bea7 823a
00000010: 87c1 9b3b 15e0 2f3b

spectral.conv3.conv.weight f4 [12, 12, 1, 1, 5]
-0.0196487 -0.030648684 -0.015588262 -0.040169377 0.0069282562 -0.006868903 -0.03155194 -0.031515922
-0.032404095 -0.0025265748 -0.033527233 0.008412863 0.019980742 -0.020149762 0.015980542 0.01220714
0.0078169815 -0.009078056 0.03884627 0.011257173 -0.04949079 -0.017685268 -0.02632863 -0.0050176387
0.00041725757 0.0072255745 -0.029342636 0.002861667 -0.015724652 0.031172803 -0.010346065 0.0056228945
0.009318446 -4.992792e-05 -0.016777398 0.019276777 -0.014774769 0.03961272 -0.024467789 0.01079568
0.026175614 -0.0060208896 0.03760022 -0.02051911 0.029126765 -0.028942615 0.021883294 0.017983703
0.026081467 -0.0031015952 -0.017925132 -0.010955393 0.021108834 -0.012907642 0.03237856 -0.034879357
-0.040910404 -0.00070892606 0.011316561 0.04398354 -0.017064596 -0.016436294 -0.005684231 -0.034283884
0.004283194 -0.00503835 -0.007630544 0.030647932 0.013404361 0.020978969 0.02570622 0.016213205
-0.013609301 -0.019860044 -0.06193535 -0.0038451247 0.019102398 0.00513005 -0.01830288 0.060615864
-0.01660623 -0.0049690492 -0.0057336893 -0.0050876737 0.017074447 0.033845916 -0.026859134 0.014189789
-0.068156295 -0.00010376991 0.0039646477 -0.004600831 0.03148584 0.024346735 -0.0016136931 0.008334489
0.017109051 -0.03831464 0.015702454 -0.01120827 0.0052041747 0.022357434 -0.016647197 -0.00766881
-0.037396446 -0.034672264 -0.008045458 -0.0004903852 -0.00970674 0.016766753 -0.002837343 0.042439986
0.047537718 -0.011752913 0.020828659 0.021087274 -0.021851955 0.014515063 -0.01268006 -0.008915306
0.0010760407 0.011705438 0.013434689 -0.035373174 -0.018340554 -0.009797726 0.0008569288 -0.002827803
0.0032373813 0.009321025 0.03876399 0.011120682 -0.027359722 0.003388602 0.014308976 0.008360698
-0.046243448 0.054787178 -0.015881993 0.010792728 -0.00090572535 0.010928524 0.009091814 -0.012551929
0.019955691 -0.007966916 -0.011385869 0.060405184 -0.027464375 0.005745541 -0.009559467 0.04486372
-0.00057195284 0.03885586 -0.009614423 0.0024812708 0.021621037 0.013360845 0.01482445 0.03072127
0.016642451 0.026350295 0.008806929 0.007871275 0.01391099 -0.023632562 0.0073957145 -0.036038496
0.012932937 0.024919061 -0.030184766 0.017975874 0.0017412256 0.0035895908 -0.021362007 0.024255969
-0.028270029 -0.0008507325 -0.005231365 -0.0030790998 -0.001412075 -0.024021488 0.018348524 -0.02490032
-0.0101250345 -0.0106489295 0.0034862803 -0.0015242093 -0.022062505 -0.0059585036 -0.015219833 -0.01880351
-0.012802665 0.034016 0.016792506 -0.02668698 -0.030587701 -0.027532872 0.008514951 0.008614758
-0.022863423 -0.024105024 -0.0013756284 0.013469224 0.01025333 -0.0010743388 -0.015426164 -0.051445875
-0.032711297 0.011493819 0.0009394999 0.016451852 0.010640729 -0.032352876 0.004481134 -0.03070116
-0.0018115315 0.010150425 -0.022670059 0.0328156 0.014884462 -0.032207035 0.0056853155 0.009065287
0.020119442 -0.024251334 -0.008880102 0.022024943 0.011229496 -0.0017894631 0.011119623 -0.070411734
-0.0045606554 -0.06324157 0.015947798 -0.02179771 -0.0052899932 -0.0422539 0.020709287 0.023186356
-0.015373049 0.002444734 -5.1811305e-05 0.04092899 0.0021711937 -0.0033150553 -0.0467797 -0.004525437
-0.017408293 0.0232864 -0.0416294 -0.010476454 -0.013541766 0.021082282 0.032162517 -0.02407099
00000000: 4ff6 a0bc f312 fbbc e965 7fbc a588 24bd
00000010: 6d06 e33b 8914 e1bb 9b3c 01bd d716 01bd
00000020: 28ba 04bd e494 25bb da53 09bd 1bd6 093c
00000030: a7ae a33c 1d11 a5bc a0e9 823c 7500 483c
00000040: cc12 003c 20bc 14bc 441d 1f3d 0170 383c
00000050: dbb6 4abd b2e0 90bc 24af d7bc 016b a4bb
00000060: 5dc3 da39 83c4 ec3b f85f f0bc ce8a 3b3b
00000070: fcd0 80bc 1b5e ff3c 8b82 29bc 4240 b83b
00000080: 65ac 183c b269 51b8 c170 89bc 55ea 9d3c
00000090: df11 72bc f340 223d ac70 c8bc 5de0 303c
000000a0: 3e6e d63c e24a c5bb b002 1a3d b117 a8bc
000000b0: 419b ee3c 1019 edbc 9844 b33c 8f52 933c
000000c0: cda8 d53c 2244 4bbb bad7 92bc 407e 33bc
000000d0: 6fec ac3c 937a 53bc 629f 043d a8dd 0ebd
000000e0: ab91 27bd 39d7 39ba 1969 393c 1628 343d
000000f0: 0dcb 8bbc 68a5 86bc c942 babb 426d 0cbd
00000100: 095a 8c3b be18 a5bb a409 fabb 5f11 fb3c
00000110: f79d 5b3c 16dc ab3c da95 d23c 8ed1 843c
00000120: 8cf9 5ebc 88b1 a2bc ecaf 7dbd 7dfe 7bbb
00000130: a27c 9c3c fa19 a83b ecef 95bc 5748 783d
00000140: ca09 88bc 68d3 a2bb ace1 bbbb 80b6 a6bb
00000150: b6df 8b3c 04a2 0a3d b007 dcbc 4a7c 683c
00000160: 8795 8bbd 0c9f d9b8 e0e9 813b 91c2 96bb
00000170: 4cf7 003d ce72 c73c 8e82 d3ba 618d 083c
00000180: 4828 8c3c d0ef 1cbd 6fa2 803c e4a2 37bc
00000190: c887 aa3b f026 b73c b45f 88bc a44a fbbb
000001a0: 042d 19bd 8104 0ebd 19d1 03bc 328d 00ba
000001b0: 0509 1fbc 6e5a 893c b7f2 39bb 8dd5 2d3d
000001c0: e9b6 423d 4a8f 40bc dda0 aa3c 38bf ac3c
000001d0: df02 b3bc 96d0 6d3c 07c0 4fbc 8111 12bc
000001e0: ef09 8d3a 2ac8 3f3c 2b1d 5c3c 76e3 10bd
000001f0: ee3e 96bc a486 20bc 85a3 603a a952 39bb
00000200: 3f2a 543b 36b7 183c fdc6 1e3d 8533 363c
00000210: 7f21 e0bc 4f13 5e3b 3270 6a3c 4ffb 083c
00000220: c569 3dbd 8568 603d f41a 82bc fbd3 303c
00000230: 336e 6dba 8d0d 333c d5f5 143c 9ba6 4dbc
00000240: 1e7a a33c ab87 02bc cc8b 3abc 6d6b 773d
00000250: f8fc e0bc 1745 bc3b 509f 1cbc 05c3 373d
00000260: 1bef 15ba 5227 1f3d d085 1dbc d19c 223b
00000270: 9a1e b13c 72e7 5a3c 40e2 723c 2cab fb3c
00000280: c055 883c 93dc d73c f04a 103c 85f6 003c
00000290: ecea 633c 1399 c1bc c057 f23b 1a9d 13bd
000002a0: abe4 533c 0f23 cc3c 0b46 f7bc 2442 933c
000002b0: d639 e43a 573f 6b3b 60ff aebc 74b4 c63c
000002c0: 8c96 e7bc b103 5fba df6b abbb b9ca 49bb
000002d0: 6015 b9ba b6c8 c4bc a54f 963c c2fb cbbc
000002e0: 79e3 25bc d978 2ebc 147a 643b fac7 c7ba
000002f0: 6dbc b4bc 8d3f c3bb 9b5c 79bc d209 9abc
00000300: 45c2 51bc 5c54 0b3d 7090 893c a79e dabc
00000310: 0f93 fabc 9e8c e1bc 4b82 0b3c ea24 0d3c
00000320: 134c bbbc e677 c5bc 6e4e b4ba 05ae 5c3c
00000330: 95fd 273c d4d0 8cba 05be 7cbc e9b8 52bd
00000340: 48fc 05bd 9250 3c3c c548 763a 09c6 863c
00000350: 7456 2e3c 7384 04bd 7ad6 923b 0081 fbbc
00000360: e970 edba f84d 263c 8fb6 b9bc a769 063d
00000370: f5dd 733c 86eb 03bd e24b ba3b 9286 143c
00000380: 87d1 a43c bcaa c6bc d97d 11bc a76d b43c
00000390: ecfb 373c 6b8c eaba 142f 363c 0734 90bd
000003a0: 8d71 95bb cc84 81bd f5a4 823c 1c91 b2bc
000003b0: ae57 adbb 6d12 2dbd 86a6 a93c 50f1 bd3c
000003c0: 3edf 7bbc d537 203b f74f 59b8 28a5 273d
000003d0: 964a 0e3b 6641 59bb 129c 3fbd 1e4a 94bb
000003e0: d69b 8ebc 1fc3 be3c 9783 2abd 6fa5 2bbc
000003f0: 49de 5dbc c0b4 ac3c d8bc 033d 8630 c5bc

spectral.conv3.conv.bias f4 [12]
-0.0014815051 -0.0068863463 -0.019445902 0.036701582 0.014634509 0.014092227 -0.10414849 -0.116482906
-0.014308705 0.105289854 -0.062240366 -0.07889033
00000000: 102f c2ba dca6 e1bb 034d 9fbc 6654 163d
00000010: 94c5 6f3c 16e3 663c ce4b d5bd 978e eebd
00000020: 0f6f 6abc 35a2 d73d c1ef 7ebd 4191 a1bd

spectral.conv3.bn.weight f4 [12]
0.98135245 1.0067415 1.003228 1.0056089 1.0754268 1.0120275 1.0167409 1.0085077
1.0270327 1.0087922 1.0382365 0.99831074
00000000: ea39 7b3f e8dc 803f c669 803f cbb7 803f
00000010: 96a7 893f 1e8a 813f 9124 823f c816 813f
00000020: cf75 833f 1a20 813f efe4 843f 4b91 7f3f

spectral.conv3.bn.bias f4 [12]
-0.03517386 0.0045343074 -0.00058865 0.0050834245 0.03053708 -0.033292502 -0.042994484 -0.024402156
0.014201942 -0.004717502 0.007573551 0.01473462
00000000: 7712 10bd 8794 943b a24f 1aba db92 a63b
00000010: e628 fa3c b85d 08bd fc1a 30bd 08e7 c7bc
00000020: 43af 683c 4695 9abb 8d2b f83b 7a69 713c

spectral.conv3.bn.running_mean f4 [12]
-0.05708027 -0.0050992006 0.067188755 -0.120736085 -0.055146776 0.20925385 0.061482802 0.03896798
-0.008582662 0.027841847 -0.07749637 0.024904843
00000000: 00cd 69bd 3217 a7bb 429a 893d 7b44 f7bd
00000010: 96e1 61bd a446 563e 64d5 7b3d e39c 1f3d
00000020: 4b9e 0cbc 9614 e43c 6bb6 9ebd 3e05 cc3c

spectral.conv3.bn.running_var f4 [12]
0.0093009565 0.019177094 0.010233779 0.013239281 0.0053059915 0.027399741 0.041827276 0.025580497
0.011019065 0.017501734 0.006716199 0.016115727
00000000: 0a63 183c 4819 9d3c 95ab 273c 92e9 583c
00000010: e2dd ad3b 6c75 e03c 1453 2b3d 318e d13c
00000020: 4f89 343c cc5f 8f3c 9013 dc3b 2105 843c

spectral.conv4.conv.weight f4 [12, 18, 1, 1, 5]
-0.008861683 0.02254936 0.023569679 -0.019381111 0.0036275962 0.015936837 -0.057921935 0.050992597
0.04094802 -0.019657165 0.013274339 -0.015637744 0.037139222 0.02265443 -0.023604168 -0.029825823
-0.04238206 0.0124085825 -0.052181993 -0.02243817 -0.030810574 0.004908522 0.0044413754 0.003515581
0.018139454 -0.033237163 0.020728705 -0.016150748 -0.033813126 -0.0048590363 -0.015071048 -0.02651991
-0.00542866 0.045015544 -0.033886425 -0.0064448006 0.0006313892 -0.017164757 -0.005247334 -0.0067429636
-0.034552153 0.009892974 0.044565726 -0.017179888 -0.022530314 0.033906665 -0.057864506 -0.01699784
0.0009985933 -0.031469975 0.017987791 -0.0058735684 0.02252809 -0.014665283 -0.026972393 -0.005032807
-0.00039992342 -0.0016745663 -0.0279784 -0.024445916 0.0032555389 0.023028094 0.07093039 0.01847451
0.029201772 -0.012690584 0.051272042 -0.004254413 0.007601609 0.0047293655 -0.010811301 -0.0048073027
-0.0041784234 -0.026680836 -0.030280747 -0.025349569 0.025988134 0.013956555 -0.018593147 0.0077326503
0.026398497 0.005225746 -0.016752612 0.0064289193 0.00093460834 0.0055926833 -0.024550548 0.02991455
0.022846837 0.013133394 -0.05061711 0.0054219565 0.019837923 0.015184143 -0.004985359 -0.021249518
0.021996755 -0.006495568 0.011892519 0.02650294 -0.020240111 0.009317493 -0.010029124 0.0395464
0.008299921 0.012609431 0.03396024 0.011525503 0.025117591 0.039125882 -0.004675268 0.0015671545
0.044613365 0.006444308 -0.005271321 0.0051127463 0.051100694 0.006833509 0.008055035 0.02557765
-0.008959976 -0.0057658204 0.0018037166 0.040234234 0.023441076 0.0018799914 -0.020707706 0.009377073
0.039666526 0.003161753 -0.026963908 0.015205956 0.018568443 -0.0076652355 0.00067639985 0.023373106
0.023904962 0.013686745 -0.0013387515 -0.039322536 0.008855864 -0.022734635 -0.0036455197 0.032512274
-0.01683504 0.031243982 0.02717172 0.009625827 0.019760793 -0.006163153 0.008368139 -0.011182634
0.026408067 0.0033519284 0.02720279 -0.026459675 0.0080309 -0.006509978 -0.005057974 0.0064315675
-0.028494569 -0.018925477 0.019056832 -0.015469576 -0.00625728 0.008110196 -0.0026594335 -0.006780152
-0.0019739238 -0.0060682255 0.037023034 0.015920274 0.04209772 -0.011699481 0.029223116 0.033489235
-0.021641666 -0.004502752 0.01023101 0.012264247 0.011508747 -0.008902594 0.008364383 -0.00085344055
0.018327037 -0.001745554 0.0069218487 0.0031837863 0.021126505 -0.0031878073 0.0007840029 0.04125427
-0.009528483 0.007678586 0.045970347 0.0020741897 0.0019090779 -0.00026244545 0.0066853235 0.05068377
0.00026630578 -0.005580856 -0.018355874 0.011914982 0.040262844 -0.009268875 0.015429196 0.023271518
0.0046375026 -0.008891363 -0.00019941352 -0.018767765 0.019671967 0.050024047 0.007872525 0.0021237258
0.00668635 -0.011061007 0.033082724 0.019467276 0.049537774 0.037579246 -0.002240977 0.012209659
0.029834265 0.01403546 0.037981007 0.012960661 -0.023828931 -0.035319913 0.024350103 0.019299708
0.028225368 -0.009704891 0.025736913 0.020927312 -0.016267868 0.02337513 0.038665038 0.021039099
-0.027838903 0.047594573 -0.009188557 -0.002132425 0.0033871008 -0.0057066362 0.012288412 -0.009142217
0.0065854164 0.02304583 0.007804475 0.007544716 0.0032645823 -0.039668303 -0.0146340905 0.017364671
00000000: 9830 11bc 6fb9 b83c 3315 c13c 23c5 9ebc
00000010: f7bc 6d3b f88d 823c 8d3f 6dbd 9ddd 503d
00000020: 1cb9 273d 1008 a1bc 9d7c 593c ba1a 80bc
00000030: 4c1f 183d c895 b93c 875d c1bc 4955 f4bc
00000040: d098 2dbd 5e4d 4b3c c9bc 55bd 41d0 b7bc
00000050: 7566 fcbc abd7 a03b f588 913b a965 663b
00000060: 3199 943c b123 08bd 3fcf a93c 934e 84bc
00000070: a27f 0abd 8d38 9fbb 8fec 76bc 4840 d9bc
00000080: e7e2 b1bb 3862 383d 7ecc 0abd e82e d3bb
00000090: d083 253a 1b9d 8cbc d4f1 abbb 14f4 dcbb
000000a0: 8f86 0dbd 2416 223c 8d8a 363d d6bc 8cbc
000000b0: 7e91 b8bc b7e1 0a3d 5503 6dbd 0e3f 8bbc
000000c0: 3be3 823a a9e6 00bd 225b 933c 1077 c0bb
000000d0: d48c b83c a846 70bc 35f5 dcbc 3fea a4bb
000000e0: d0ac d1b9 1f7d dbba f532 e5bc cd42 c8bc
000000f0: e15a 553b 6aa5 bc3c f443 913d db57 973c
00000100: 8e38 ef3c 2bec 4fbc a202 523d 9a68 8bbb
00000110: eb16 f93b cbf8 9a3b e221 31bc 9486 9dbb
00000120: 28eb 88bb c591 dabc 540f f8bc e6a9 cfbc
00000130: 11e5 d43c 09aa 643c a850 98bc 2c62 fd3b
00000140: a941 d83c bc3c ab3b c63c 89bc afa9 d23b
00000150: 8100 753a d442 b73b 3b1e c9bc 5c0f f53c
00000160: 4a29 bb3c 722d 573c e353 4fbd abaa b13b
00000170: 2483 a23c e9c6 783c 395c a3bb 7813 aebc
00000180: 8a32 b43c c6d8 d4bb d7d8 423c b21c d93c
00000190: 97ce a5bc 66a8 183c 3251 24bc 68fb 213d
000001a0: 64fc 073c c997 4e3c e519 0b3d 77d5 3c3c
000001b0: 68c3 cd3c 7642 203d fe32 99bb fb68 cd3a
000001c0: 81bc 363d c62a d33b 0cbb acbb d388 a73b
000001d0: f64e 513d a1eb df3b 44f9 033c 3888 d13c
000001e0: ddcc 12bc 35ef bcbb b06a ec3a a7cc 243d
000001f0: 8007 c03c 0b6a f63a 35a3 a9bc 4ba2 193c
00000200: 5e79 223d 6a35 4f3b 6ae3 dcbc 6722 793c
00000210: d91c 983c a82c fbbb 6d50 313a f578 bf3c
00000220: 57d4 c33c 5f3e 603c 0c79 afba ab10 21bd
00000230: 3018 113c fc3d babc ace9 6ebb 972b 053d
00000240: a3e9 89bc 61f3 ff3c 3a97 de3c a5b5 1d3c
00000250: 63e1 a13c 46f4 c9bb 851a 093c 5e37 37bc
00000260: bb55 d83c 07ac 5b3b 63d8 de3c f6c1 d8bc
00000270: 0994 033c a751 d5bb 5cbd a5bb e6bf d23b
00000280: 716d e9bc 9a09 9bbc 131d 9c3c 1b74 7dbc
00000290: de09 cdbb a1e0 043c e449 2ebb 0a2c debb
000002a0: f25c 01bb f7d7 c6bb 77a5 173d 3c6b 823c
000002b0: a96e 2c3d 2eaf 3fbc 5165 ef3c 022c 093d
000002c0: dd49 b1bc d28b 93bb f79f 273c fbef 483c
000002d0: 2f8f 3c3c 30dc 11bc c40a 093c 6db9 5fba
000002e0: 9522 963c 13cb e4ba add0 e23b 12a7 503b
000002f0: 7e11 ad3c 88ea 50bb 8b85 4d3a 3dfa 283d
00000300: 5b1d 1cbc a69c fb3b 674b 3c3d 21ef 073b
00000310: 063a fa3a d598 89b9 8f10 db3b c999 4f3d
00000320: f59e 8b39 9ddf b6bb 0f5f 96bc 0f37 433c
00000330: a7ea 243d 7bdc 17bc bdca 7c3c e9a3 be3c
00000340: 31f6 973b 14ad 11bc a919 51b9 dbbe 99bc
00000350: 1b27 a13c 04e6 4c3d c3fb 003c 352e 0b3b
00000360: 2b19 db3b 3a39 35bc c081 073d d679 9f3c
00000370: 1fe8 4a3d b2ec 193d 5bdd 12bb 060b 483c
00000380: fd66 f43c fcf4 653c f991 1b3d f458 543c
00000390: e434 c3bc 9dab 10bd de79 c73c 6c1a 9e3c
000003a0: e338 e73c 4301 1fbc 38d6 d23c c16f ab3c
000003b0: 3144 85bc 337d bf3c 3b5f 1e3d 305a ac3c
000003c0: 690e e4bc 87f2 423d 9a8b 16bc 28c0 0bbb
000003d0: 1ffa 5d3b bcfe babb 5655 493c 3dc9 15bc
000003e0: 7aca d73b 9cca bc3c aebc ff3b aa39 f73b
000003f0: 9af2 553b 3b7b 22bd d3c3 6fbc 5b40 8e3c

spectral.conv4.conv.bias f4 [12]
-0.08944674 -0.0111064045 0.045743026 -0.0098142205 -0.029655552 0.025463216 0.006502591 -0.056579992
0.016908178 -0.08894788 -0.10773664 0.07654843
00000000: da2f b7bd a3f7 35bc 0a5d 3b3d d3cb 20bc
00000010: 33f0 f2bc 3c98 d03c b013 d53b 6cc0 67bd
00000020: 0583 8a3c 4e2a b6bd 07a5 dcbd 6cc5 9c3d

spectral.conv4.bn.weight f4 [12]
0.96104246 1.0012498 1.042459 1.0013946 1.048839 1.0418199 0.9820317 1.0318156
1.0241988 1.0240725 1.0896568 1.0113916
00000000: e106 763f f428 803f 4c6f 853f b32d 803f
00000010: 5b40 863f 5b5a 853f 6e66 7b3f 8912 843f
00000020: f218 833f cf14 833f e079 8b3f 4875 813f

spectral.conv4.bn.bias f4 [12]
-0.047224898 0.0007947235 0.0037986278 0.0016453699 0.05423915 0.0029063702 -0.008688053 0.014563652
-0.0029920207 0.01745635 0.057683878 -0.0060450407
00000000: e56e 41bd fe54 503a 66f2 783b 74a9 d73a
00000010: df29 5e3d cd78 3e3b 5658 0ebc 629c 6e3c
00000020: c715 44bb 9f00 8f3c ee45 6c3d 7a15 c6bb

spectral.conv4.bn.running_mean f4 [12]
-0.15502961 0.22515802 0.32208094 -0.2160382 -0.05297581 -0.07932782 -0.17152986 0.042656574
0.15509333 -0.05809781 -0.2729599 0.44784856
00000000: 15c0 1ebe d38f 663e cbe7 a43e 1e39 5dbe
00000010: 2afd 58bd a076 a2bd 86a5 2fbe a9b8 2e3d
00000020: c9d0 1e3e f8f7 6dbd 66c1 8bbe 684c e53e

spectral.conv4.bn.running_var f4 [12]
0.040729485 0.050291054 0.041665044 0.04943454 0.016744746 0.01694789 0.05495688 0.059159778
0.017243735 0.0209124 0.046066318 0.08235015
00000000: f6d3 263d fefd 4d3d f7a8 2a3d df7b 4a3d
00000010: 472c 893c 4dd6 8a3c 771a 613d 8651 723d
00000020: bc42 8d3c 7b50 ab3c 09b0 3c3d 32a7 a83d

spectral.conv5.conv.weight f4 [24, 36, 1, 1, 49]
-0.028839484 -0.013513296 0.04695576 -0.02909545 -0.040847328 0.010361065 -0.03327454 0.024447184
0.00771313 -0.0017027222 -0.02103835 0.021529384 0.016943028 0.022902839 0.017540744 0.00036634874
0.00983077 0.02513163 0.026185432 -0.006188154 0.010682192 -0.0071468363 -0.007235505 0.0004090941
0.017618112 0.009395569 0.013189895 -0.0060507315 -0.008315827 0.0072939782 -0.028891636 -0.013479404
-0.03043171 -0.038044196 -0.00017421886 0.010462417 -0.018928554 -0.020495938 -0.010249661 -0.058730002
-0.009625986 -0.006293529 -0.007629382 -0.024480775 -0.040477727 -0.002203648 0.0087538585 0.0041798404
0.0022477112 -0.003521391 0.030895466 0.008276244 -0.015560102 -0.015167736 0.0033126513 -0.0071987123
0.026207726 -0.01509953 -0.0035394742 -0.017343204 -0.015421958 -0.010481143 -0.0017314394 -0.0033699623
-0.0023740819 -0.013517419 -0.031137086 -0.013368347 -0.0326159 -0.020945981 -0.04152663 0.009295778
-0.0039011582 -0.047068287 -0.024613328 -0.011112728 -0.004719532 -0.004284586 0.024035217 0.01247598
-0.0046343002 -0.025523137 0.013507229 -0.010133105 0.010715273 -0.0139800785 0.010051923 -0.024753146
-0.0028835272 -0.020246616 -0.046061262 -0.004084156 -0.0003383204 0.052247286 -0.028080147 0.03263863
0.036218166 -0.00054600777 0.03406763 -0.021815721 0.040217806 -0.038902707 -0.008639318 0.007351516
0.0034650862 0.006345681 0.025158834 -0.022466572 -0.019070392 0.0132618565 0.021972973 0.01981736
-0.0023632923 -0.0059513473 -0.016006049 -0.0021743937 0.007964444 0.03538612 0.0048335874 0.006811825
0.0009843993 -0.0030062185 -0.006975462 0.0051471856 -0.04310274 0.0001300563 -0.005318705 -0.025504002
-0.0017342474 -0.033383884 0.021634478 -0.03467561 0.0054823644 -0.004300838 -0.031253196 -0.013499913
-0.05253714 -0.04276209 -0.03483922 0.024444034 -0.0019442637 0.011700474 -0.009978067 0.005121153
-0.005540653 -0.012255629 -0.04006274 -0.025783373 0.014854167 -0.03492256 0.0134522235 0.012325577
-0.0034676515 -0.006361426 -0.012411944 -0.001720955 -0.00887318 0.006515323 0.005277488 -0.0026732476
0.021122376 -0.03843865 0.028339282 -0.009815508 -0.03012904 -0.004507749 -0.040757604 -0.019721027
0.013524946 0.0027707852 -0.019311506 -9.8833065e-05 0.010301359 -0.0006288401 -0.023750288 -0.010430884
-0.0026197026 -0.018629737 0.026895236 -0.016702399 0.01748943 -0.014152856 -0.06012014 -0.018135997
0.02753264 -0.0010702533 -0.03134925 0.009735589 -0.03666895 0.012353832 0.010236432 -0.019346515
0.004788344 -0.022855146 0.0030983624 -0.025068026 0.005668555 -0.011016366 -0.03709928 -0.012969427
-0.01942286 0.02088406 -0.01681287 -0.012521938 -0.0146737 -0.014948677 -0.027973602 0.003949838
0.01909415 0.005562191 -0.018879889 0.007559171 0.0037039702 -0.024748866 -0.008527475 0.011876925
0.0001350876 -0.00023162682 0.012458446 0.008683172 0.010478805 0.02032336 0.009960311 0.003247492
-0.0025507123 -0.011611057 -0.015524481 -0.043896217 0.016766934 0.016054355 -0.032245852 0.025911635
-0.009682127 -0.019386914 0.02621781 -0.024382712 -0.0111396415 -0.058763254 -0.01274139 0.027589675
-0.008236388 0.02245818 0.00346046 -0.0015009237 -0.01086508 -0.02007331 -0.022004614 -0.025265858
-0.01836044 0.0060522715 -0.0060858303 -0.016724879 -0.039384283 8.023424e-05 0.0029781333 0.039834473
00000000: c840 ecbc df66 5dbc af54 403d 9559 eebc
00000010: 874f 27bd 75c1 293c e24a 08bd 7645 c83c
00000020: 6dbe fc3b e02d dfba 9e58 acbc 645e b03c
00000030: 1bcc 8a3c bc9e bb3c 9bb1 8f3c 7f12 c039
00000040: 3d11 213c d9e0 cd3c d582 d63c 00c6 cabb
00000050: 5c04 2f3c 0230 eabb d117 edbb ae7b d639
00000060: dc53 903c dfef 193c 6e1a 583c 3745 c6bb
00000070: 1b3f 08bc 5302 ef3b 27ae ecbc b8d8 5cbc
00000080: ec4b f9bc 3bd4 1bbd 85ae 36b9 8f6a 2b3c
00000090: 0e10 9bbc 19e7 a7bc 32ee 27bc df8e 70bd
000000a0: 50b6 1dbc f339 cebb e5ff f9bb e88b c8bc
000000b0: f9cb 25bd 146b 10bb 586c 0f3c 0bf7 883b
000000c0: 564e 133b 23c7 66bb 7d18 fd3c 1599 073c
000000d0: ccef 7ebc 1982 78bc 1119 593b 2de3 ebbb
000000e0: 96b1 d63c 0564 77bc 86f6 67bb 5613 8ebc
000000f0: 61ac 7cbc 1ab9 2bbc 77f1 e2ba 96da 5cbb
00000100: 7c96 1bbb 2a78 5dbc 3413 ffbc e906 5bbc
00000110: 4098 05bd e896 abbc d417 2abd 524d 183c
00000120: 93aa 7fbb adca 40bd e4a1 c9bc 2912 36bc
00000130: 4ea6 9abb b665 8cbb 81e5 c43c 0e68 4c3c
00000140: 54db 97bb e615 d1bc 6d4d 5d3c 5305 26bc
00000150: 1d8f 2f3c b30c 65bc d2b0 243c 1cc7 cabc
00000160: 8ff9 3cbb 3bdc a5bc bcaa 3cbd 62d4 85bb
00000170: 9860 b1b9 4001 563d 5608 e6bc 16b0 053d
00000180: 8059 143d f621 0fba 808a 0b3d e2b6 b2bc
00000190: 6dbb 243d 7258 1fbd ed8b 0dbc fce4 f03b
000001a0: 8016 633b 6eef cf3b e619 ce3c d10b b8bc
000001b0: 8339 9cbc 4248 593c aa00 b43c 0458 a23c
000001c0: 77e1 1abb 8503 c3bb 1e1f 83bc 4680 0ebb
000001d0: 4d7d 023c 09f1 103d 1263 9e3b bb35 df3b
000001e0: f606 813a fa03 45bb 6b92 e4bb b9a9 a83b
000001f0: 808c 30bd b95f 0839 8848 aebb c5ed d0bc
00000200: b04f e3ba 8abd 08bd ca3a b13c 0308 0ebd
00000210: 68a5 b33b 0bee 8cbb 5a03 00bd bd2e 5dbc
00000220: 2f31 57bd 4d27 2fbd 92b3 0ebd db3e c83c
00000230: aad6 feba 58b3 3f3c 0c7b 23bc 58cf a73b
00000240: 5e8e b5bb d5cb 48bc d418 24bd a737 d3bc
00000250: e45e 733c f50a 0fbd b766 5c3c 38f1 493c
00000260: 8a41 63bb 8273 d0bb 775b 4bbc ab91 e1ba
00000270: d060 11bc 7e7e d53b c7ee ac3b a731 2fbb
00000280: d508 ad3c d971 1dbd c827 e83c 39d1 20bc
00000290: 2dd1 f6bc bdb5 93bb 72f1 26bd fe8d a1bc
000002a0: bc97 5d3c 1096 353b 2a33 9ebc 9944 cfb8
000002b0: 08c7 283c bfd8 24ba f78f c2bc 4ce6 2abc
000002c0: 51af 2bbb 649d 98bc 6653 dc3c 78d3 88bc
000002d0: fe45 8f3c 61e1 67bc 8940 76bd f191 94bc
000002e0: 228c e13c be47 8cba 1268 00bd 0582 1f3c
000002f0: 2e32 16bd ba67 4a3c b5b6 273c 957c 9ebc
00000300: 8ae7 9c3b b73a bbbc e50d 4b3b 765b cdbc
00000310: 49bf b93b fd7d 34bc 6af5 17bd b87d 54bc
00000320: b11c 9fbc 0c15 ab3c 25bb 89bc d128 4dbc
00000330: f569 70bc 4ceb 74bc e528 e5bc a56d 813b
00000340: 566b 9c3c 0a43 b63b ffa9 9abc ecb2 f73b
00000350: 4fbe 723b 22be cabc d3b6 0bbc 6f97 423c
00000360: 4da6 0d39 dae0 72b9 831e 4c3c dd43 0e3c
00000370: 4baf 2b3c 2d7d a63c 9330 233c e0d3 543b
00000380: da29 27bb 4e3c 3ebc 655a 7ebc 85cc 33bd
00000390: cf5a 893c 6c84 833c 3a14 04bd a344 d43c
000003a0: c9a1 1ebc 4ed1 9ebc bcc6 d63c 41be c7bc
000003b0: 0b83 36bc bdb1 70bd 43c1 50bc be03 e23c
000003c0: eaf1 06bc 38fa b73c e3c8 623b a4ba c4ba
000003d0: 7303 32bc c870 a4bc 0543 b4bc 58fa cebc
000003e0: a268 96bc 2252 c63b a56b c7bb 9d02 89bc
000003f0: 6a51 21bd 6e43 a838 c92c 433b 7929 233d

spectral.conv5.conv.bias f4 [24]
0.019678928 -0.025546469 0.012173332 -0.0058550723 -0.010888954 -0.009295109 -0.02509422 -0.005431615
0.020411095 0.01834341 0.0048806383 -0.009168574 -0.020129677 0.0019191944 0.0077727665 0.0021199454
0.011417191 -0.014464635 -0.023933662 -0.02057682 0.022629585 0.013619096 0.01960612 -0.014339791
00000000: b435 a13c d446 d1bc a872 473c e8db bfbb
00000010: 9567 32bc 834a 18bc 6592 cdbc b0fb b1bb
00000020: 2b35 a73c eb44 963c c3ed 9f3b c937 16bc
00000030: fee6 a4bc 7a8d fb3a b1b2 fe3b c8ee 0a3b
00000040: 2b0f 3b3c 14fd 6cbc 8710 c4bc b890 a8bc
00000050: ae61 b93c a122 5f3c 049d a03c 71f1 6abc

spectral.conv5.bn.weight f4 [24]
0.85592663 0.90539837 1.0139602 1.0392365 1.0056983 0.95942193 0.9936007 0.9157315
0.84463465 0.92947924 0.9473745 0.94862056 0.86889005 0.97308934 0.950352 0.86365736
0.919038 0.90102684 0.8016317 0.95830214 0.95231664 0.99182576 0.94063497 0.9753628
00000000: 021e 5b3f 30c8 673f 73c9 813f b405 853f
00000010: b9ba 803f ad9c 753f 9e5c 7e3f 616d 6a3f
00000020: fa39 583f 5af2 6d3f 2387 723f ccd8 723f
00000030: 946f 5e3f 621c 793f 454a 733f a618 5d3f
00000040: 1346 6b3f b2a9 663f bc37 4d3f 4a53 753f
00000050: 06cb 733f 4be8 7d3f 74cd 703f 60b1 793f

spectral.conv5.bn.bias f4 [24]
-0.109954335 -0.04031974 -0.013957996 -0.04215302 -0.07074454 -0.018728156 0.008027554 -0.066089556
-0.06513949 -0.026117958 -0.06288432 -0.07096928 -0.08791564 -0.02254712 -0.035597976 -0.085574165
-0.06573097 -0.05044938 -0.12158797 -0.041269332 -0.03635908 -0.029596692 -0.01613252 -0.022092864
00000000: bd2f e1bd 5026 25bd 14b0 64bc a5a8 2cbd
00000010: 83e2 90bd ca6b 99bc 0086 033c f659 87bd
00000020: da67 85bd 54f5 d5bc 7fc9 80bd 5858 91bd
00000030: 1d0d b4bd bdb4 b8bc 2fcf 11bd 8241 afbd
00000040: f59d 86bd 02a4 4ebd 1d03 f9bd 080a 29bd
00000050: 42ed 14bd c374 f2bc 5928 84bc 18fc b4bc

spectral.conv5.bn.running_mean f4 [24]
-2.18723 -1.2788352 -2.450529 -2.6529663 2.710557 -0.65623444 -0.44162694 -2.4568899
0.8856614 -1.8809372 -0.3551888 -2.4569795 -2.1145804 -2.9017286 -2.7485564 -2.8999887
-1.4515597 -1.7812517 -2.561889 -0.57858926 -1.0486641 -1.981029 -3.6969712 -3.891901
00000000: 94fb 0bc0 dfb0 a3bf 78d5 1cc0 33ca 29c0
00000010: c479 2d40 fbfe 27bf ed1c e2be af3d 1dc0
00000020: b5ba 623f 8dc2 f0bf 4edb b5be 273f 1dc0
00000030: 4955 07c0 ecb5 39c0 59e8 2fc0 6a99 39c0
00000040: b5cc b9bf 0e00 e4bf fdf5 23c0 6d1e 14bf
00000050: a03a 86bf 5c92 fdbf 2d9b 6cc0 e814 79c0

spectral.conv5.bn.running_var f4 [24]
2.9755583 3.8202298 5.3566623 4.11231 8.855328 2.514624 5.7323966 7.517835
4.197643 9.002031 2.601994 6.660226 8.701431 7.601427 4.1241584 7.11797
4.7761283 4.2741485 5.013951 3.533564 3.6386511 11.904874 7.243607 9.011919
00000000: 8c6f 3e40 a57e 7440 c769 ab40 0b98 8340
00000010: 6caf 0d41 9aef 2040 cb6f b740 1b92 f040
00000020: 1753 8640 5208 1041 1287 2640 9220 d540
00000030: 1039 0b41 e43e f340 1bf9 8340 69c6 e340
00000040: 0bd6 9840 d3c5 8840 4972 a040 ea25 6240
00000050: a9df 6840 5d7a 3e41 a1cb e740 d230 1041

spectral.bn.weight f4 [24]
1.131692 1.0527421 1.0839963 1.0761254 1.1278386 1.1450917 1.0687553 1.1434294
1.0942267 1.0473927 1.0753485 1.083737 1.1385251 1.0607005 1.0498925 1.1815658
1.1536309 1.0489624 1.1803277 1.081993 1.0696746 1.0639334 1.068637 1.1073709
00000000: 49db 903f 41c0 863f 64c0 8a3f 7abe 893f
00000010: 045d 903f 5d92 923f f9cc 883f e55b 923f
00000020: 9f0f 8c3f f710 863f 05a5 893f e5b7 8a3f
00000030: 31bb 913f 09c5 873f e162 863f 8c3d 973f
00000040: 2daa 933f 6644 863f fa14 973f bf7e 8a3f
00000050: 19eb 883f f82e 883f 19c9 883f 54be 8d3f

spectral.bn.bias f4 [24]
0.110160425 0.1186553 0.215293 0.16514361 0.22501037 0.2231196 0.17096472 0.21290524
0.14588474 0.08463982 0.15097569 0.18989149 0.2365377 0.18705198 0.1877289 0.21277858
0.18722223 0.13755156 0.23615177 0.15494162 0.17445782 0.18873264 0.107851766 0.21867721
00000000: ca9b e13d 8d01 f33d c575 5c3e 681b 293e
00000010: 1e69 663e 7779 643e 6011 2f3e d503 5a3e
00000020: cf62 153e a457 ad3d 5f99 1a3e ea72 423e
00000030: f036 723e 8e8a 3f3e 013c 403e a1e2 593e
00000040: 2fb7 3f3e 51da 0c3e c5d1 713e 04a9 1e3e
00000050: 12a5 323e 2143 413e 63e1 dc3d ebec 5f3e

spectral.bn.running_mean f4 [24]
0.9418748 1.0389199 1.113406 1.1247252 0.9107165 0.89596397 1.073792 1.0523721
0.965527 1.1415303 1.0348419 1.0529397 0.96137756 1.1216879 1.07427 0.9874002
1.0010396 1.0806803 0.89642715 1.017528 1.080164 1.1043929 1.116825 1.1350579
00000000: b51e 713f 54fb 843f 1684 8e3f fff6 8f3f
00000010: b724 693f e55d 653f 0472 893f 21b4 863f
00000020: c72c 773f aa1d 923f b375 843f bac6 863f
00000030: d71c 763f 7893 8f3f ae81 893f 42c6 7c3f
00000040: 1122 803f bb53 8a3f 407c 653f 5c3e 823f
00000050: d042 8a3f bf5c 8d3f 1ff4 8e3f 9449 913f

spectral.bn.running_var f4 [24]
2.6366467 2.4543216 2.9816768 3.332512 1.6205732 2.6589727 2.2372975 2.4840393
2.823462 2.6160834 2.527045 4.058658 2.8456495 2.8694162 3.4957716 2.5153983
3.6280541 3.1580632 2.9094954 2.867484 2.7994082 3.3175194 2.373293 2.3524303
00000000: d2be 2840 9b13 1d40 cbd3 3e40 e047 5540
00000010: f16e cf3f 9c2c 2a40 e22f 0f40 80fa 1e40
00000020: 9ab3 3440 e96d 2740 1bbb 2140 87e0 8140
00000030: 1f1f 3640 84a4 3740 b9ba 5f40 49fc 2040
00000040: 0a32 6840 b51d 4a40 2c35 3a40 dc84 3740
00000050: 8129 3340 3d52 5440 08e4 1740 388e 1640

spatial.conv1.conv.weight f4 [24, 1, 1, 1, 102]
0.08296431 0.043489452 0.03355014 0.023807319 0.04778201 0.035906546 0.028752854 0.017084695
0.031322587 0.018264376 0.054374684 0.02563543 0.003117733 -0.027401447 0.022281302 0.0036772601
0.034040954 0.020111512 -0.016895805 0.020047462 -0.003949234 0.05330097 -0.05474658 -0.026672697
-0.0804193 -0.074287266 -0.022330951 -0.04239828 -0.083821364 -0.07668195 -0.039649107 -0.09793033
-0.0670712 -0.061514597 -0.029453093 -0.046160866 -0.0070501883 0.005402772 0.008953292 -0.01984483
0.019310763 0.016542317 -0.022146743 0.016619343 0.0018096789 0.013778514 0.022605982 0.0143985255
0.025473697 0.0144777205 -0.017705806 0.045150947 0.033617016 0.014259121 0.0042636897 0.002001761
-0.009740953 0.026180139 5.1290397e-05 -0.0018492667 0.017359162 -0.038789354 0.008690331 -0.0002640012
-0.042245407 -0.015593547 -0.016828902 -0.03678144 -0.009531649 -0.04034174 -0.05009683 0.014512681
-0.05161019 -0.0003012476 -0.031513695 -0.0035563926 0.021917101 -0.022575533 -0.00036634915 0.01600695
0.034736823 0.006223157 0.006024447 -0.0052760453 0.009790561 0.013574543 -0.052828502 0.00011257853
-0.010250736 -0.0018771933 0.018330647 0.027696047 0.008590638 0.03244899 0.0062654032 0.009180458
-0.015768241 -0.009216913 -0.03506031 -0.009320739 -0.019645954 0.036801014 -0.021267325 -0.008456263
0.0023411454 -0.016635342 -0.03740731 -0.013510238 -0.01948537 -0.023061331 0.022290016 -0.016234508
-0.008099695 -0.020703496 0.039167326 -0.007217827 -0.009047879 0.0034944091 0.010331638 0.02734744
-0.010711635 0.0034151394 -0.023539627 0.031997364 0.03159334 -0.032865863 0.01303827 0.0103392275
0.008455172 0.01833441 0.043530036 0.02593824 0.010569283 0.020675661 0.028876903 0.0035680623
0.010974685 0.043149605 0.010854897 0.012774251 0.05608213 0.030777449 0.05795564 0.031166239
0.0006076501 -0.0067628804 0.017346194 -0.026512861 -0.0071688276 0.008184205 -0.003881442 0.048780542
0.020821324 -0.011913779 0.00061272294 0.029864118 -0.018455818 0.036634754 -0.015087927 -0.029904397
0.003778073 -0.02585428 -0.045616888 -0.076664396 0.0015042037 -0.0073532746 -0.0073223417 -0.03224866
-0.030282376 -0.056978814 -0.012114269 -0.04197914 -0.024661608 -0.024169981 -0.026296573 -0.032824304
-0.0354152 -0.025577247 -0.04043807 -0.054490563 -0.014349513 -0.022058304 -0.010525403 -0.040141463
-0.04276709 -0.013452603 0.014836974 -0.0072675017 -0.082755946 -0.018180912 0.015679296 0.03382786
0.0169436 -0.015006779 0.017564 -0.010314313 -0.026349913 0.02426523 0.010778197 0.005711558
0.033010453 0.00828397 0.020088356 -0.019139258 -0.02726499 0.004953989 0.030640356 -0.0049576685
-0.031622853 -0.01879359 -0.0059276293 -0.019655744 -0.012712339 0.019386118 -0.003199146 -0.020947793
-0.01973934 0.0013616461 -0.013493587 -0.02833769 0.016248196 0.0075357542 -0.015567341 -0.00577596
-0.019895209 0.017590623 0.02907254 0.013167503 0.02770879 -0.004264037 0.08587865 0.030165687
0.07665636 0.03778716 0.008850977 0.03789557 0.038719017 0.021168452 0.051116765 0.018381914
0.015432332 0.03444941 -0.00794093 -0.020255744 0.06950074 -0.00868263 0.0052139843 0.014405949
0.028372722 -0.01038667 0.021601243 0.010184851 -0.0011612845 -0.015859341 -0.01856888 -0.0022652803
00000000: 31e9 a93d ff21 323d df6b 093d 9107 c33c
00000010: 12b7 433d be12 133d 1b8b eb3c 34f5 8b3c
00000020: 1d4c 003d 2c9f 953c fdb7 5e3d 6501 d23c
00000030: e152 4c3b 0079 e0bc 4787 b63c 30fe 703b
00000040: 876e 0b3d e6c0 a43c 1269 8abc 933a a43c
00000050: 9368 81bb 1e52 5a3d f33d 60bd b380 dabc
00000060: e0b2 a4bd ec23 98bd 66ef b6bc d2a9 2dbd
00000070: 89aa abbd 6d0b 9dbd 1a67 22bd b28f c8bd
00000080: a05c 89bd bbf6 7bbd 9d47 f1bc 2d13 3dbd
00000090: 4405 e7bb bd09 b13b d4b0 123c a091 a2bc
000000a0: 9b31 9e3c c183 873c 166d b5bc 4a25 883c
000000b0: bf32 ed3a 47bf 613c 2e30 b93c cbe7 6b3c
000000c0: 37ae d03c f633 6d3c c40b 91bc 33f0 383d
000000d0: ffb1 093d 179f 693c 6cb6 8b3b fa2f 033b
000000e0: 8598 1fbc bb77 d63c a520 5738 1863 f2ba
000000f0: cd34 8e3c 96e1 1ebd e461 0e3c a469 8ab9
00000100: 8509 2dbd 147c 7fbc c4dc 89bc 23a8 16bd
00000110: a22a 1cbc 613d 25bd 5532 4dbd 99c6 6d3c
00000120: 3565 53bd c5f0 9db9 8114 01bd 5e12 69bb
00000130: 7e8b b33c 53f0 b8bc 8d12 c0b9 0221 833c
00000140: 3348 0e3d a0eb cb3b b968 c53b ade2 acbb
00000150: 9768 203c c367 5e3c b362 58bd 2318 ec38
00000160: b4f2 27bc 280c f6ba 272a 963c d2e2 e23c
00000170: bfbf 0c3c 3be9 043d 034e cd3b a269 163c
00000180: 662c 81bc 8902 17bc 669b 0fbd 03b6 18bc
00000190: 8df0 a0bc a9bc 163d d038 aebc 238c 0abc
000001a0: e76d 193b d746 88bc 6838 19bd 0c5a 5dbc
000001b0: c89f 9fbc 1eeb bcbc 8d99 b63c 3bfe 84bc
000001c0: 95b4 04bc 619a a9bc eb6d 203d 8583 ecbb
000001d0: 8e3d 14bc 7502 653b 0846 293c bd07 e03c
000001e0: db7f 2fbc 88d0 5f3b 2dd6 c0bc ab0f 033d
000001f0: 0568 013d 5b9e 06bd 789e 553c dd65 293c
00000200: 9087 0a3c 0b32 963c 8d4c 323d 6f7c d43c
00000210: c92a 2d3c 0160 a93c 418f ec3c 27d6 693b
00000220: 2acf 333c a4bd 303d bdd8 313c 184b 513c
00000230: 60b6 653d fd20 fc3c e562 6d3d 5750 ff3c
00000240: b54a 1f3a 279b ddbb 9b19 8e3c 8031 d9bc
00000250: 7ce8 eabb 0b17 063c ca5f 7ebb 1bce 473d
00000260: 7b91 aa3c 0332 43bc 249f 203a 98a5 f43c
00000270: a830 97bc 530e 163d 5a33 77bc 11fa f4bc
00000280: 8c99 773b 5bcc d3bc c6d8 3abd 3902 9dbd
00000290: b328 c53a bdf3 f0bb 41f0 efbb 2c17 04bd
000002a0: bf12 f8bc 9e62 69bd ed7a 46bc 52f2 2bbd
000002b0: 2407 cabc 2000 c6bc e96b d7bc c772 06bd
000002c0: 870f 11bd 6087 d1bc 64a2 25bd 7f31 5fbd
000002d0: 381a 6bbc 9eb3 b4bc bd72 2cbc 606b 24bd
000002e0: 8b2c 2fbd 4e68 5cbc c816 733c 3924 eebb
000002f0: f37b a9bd 23f0 94bc de71 803c 158f 0a3d
00000300: 4ecd 8a3c fede 75bc 61e2 8f3c 5dfd 28bc
00000310: c6db d7bc e0c7 c63c 0997 303c 0528 bb3b
00000320: f835 073d 7db9 073c 5690 a43c efc9 9cbc
00000330: d45a dfbc 1255 a23b 7c01 fb3c f073 a2bb
00000340: f786 01bd 04f5 99bc 8f3c c2bb 1505 a1bc
00000350: 6a47 50bc a3cf 9e3c c3a8 51bb b59a abbc
00000360: 65b4 a1bc 4379 b23a 3514 5dbc 7124 e8bc
00000370: f01a 853c 7dee f63b 290e 7fbc 4444 bdbb
00000380: 47fb a2bc 361a 903c 8929 ee3c 83bc 573c
00000390: 8bfd e23c 56b9 8bbb 25e1 af3d 081e f73c
000003a0: 02fe 9c3d b6c6 1a3d b003 113c 6338 1b3d
000003b0: d597 1e3d 7669 ad3c d05f 513d ab95 963c
000003c0: e4d7 7c3c d31a 0d3d ad1a 02bc 60ef a5bc
000003d0: 6756 8e3d 9741 0ebc 12da aa3b ee06 6c3c
000003e0: e96d e83c da2c 2abc 17f5 b03c 5cde 263c
000003f0: 3e36 98ba 73eb 81bc c41d 98bc 1975 14bb

spatial.conv1.conv.bias f4 [24]
0.056356736 0.0688821 0.034657635 -0.028623326 -0.050707832 0.048583515 -0.06629428 0.0085524
0.028736623 0.028547848 0.05970974 -0.05281162 -0.0968666 0.0072856634 0.010858868 -0.08066192
-0.08960658 -0.058940444 -0.004976413 0.027526194 -0.034825917 -0.028729893 -0.03481534 -0.043559834
00000000: 52d6 663d 0f12 8d3d 2af5 0d3d 777b eabc
00000010: 04b3 4fbd 82ff 463d 4cc5 87bd 5e1f 0c3c
00000020: 1169 eb3c 2ddd e93c 3392 743d ff50 58bd
00000030: ff61 c6bd 93bc ee3b 65e9 313c 1432 a5bd
00000040: a883 b7bd 896b 71bd 2e11 a3bb 9d7e e13c
00000050: 9fa5 0ebd f45a ebbc 889a 0ebd cc6b 32bd

spatial.conv1.bn.weight f4 [24]
1.0198578 1.0293714 1.0063236 0.98860955 1.0446314 0.99004817 0.97831374 0.96674496
1.0161982 1.0198115 0.9847243 1.0056311 0.9618963 1.0137459 1.0326632 1.0322917
0.9843436 1.0114125 1.0202526 0.95850337 1.015273 0.9991459 1.0153834 1.0100068
00000000: b38a 823f 71c2 833f 36cf 803f 8415 7d3f
00000010: 7bb6 853f cc73 7d3f c572 7a3f 997c 773f
00000020: c812 823f 2f89 823f e416 7c3f 85b8 803f
00000030: d63e 763f 6dc2 813f 4f2e 843f 2222 843f
00000040: f1fd 7b3f f775 813f a397 823f 7a60 753f
00000050: 77f4 813f 07c8 7f3f 15f8 813f e747 813f

spatial.conv1.bn.bias f4 [24]
-0.0054919994 -0.0122806 0.013379833 -0.015758956 0.016694209 -0.0013017076 0.018534785 0.019426277
0.023374313 -0.03472896 -0.0031047184 -0.016453523 -0.0614058 0.03725735 0.014881258 0.031985566
0.01263717 0.022206685 -0.0755608 0.0056890254 -0.034083333 -0.01875458 0.0029496185 0.0307712
00000000: 3bf6 b3bb 9234 49bc 1637 5b3c ed18 81bc
00000010: 4bc2 883c 0f9e aaba 43d6 973c db23 9f3c
00000020: 7d7b bf3c f43f 0ebd 8878 4bbb 8ac9 86bc
00000030: a684 7bbd 2a9b 183d 85d0 733c 4c03 033d
00000040: 220c 4f3c cbea b53c 9fbf 9abd 016b ba3b
00000050: f79a 0bbd 34a3 99bc 634e 413b e213 fc3c

spatial.conv1.bn.running_mean f4 [24]
-411.2205 -493.8552 -400.7959 -1736.722 265.59784 356.65317 312.0417 -196.39214
154.11435 999.20154 487.94983 -218.93512 10.366912 -420.5154 -240.33063 451.19098
223.18849 440.2496 -1264.794 1592.5697 -591.5259 125.89146 -1182.7203 907.7303
00000000: 399c cdc3 77ed f6c3 e065 c8c3 1b17 d9c4
00000010: 86cc 8443 9b53 b243 5605 9c43 6364 44c3
00000020: 461d 1a43 e6cc 7944 94f9 f343 64ef 5ac3
00000030: dfde 2541 f941 d2c3 a454 70c3 7298 e143
00000040: 4130 5f43 f31f dc43 6819 9ec4 3b12 c744
00000050: a8e1 13c4 6dc8 fb42 0dd7 93c4 bdee 6244

spatial.conv1.bn.running_var f4 [24]
83892.164 149113.62 352127.44 1.4475442e+06 43754.12 71880.71 237955.42 504095.2
183026.03 388571.94 142568.48 272614.88 571225.7 115719.38 63011.18 92304.87
102478.41 94784.97 649559.8 884729.6 192826.67 88308.1 470335.16 199457.53
00000000: 15da a347 689e 1148 eeef ab48 c2b3 b049
00000010: 1fea 2a47 5b64 8c47 db60 6848 e623 f648
00000020: 82bc 3248 7ebb bd48 1f3a 0b48 dc1c 8548
00000030: 9b75 0b49 b103 e247 2e23 7647 6f48 b447
00000040: 3427 c847 7c20 b947 7d95 1e49 9aff 5749
00000050: ab4e 3c48 0d7a ac47 e5a7 e548 62c8 4248
